{
  "nodes": [
    {
      "op": "null", 
      "name": "data/0", 
      "inputs": []
    }, 
    {
      "op": "null", 
      "name": "embed_weight", 
      "inputs": []
    }, 
    {
      "op": "Embedding", 
      "name": "t0_embed", 
      "attr": {
        "input_dim": "84", 
        "output_dim": "256"
      }, 
      "inputs": [[0, 0, 0], [1, 0, 0]]
    }, 
    {
      "op": "null", 
      "name": "l0_i2h_weight", 
      "inputs": []
    }, 
    {
      "op": "null", 
      "name": "l0_i2h_bias", 
      "inputs": []
    }, 
    {
      "op": "FullyConnected", 
      "name": "t0_l0_i2h", 
      "attr": {"num_hidden": "2048"}, 
      "inputs": [[2, 0, 0], [3, 0, 0], [4, 0, 0]]
    }, 
    {
      "op": "null", 
      "name": "l0_init_h", 
      "inputs": []
    }, 
    {
      "op": "null", 
      "name": "l0_h2h_weight", 
      "inputs": []
    }, 
    {
      "op": "null", 
      "name": "l0_h2h_bias", 
      "inputs": []
    }, 
    {
      "op": "FullyConnected", 
      "name": "t0_l0_h2h", 
      "attr": {"num_hidden": "2048"}, 
      "inputs": [[6, 0, 0], [7, 0, 0], [8, 0, 0]]
    }, 
    {
      "op": "elemwise_add", 
      "name": "_plus0", 
      "inputs": [[5, 0, 0], [9, 0, 0]]
    }, 
    {
      "op": "SliceChannel", 
      "name": "t0_l0_slice", 
      "attr": {"num_outputs": "4"}, 
      "inputs": [[10, 0, 0]]
    }, 
    {
      "op": "Activation", 
      "name": "activation2", 
      "attr": {"act_type": "sigmoid"}, 
      "inputs": [[11, 2, 0]]
    }, 
    {
      "op": "Activation", 
      "name": "activation1", 
      "attr": {"act_type": "sigmoid"}, 
      "inputs": [[11, 1, 0]]
    }, 
    {
      "op": "null", 
      "name": "l0_init_c", 
      "inputs": []
    }, 
    {
      "op": "_mul", 
      "name": "_mul0", 
      "inputs": [[13, 0, 0], [14, 0, 0]]
    }, 
    {
      "op": "Activation", 
      "name": "activation0", 
      "attr": {"act_type": "sigmoid"}, 
      "inputs": [[11, 0, 0]]
    }, 
    {
      "op": "Activation", 
      "name": "activation3", 
      "attr": {"act_type": "tanh"}, 
      "inputs": [[11, 3, 0]]
    }, 
    {
      "op": "_mul", 
      "name": "_mul1", 
      "inputs": [[16, 0, 0], [17, 0, 0]]
    }, 
    {
      "op": "elemwise_add", 
      "name": "_plus1", 
      "inputs": [[15, 0, 0], [18, 0, 0]]
    }, 
    {
      "op": "Activation", 
      "name": "activation4", 
      "attr": {"act_type": "tanh"}, 
      "inputs": [[19, 0, 0]]
    }, 
    {
      "op": "_mul", 
      "name": "_mul2", 
      "inputs": [[12, 0, 0], [20, 0, 0]]
    }, 
    {
      "op": "Dropout", 
      "name": "dropout0", 
      "attr": {"p": "0.2"}, 
      "inputs": [[21, 0, 0]]
    }, 
    {
      "op": "null", 
      "name": "l1_i2h_weight", 
      "inputs": []
    }, 
    {
      "op": "null", 
      "name": "l1_i2h_bias", 
      "inputs": []
    }, 
    {
      "op": "FullyConnected", 
      "name": "t0_l1_i2h", 
      "attr": {"num_hidden": "2048"}, 
      "inputs": [[22, 0, 0], [23, 0, 0], [24, 0, 0]]
    }, 
    {
      "op": "null", 
      "name": "l1_init_h", 
      "inputs": []
    }, 
    {
      "op": "null", 
      "name": "l1_h2h_weight", 
      "inputs": []
    }, 
    {
      "op": "null", 
      "name": "l1_h2h_bias", 
      "inputs": []
    }, 
    {
      "op": "FullyConnected", 
      "name": "t0_l1_h2h", 
      "attr": {"num_hidden": "2048"}, 
      "inputs": [[26, 0, 0], [27, 0, 0], [28, 0, 0]]
    }, 
    {
      "op": "elemwise_add", 
      "name": "_plus2", 
      "inputs": [[25, 0, 0], [29, 0, 0]]
    }, 
    {
      "op": "SliceChannel", 
      "name": "t0_l1_slice", 
      "attr": {"num_outputs": "4"}, 
      "inputs": [[30, 0, 0]]
    }, 
    {
      "op": "Activation", 
      "name": "activation7", 
      "attr": {"act_type": "sigmoid"}, 
      "inputs": [[31, 2, 0]]
    }, 
    {
      "op": "Activation", 
      "name": "activation6", 
      "attr": {"act_type": "sigmoid"}, 
      "inputs": [[31, 1, 0]]
    }, 
    {
      "op": "null", 
      "name": "l1_init_c", 
      "inputs": []
    }, 
    {
      "op": "_mul", 
      "name": "_mul3", 
      "inputs": [[33, 0, 0], [34, 0, 0]]
    }, 
    {
      "op": "Activation", 
      "name": "activation5", 
      "attr": {"act_type": "sigmoid"}, 
      "inputs": [[31, 0, 0]]
    }, 
    {
      "op": "Activation", 
      "name": "activation8", 
      "attr": {"act_type": "tanh"}, 
      "inputs": [[31, 3, 0]]
    }, 
    {
      "op": "_mul", 
      "name": "_mul4", 
      "inputs": [[36, 0, 0], [37, 0, 0]]
    }, 
    {
      "op": "elemwise_add", 
      "name": "_plus3", 
      "inputs": [[35, 0, 0], [38, 0, 0]]
    }, 
    {
      "op": "Activation", 
      "name": "activation9", 
      "attr": {"act_type": "tanh"}, 
      "inputs": [[39, 0, 0]]
    }, 
    {
      "op": "_mul", 
      "name": "_mul5", 
      "inputs": [[32, 0, 0], [40, 0, 0]]
    }, 
    {
      "op": "Dropout", 
      "name": "dropout1", 
      "attr": {"p": "0.2"}, 
      "inputs": [[41, 0, 0]]
    }, 
    {
      "op": "null", 
      "name": "l2_i2h_weight", 
      "inputs": []
    }, 
    {
      "op": "null", 
      "name": "l2_i2h_bias", 
      "inputs": []
    }, 
    {
      "op": "FullyConnected", 
      "name": "t0_l2_i2h", 
      "attr": {"num_hidden": "2048"}, 
      "inputs": [[42, 0, 0], [43, 0, 0], [44, 0, 0]]
    }, 
    {
      "op": "null", 
      "name": "l2_init_h", 
      "inputs": []
    }, 
    {
      "op": "null", 
      "name": "l2_h2h_weight", 
      "inputs": []
    }, 
    {
      "op": "null", 
      "name": "l2_h2h_bias", 
      "inputs": []
    }, 
    {
      "op": "FullyConnected", 
      "name": "t0_l2_h2h", 
      "attr": {"num_hidden": "2048"}, 
      "inputs": [[46, 0, 0], [47, 0, 0], [48, 0, 0]]
    }, 
    {
      "op": "elemwise_add", 
      "name": "_plus4", 
      "inputs": [[45, 0, 0], [49, 0, 0]]
    }, 
    {
      "op": "SliceChannel", 
      "name": "t0_l2_slice", 
      "attr": {"num_outputs": "4"}, 
      "inputs": [[50, 0, 0]]
    }, 
    {
      "op": "Activation", 
      "name": "activation12", 
      "attr": {"act_type": "sigmoid"}, 
      "inputs": [[51, 2, 0]]
    }, 
    {
      "op": "Activation", 
      "name": "activation11", 
      "attr": {"act_type": "sigmoid"}, 
      "inputs": [[51, 1, 0]]
    }, 
    {
      "op": "null", 
      "name": "l2_init_c", 
      "inputs": []
    }, 
    {
      "op": "_mul", 
      "name": "_mul6", 
      "inputs": [[53, 0, 0], [54, 0, 0]]
    }, 
    {
      "op": "Activation", 
      "name": "activation10", 
      "attr": {"act_type": "sigmoid"}, 
      "inputs": [[51, 0, 0]]
    }, 
    {
      "op": "Activation", 
      "name": "activation13", 
      "attr": {"act_type": "tanh"}, 
      "inputs": [[51, 3, 0]]
    }, 
    {
      "op": "_mul", 
      "name": "_mul7", 
      "inputs": [[56, 0, 0], [57, 0, 0]]
    }, 
    {
      "op": "elemwise_add", 
      "name": "_plus5", 
      "inputs": [[55, 0, 0], [58, 0, 0]]
    }, 
    {
      "op": "Activation", 
      "name": "activation14", 
      "attr": {"act_type": "tanh"}, 
      "inputs": [[59, 0, 0]]
    }, 
    {
      "op": "_mul", 
      "name": "_mul8", 
      "inputs": [[52, 0, 0], [60, 0, 0]]
    }, 
    {
      "op": "Dropout", 
      "name": "dropout2", 
      "attr": {"p": "0.2"}, 
      "inputs": [[61, 0, 0]]
    }, 
    {
      "op": "null", 
      "name": "cls_weight", 
      "inputs": []
    }, 
    {
      "op": "null", 
      "name": "cls_bias", 
      "inputs": []
    }, 
    {
      "op": "FullyConnected", 
      "name": "fullyconnected0", 
      "attr": {"num_hidden": "84"}, 
      "inputs": [[62, 0, 0], [63, 0, 0], [64, 0, 0]]
    }, 
    {
      "op": "null", 
      "name": "label/0", 
      "inputs": []
    }, 
    {
      "op": "SoftmaxOutput", 
      "name": "t0_sm", 
      "inputs": [[65, 0, 0], [66, 0, 0]]
    }, 
    {
      "op": "null", 
      "name": "data/1", 
      "inputs": []
    }, 
    {
      "op": "Embedding", 
      "name": "t1_embed", 
      "attr": {
        "input_dim": "84", 
        "output_dim": "256"
      }, 
      "inputs": [[68, 0, 0], [1, 0, 0]]
    }, 
    {
      "op": "FullyConnected", 
      "name": "t1_l0_i2h", 
      "attr": {"num_hidden": "2048"}, 
      "inputs": [[69, 0, 0], [3, 0, 0], [4, 0, 0]]
    }, 
    {
      "op": "FullyConnected", 
      "name": "t1_l0_h2h", 
      "attr": {"num_hidden": "2048"}, 
      "inputs": [[21, 0, 0], [7, 0, 0], [8, 0, 0]]
    }, 
    {
      "op": "elemwise_add", 
      "name": "_plus6", 
      "inputs": [[70, 0, 0], [71, 0, 0]]
    }, 
    {
      "op": "SliceChannel", 
      "name": "t1_l0_slice", 
      "attr": {"num_outputs": "4"}, 
      "inputs": [[72, 0, 0]]
    }, 
    {
      "op": "Activation", 
      "name": "activation17", 
      "attr": {"act_type": "sigmoid"}, 
      "inputs": [[73, 2, 0]]
    }, 
    {
      "op": "Activation", 
      "name": "activation16", 
      "attr": {"act_type": "sigmoid"}, 
      "inputs": [[73, 1, 0]]
    }, 
    {
      "op": "_mul", 
      "name": "_mul9", 
      "inputs": [[75, 0, 0], [19, 0, 0]]
    }, 
    {
      "op": "Activation", 
      "name": "activation15", 
      "attr": {"act_type": "sigmoid"}, 
      "inputs": [[73, 0, 0]]
    }, 
    {
      "op": "Activation", 
      "name": "activation18", 
      "attr": {"act_type": "tanh"}, 
      "inputs": [[73, 3, 0]]
    }, 
    {
      "op": "_mul", 
      "name": "_mul10", 
      "inputs": [[77, 0, 0], [78, 0, 0]]
    }, 
    {
      "op": "elemwise_add", 
      "name": "_plus7", 
      "inputs": [[76, 0, 0], [79, 0, 0]]
    }, 
    {
      "op": "Activation", 
      "name": "activation19", 
      "attr": {"act_type": "tanh"}, 
      "inputs": [[80, 0, 0]]
    }, 
    {
      "op": "_mul", 
      "name": "_mul11", 
      "inputs": [[74, 0, 0], [81, 0, 0]]
    }, 
    {
      "op": "Dropout", 
      "name": "dropout3", 
      "attr": {"p": "0.2"}, 
      "inputs": [[82, 0, 0]]
    }, 
    {
      "op": "FullyConnected", 
      "name": "t1_l1_i2h", 
      "attr": {"num_hidden": "2048"}, 
      "inputs": [[83, 0, 0], [23, 0, 0], [24, 0, 0]]
    }, 
    {
      "op": "FullyConnected", 
      "name": "t1_l1_h2h", 
      "attr": {"num_hidden": "2048"}, 
      "inputs": [[41, 0, 0], [27, 0, 0], [28, 0, 0]]
    }, 
    {
      "op": "elemwise_add", 
      "name": "_plus8", 
      "inputs": [[84, 0, 0], [85, 0, 0]]
    }, 
    {
      "op": "SliceChannel", 
      "name": "t1_l1_slice", 
      "attr": {"num_outputs": "4"}, 
      "inputs": [[86, 0, 0]]
    }, 
    {
      "op": "Activation", 
      "name": "activation22", 
      "attr": {"act_type": "sigmoid"}, 
      "inputs": [[87, 2, 0]]
    }, 
    {
      "op": "Activation", 
      "name": "activation21", 
      "attr": {"act_type": "sigmoid"}, 
      "inputs": [[87, 1, 0]]
    }, 
    {
      "op": "_mul", 
      "name": "_mul12", 
      "inputs": [[89, 0, 0], [39, 0, 0]]
    }, 
    {
      "op": "Activation", 
      "name": "activation20", 
      "attr": {"act_type": "sigmoid"}, 
      "inputs": [[87, 0, 0]]
    }, 
    {
      "op": "Activation", 
      "name": "activation23", 
      "attr": {"act_type": "tanh"}, 
      "inputs": [[87, 3, 0]]
    }, 
    {
      "op": "_mul", 
      "name": "_mul13", 
      "inputs": [[91, 0, 0], [92, 0, 0]]
    }, 
    {
      "op": "elemwise_add", 
      "name": "_plus9", 
      "inputs": [[90, 0, 0], [93, 0, 0]]
    }, 
    {
      "op": "Activation", 
      "name": "activation24", 
      "attr": {"act_type": "tanh"}, 
      "inputs": [[94, 0, 0]]
    }, 
    {
      "op": "_mul", 
      "name": "_mul14", 
      "inputs": [[88, 0, 0], [95, 0, 0]]
    }, 
    {
      "op": "Dropout", 
      "name": "dropout4", 
      "attr": {"p": "0.2"}, 
      "inputs": [[96, 0, 0]]
    }, 
    {
      "op": "FullyConnected", 
      "name": "t1_l2_i2h", 
      "attr": {"num_hidden": "2048"}, 
      "inputs": [[97, 0, 0], [43, 0, 0], [44, 0, 0]]
    }, 
    {
      "op": "FullyConnected", 
      "name": "t1_l2_h2h", 
      "attr": {"num_hidden": "2048"}, 
      "inputs": [[61, 0, 0], [47, 0, 0], [48, 0, 0]]
    }, 
    {
      "op": "elemwise_add", 
      "name": "_plus10", 
      "inputs": [[98, 0, 0], [99, 0, 0]]
    }, 
    {
      "op": "SliceChannel", 
      "name": "t1_l2_slice", 
      "attr": {"num_outputs": "4"}, 
      "inputs": [[100, 0, 0]]
    }, 
    {
      "op": "Activation", 
      "name": "activation27", 
      "attr": {"act_type": "sigmoid"}, 
      "inputs": [[101, 2, 0]]
    }, 
    {
      "op": "Activation", 
      "name": "activation26", 
      "attr": {"act_type": "sigmoid"}, 
      "inputs": [[101, 1, 0]]
    }, 
    {
      "op": "_mul", 
      "name": "_mul15", 
      "inputs": [[103, 0, 0], [59, 0, 0]]
    }, 
    {
      "op": "Activation", 
      "name": "activation25", 
      "attr": {"act_type": "sigmoid"}, 
      "inputs": [[101, 0, 0]]
    }, 
    {
      "op": "Activation", 
      "name": "activation28", 
      "attr": {"act_type": "tanh"}, 
      "inputs": [[101, 3, 0]]
    }, 
    {
      "op": "_mul", 
      "name": "_mul16", 
      "inputs": [[105, 0, 0], [106, 0, 0]]
    }, 
    {
      "op": "elemwise_add", 
      "name": "_plus11", 
      "inputs": [[104, 0, 0], [107, 0, 0]]
    }, 
    {
      "op": "Activation", 
      "name": "activation29", 
      "attr": {"act_type": "tanh"}, 
      "inputs": [[108, 0, 0]]
    }, 
    {
      "op": "_mul", 
      "name": "_mul17", 
      "inputs": [[102, 0, 0], [109, 0, 0]]
    }, 
    {
      "op": "Dropout", 
      "name": "dropout5", 
      "attr": {"p": "0.2"}, 
      "inputs": [[110, 0, 0]]
    }, 
    {
      "op": "FullyConnected", 
      "name": "fullyconnected1", 
      "attr": {"num_hidden": "84"}, 
      "inputs": [[111, 0, 0], [63, 0, 0], [64, 0, 0]]
    }, 
    {
      "op": "null", 
      "name": "label/1", 
      "inputs": []
    }, 
    {
      "op": "SoftmaxOutput", 
      "name": "t1_sm", 
      "inputs": [[112, 0, 0], [113, 0, 0]]
    }, 
    {
      "op": "null", 
      "name": "data/2", 
      "inputs": []
    }, 
    {
      "op": "Embedding", 
      "name": "t2_embed", 
      "attr": {
        "input_dim": "84", 
        "output_dim": "256"
      }, 
      "inputs": [[115, 0, 0], [1, 0, 0]]
    }, 
    {
      "op": "FullyConnected", 
      "name": "t2_l0_i2h", 
      "attr": {"num_hidden": "2048"}, 
      "inputs": [[116, 0, 0], [3, 0, 0], [4, 0, 0]]
    }, 
    {
      "op": "FullyConnected", 
      "name": "t2_l0_h2h", 
      "attr": {"num_hidden": "2048"}, 
      "inputs": [[82, 0, 0], [7, 0, 0], [8, 0, 0]]
    }, 
    {
      "op": "elemwise_add", 
      "name": "_plus12", 
      "inputs": [[117, 0, 0], [118, 0, 0]]
    }, 
    {
      "op": "SliceChannel", 
      "name": "t2_l0_slice", 
      "attr": {"num_outputs": "4"}, 
      "inputs": [[119, 0, 0]]
    }, 
    {
      "op": "Activation", 
      "name": "activation32", 
      "attr": {"act_type": "sigmoid"}, 
      "inputs": [[120, 2, 0]]
    }, 
    {
      "op": "Activation", 
      "name": "activation31", 
      "attr": {"act_type": "sigmoid"}, 
      "inputs": [[120, 1, 0]]
    }, 
    {
      "op": "_mul", 
      "name": "_mul18", 
      "inputs": [[122, 0, 0], [80, 0, 0]]
    }, 
    {
      "op": "Activation", 
      "name": "activation30", 
      "attr": {"act_type": "sigmoid"}, 
      "inputs": [[120, 0, 0]]
    }, 
    {
      "op": "Activation", 
      "name": "activation33", 
      "attr": {"act_type": "tanh"}, 
      "inputs": [[120, 3, 0]]
    }, 
    {
      "op": "_mul", 
      "name": "_mul19", 
      "inputs": [[124, 0, 0], [125, 0, 0]]
    }, 
    {
      "op": "elemwise_add", 
      "name": "_plus13", 
      "inputs": [[123, 0, 0], [126, 0, 0]]
    }, 
    {
      "op": "Activation", 
      "name": "activation34", 
      "attr": {"act_type": "tanh"}, 
      "inputs": [[127, 0, 0]]
    }, 
    {
      "op": "_mul", 
      "name": "_mul20", 
      "inputs": [[121, 0, 0], [128, 0, 0]]
    }, 
    {
      "op": "Dropout", 
      "name": "dropout6", 
      "attr": {"p": "0.2"}, 
      "inputs": [[129, 0, 0]]
    }, 
    {
      "op": "FullyConnected", 
      "name": "t2_l1_i2h", 
      "attr": {"num_hidden": "2048"}, 
      "inputs": [[130, 0, 0], [23, 0, 0], [24, 0, 0]]
    }, 
    {
      "op": "FullyConnected", 
      "name": "t2_l1_h2h", 
      "attr": {"num_hidden": "2048"}, 
      "inputs": [[96, 0, 0], [27, 0, 0], [28, 0, 0]]
    }, 
    {
      "op": "elemwise_add", 
      "name": "_plus14", 
      "inputs": [[131, 0, 0], [132, 0, 0]]
    }, 
    {
      "op": "SliceChannel", 
      "name": "t2_l1_slice", 
      "attr": {"num_outputs": "4"}, 
      "inputs": [[133, 0, 0]]
    }, 
    {
      "op": "Activation", 
      "name": "activation37", 
      "attr": {"act_type": "sigmoid"}, 
      "inputs": [[134, 2, 0]]
    }, 
    {
      "op": "Activation", 
      "name": "activation36", 
      "attr": {"act_type": "sigmoid"}, 
      "inputs": [[134, 1, 0]]
    }, 
    {
      "op": "_mul", 
      "name": "_mul21", 
      "inputs": [[136, 0, 0], [94, 0, 0]]
    }, 
    {
      "op": "Activation", 
      "name": "activation35", 
      "attr": {"act_type": "sigmoid"}, 
      "inputs": [[134, 0, 0]]
    }, 
    {
      "op": "Activation", 
      "name": "activation38", 
      "attr": {"act_type": "tanh"}, 
      "inputs": [[134, 3, 0]]
    }, 
    {
      "op": "_mul", 
      "name": "_mul22", 
      "inputs": [[138, 0, 0], [139, 0, 0]]
    }, 
    {
      "op": "elemwise_add", 
      "name": "_plus15", 
      "inputs": [[137, 0, 0], [140, 0, 0]]
    }, 
    {
      "op": "Activation", 
      "name": "activation39", 
      "attr": {"act_type": "tanh"}, 
      "inputs": [[141, 0, 0]]
    }, 
    {
      "op": "_mul", 
      "name": "_mul23", 
      "inputs": [[135, 0, 0], [142, 0, 0]]
    }, 
    {
      "op": "Dropout", 
      "name": "dropout7", 
      "attr": {"p": "0.2"}, 
      "inputs": [[143, 0, 0]]
    }, 
    {
      "op": "FullyConnected", 
      "name": "t2_l2_i2h", 
      "attr": {"num_hidden": "2048"}, 
      "inputs": [[144, 0, 0], [43, 0, 0], [44, 0, 0]]
    }, 
    {
      "op": "FullyConnected", 
      "name": "t2_l2_h2h", 
      "attr": {"num_hidden": "2048"}, 
      "inputs": [[110, 0, 0], [47, 0, 0], [48, 0, 0]]
    }, 
    {
      "op": "elemwise_add", 
      "name": "_plus16", 
      "inputs": [[145, 0, 0], [146, 0, 0]]
    }, 
    {
      "op": "SliceChannel", 
      "name": "t2_l2_slice", 
      "attr": {"num_outputs": "4"}, 
      "inputs": [[147, 0, 0]]
    }, 
    {
      "op": "Activation", 
      "name": "activation42", 
      "attr": {"act_type": "sigmoid"}, 
      "inputs": [[148, 2, 0]]
    }, 
    {
      "op": "Activation", 
      "name": "activation41", 
      "attr": {"act_type": "sigmoid"}, 
      "inputs": [[148, 1, 0]]
    }, 
    {
      "op": "_mul", 
      "name": "_mul24", 
      "inputs": [[150, 0, 0], [108, 0, 0]]
    }, 
    {
      "op": "Activation", 
      "name": "activation40", 
      "attr": {"act_type": "sigmoid"}, 
      "inputs": [[148, 0, 0]]
    }, 
    {
      "op": "Activation", 
      "name": "activation43", 
      "attr": {"act_type": "tanh"}, 
      "inputs": [[148, 3, 0]]
    }, 
    {
      "op": "_mul", 
      "name": "_mul25", 
      "inputs": [[152, 0, 0], [153, 0, 0]]
    }, 
    {
      "op": "elemwise_add", 
      "name": "_plus17", 
      "inputs": [[151, 0, 0], [154, 0, 0]]
    }, 
    {
      "op": "Activation", 
      "name": "activation44", 
      "attr": {"act_type": "tanh"}, 
      "inputs": [[155, 0, 0]]
    }, 
    {
      "op": "_mul", 
      "name": "_mul26", 
      "inputs": [[149, 0, 0], [156, 0, 0]]
    }, 
    {
      "op": "Dropout", 
      "name": "dropout8", 
      "attr": {"p": "0.2"}, 
      "inputs": [[157, 0, 0]]
    }, 
    {
      "op": "FullyConnected", 
      "name": "fullyconnected2", 
      "attr": {"num_hidden": "84"}, 
      "inputs": [[158, 0, 0], [63, 0, 0], [64, 0, 0]]
    }, 
    {
      "op": "null", 
      "name": "label/2", 
      "inputs": []
    }, 
    {
      "op": "SoftmaxOutput", 
      "name": "t2_sm", 
      "inputs": [[159, 0, 0], [160, 0, 0]]
    }, 
    {
      "op": "null", 
      "name": "data/3", 
      "inputs": []
    }, 
    {
      "op": "Embedding", 
      "name": "t3_embed", 
      "attr": {
        "input_dim": "84", 
        "output_dim": "256"
      }, 
      "inputs": [[162, 0, 0], [1, 0, 0]]
    }, 
    {
      "op": "FullyConnected", 
      "name": "t3_l0_i2h", 
      "attr": {"num_hidden": "2048"}, 
      "inputs": [[163, 0, 0], [3, 0, 0], [4, 0, 0]]
    }, 
    {
      "op": "FullyConnected", 
      "name": "t3_l0_h2h", 
      "attr": {"num_hidden": "2048"}, 
      "inputs": [[129, 0, 0], [7, 0, 0], [8, 0, 0]]
    }, 
    {
      "op": "elemwise_add", 
      "name": "_plus18", 
      "inputs": [[164, 0, 0], [165, 0, 0]]
    }, 
    {
      "op": "SliceChannel", 
      "name": "t3_l0_slice", 
      "attr": {"num_outputs": "4"}, 
      "inputs": [[166, 0, 0]]
    }, 
    {
      "op": "Activation", 
      "name": "activation47", 
      "attr": {"act_type": "sigmoid"}, 
      "inputs": [[167, 2, 0]]
    }, 
    {
      "op": "Activation", 
      "name": "activation46", 
      "attr": {"act_type": "sigmoid"}, 
      "inputs": [[167, 1, 0]]
    }, 
    {
      "op": "_mul", 
      "name": "_mul27", 
      "inputs": [[169, 0, 0], [127, 0, 0]]
    }, 
    {
      "op": "Activation", 
      "name": "activation45", 
      "attr": {"act_type": "sigmoid"}, 
      "inputs": [[167, 0, 0]]
    }, 
    {
      "op": "Activation", 
      "name": "activation48", 
      "attr": {"act_type": "tanh"}, 
      "inputs": [[167, 3, 0]]
    }, 
    {
      "op": "_mul", 
      "name": "_mul28", 
      "inputs": [[171, 0, 0], [172, 0, 0]]
    }, 
    {
      "op": "elemwise_add", 
      "name": "_plus19", 
      "inputs": [[170, 0, 0], [173, 0, 0]]
    }, 
    {
      "op": "Activation", 
      "name": "activation49", 
      "attr": {"act_type": "tanh"}, 
      "inputs": [[174, 0, 0]]
    }, 
    {
      "op": "_mul", 
      "name": "_mul29", 
      "inputs": [[168, 0, 0], [175, 0, 0]]
    }, 
    {
      "op": "Dropout", 
      "name": "dropout9", 
      "attr": {"p": "0.2"}, 
      "inputs": [[176, 0, 0]]
    }, 
    {
      "op": "FullyConnected", 
      "name": "t3_l1_i2h", 
      "attr": {"num_hidden": "2048"}, 
      "inputs": [[177, 0, 0], [23, 0, 0], [24, 0, 0]]
    }, 
    {
      "op": "FullyConnected", 
      "name": "t3_l1_h2h", 
      "attr": {"num_hidden": "2048"}, 
      "inputs": [[143, 0, 0], [27, 0, 0], [28, 0, 0]]
    }, 
    {
      "op": "elemwise_add", 
      "name": "_plus20", 
      "inputs": [[178, 0, 0], [179, 0, 0]]
    }, 
    {
      "op": "SliceChannel", 
      "name": "t3_l1_slice", 
      "attr": {"num_outputs": "4"}, 
      "inputs": [[180, 0, 0]]
    }, 
    {
      "op": "Activation", 
      "name": "activation52", 
      "attr": {"act_type": "sigmoid"}, 
      "inputs": [[181, 2, 0]]
    }, 
    {
      "op": "Activation", 
      "name": "activation51", 
      "attr": {"act_type": "sigmoid"}, 
      "inputs": [[181, 1, 0]]
    }, 
    {
      "op": "_mul", 
      "name": "_mul30", 
      "inputs": [[183, 0, 0], [141, 0, 0]]
    }, 
    {
      "op": "Activation", 
      "name": "activation50", 
      "attr": {"act_type": "sigmoid"}, 
      "inputs": [[181, 0, 0]]
    }, 
    {
      "op": "Activation", 
      "name": "activation53", 
      "attr": {"act_type": "tanh"}, 
      "inputs": [[181, 3, 0]]
    }, 
    {
      "op": "_mul", 
      "name": "_mul31", 
      "inputs": [[185, 0, 0], [186, 0, 0]]
    }, 
    {
      "op": "elemwise_add", 
      "name": "_plus21", 
      "inputs": [[184, 0, 0], [187, 0, 0]]
    }, 
    {
      "op": "Activation", 
      "name": "activation54", 
      "attr": {"act_type": "tanh"}, 
      "inputs": [[188, 0, 0]]
    }, 
    {
      "op": "_mul", 
      "name": "_mul32", 
      "inputs": [[182, 0, 0], [189, 0, 0]]
    }, 
    {
      "op": "Dropout", 
      "name": "dropout10", 
      "attr": {"p": "0.2"}, 
      "inputs": [[190, 0, 0]]
    }, 
    {
      "op": "FullyConnected", 
      "name": "t3_l2_i2h", 
      "attr": {"num_hidden": "2048"}, 
      "inputs": [[191, 0, 0], [43, 0, 0], [44, 0, 0]]
    }, 
    {
      "op": "FullyConnected", 
      "name": "t3_l2_h2h", 
      "attr": {"num_hidden": "2048"}, 
      "inputs": [[157, 0, 0], [47, 0, 0], [48, 0, 0]]
    }, 
    {
      "op": "elemwise_add", 
      "name": "_plus22", 
      "inputs": [[192, 0, 0], [193, 0, 0]]
    }, 
    {
      "op": "SliceChannel", 
      "name": "t3_l2_slice", 
      "attr": {"num_outputs": "4"}, 
      "inputs": [[194, 0, 0]]
    }, 
    {
      "op": "Activation", 
      "name": "activation57", 
      "attr": {"act_type": "sigmoid"}, 
      "inputs": [[195, 2, 0]]
    }, 
    {
      "op": "Activation", 
      "name": "activation56", 
      "attr": {"act_type": "sigmoid"}, 
      "inputs": [[195, 1, 0]]
    }, 
    {
      "op": "_mul", 
      "name": "_mul33", 
      "inputs": [[197, 0, 0], [155, 0, 0]]
    }, 
    {
      "op": "Activation", 
      "name": "activation55", 
      "attr": {"act_type": "sigmoid"}, 
      "inputs": [[195, 0, 0]]
    }, 
    {
      "op": "Activation", 
      "name": "activation58", 
      "attr": {"act_type": "tanh"}, 
      "inputs": [[195, 3, 0]]
    }, 
    {
      "op": "_mul", 
      "name": "_mul34", 
      "inputs": [[199, 0, 0], [200, 0, 0]]
    }, 
    {
      "op": "elemwise_add", 
      "name": "_plus23", 
      "inputs": [[198, 0, 0], [201, 0, 0]]
    }, 
    {
      "op": "Activation", 
      "name": "activation59", 
      "attr": {"act_type": "tanh"}, 
      "inputs": [[202, 0, 0]]
    }, 
    {
      "op": "_mul", 
      "name": "_mul35", 
      "inputs": [[196, 0, 0], [203, 0, 0]]
    }, 
    {
      "op": "Dropout", 
      "name": "dropout11", 
      "attr": {"p": "0.2"}, 
      "inputs": [[204, 0, 0]]
    }, 
    {
      "op": "FullyConnected", 
      "name": "fullyconnected3", 
      "attr": {"num_hidden": "84"}, 
      "inputs": [[205, 0, 0], [63, 0, 0], [64, 0, 0]]
    }, 
    {
      "op": "null", 
      "name": "label/3", 
      "inputs": []
    }, 
    {
      "op": "SoftmaxOutput", 
      "name": "t3_sm", 
      "inputs": [[206, 0, 0], [207, 0, 0]]
    }, 
    {
      "op": "null", 
      "name": "data/4", 
      "inputs": []
    }, 
    {
      "op": "Embedding", 
      "name": "t4_embed", 
      "attr": {
        "input_dim": "84", 
        "output_dim": "256"
      }, 
      "inputs": [[209, 0, 0], [1, 0, 0]]
    }, 
    {
      "op": "FullyConnected", 
      "name": "t4_l0_i2h", 
      "attr": {"num_hidden": "2048"}, 
      "inputs": [[210, 0, 0], [3, 0, 0], [4, 0, 0]]
    }, 
    {
      "op": "FullyConnected", 
      "name": "t4_l0_h2h", 
      "attr": {"num_hidden": "2048"}, 
      "inputs": [[176, 0, 0], [7, 0, 0], [8, 0, 0]]
    }, 
    {
      "op": "elemwise_add", 
      "name": "_plus24", 
      "inputs": [[211, 0, 0], [212, 0, 0]]
    }, 
    {
      "op": "SliceChannel", 
      "name": "t4_l0_slice", 
      "attr": {"num_outputs": "4"}, 
      "inputs": [[213, 0, 0]]
    }, 
    {
      "op": "Activation", 
      "name": "activation62", 
      "attr": {"act_type": "sigmoid"}, 
      "inputs": [[214, 2, 0]]
    }, 
    {
      "op": "Activation", 
      "name": "activation61", 
      "attr": {"act_type": "sigmoid"}, 
      "inputs": [[214, 1, 0]]
    }, 
    {
      "op": "_mul", 
      "name": "_mul36", 
      "inputs": [[216, 0, 0], [174, 0, 0]]
    }, 
    {
      "op": "Activation", 
      "name": "activation60", 
      "attr": {"act_type": "sigmoid"}, 
      "inputs": [[214, 0, 0]]
    }, 
    {
      "op": "Activation", 
      "name": "activation63", 
      "attr": {"act_type": "tanh"}, 
      "inputs": [[214, 3, 0]]
    }, 
    {
      "op": "_mul", 
      "name": "_mul37", 
      "inputs": [[218, 0, 0], [219, 0, 0]]
    }, 
    {
      "op": "elemwise_add", 
      "name": "_plus25", 
      "inputs": [[217, 0, 0], [220, 0, 0]]
    }, 
    {
      "op": "Activation", 
      "name": "activation64", 
      "attr": {"act_type": "tanh"}, 
      "inputs": [[221, 0, 0]]
    }, 
    {
      "op": "_mul", 
      "name": "_mul38", 
      "inputs": [[215, 0, 0], [222, 0, 0]]
    }, 
    {
      "op": "Dropout", 
      "name": "dropout12", 
      "attr": {"p": "0.2"}, 
      "inputs": [[223, 0, 0]]
    }, 
    {
      "op": "FullyConnected", 
      "name": "t4_l1_i2h", 
      "attr": {"num_hidden": "2048"}, 
      "inputs": [[224, 0, 0], [23, 0, 0], [24, 0, 0]]
    }, 
    {
      "op": "FullyConnected", 
      "name": "t4_l1_h2h", 
      "attr": {"num_hidden": "2048"}, 
      "inputs": [[190, 0, 0], [27, 0, 0], [28, 0, 0]]
    }, 
    {
      "op": "elemwise_add", 
      "name": "_plus26", 
      "inputs": [[225, 0, 0], [226, 0, 0]]
    }, 
    {
      "op": "SliceChannel", 
      "name": "t4_l1_slice", 
      "attr": {"num_outputs": "4"}, 
      "inputs": [[227, 0, 0]]
    }, 
    {
      "op": "Activation", 
      "name": "activation67", 
      "attr": {"act_type": "sigmoid"}, 
      "inputs": [[228, 2, 0]]
    }, 
    {
      "op": "Activation", 
      "name": "activation66", 
      "attr": {"act_type": "sigmoid"}, 
      "inputs": [[228, 1, 0]]
    }, 
    {
      "op": "_mul", 
      "name": "_mul39", 
      "inputs": [[230, 0, 0], [188, 0, 0]]
    }, 
    {
      "op": "Activation", 
      "name": "activation65", 
      "attr": {"act_type": "sigmoid"}, 
      "inputs": [[228, 0, 0]]
    }, 
    {
      "op": "Activation", 
      "name": "activation68", 
      "attr": {"act_type": "tanh"}, 
      "inputs": [[228, 3, 0]]
    }, 
    {
      "op": "_mul", 
      "name": "_mul40", 
      "inputs": [[232, 0, 0], [233, 0, 0]]
    }, 
    {
      "op": "elemwise_add", 
      "name": "_plus27", 
      "inputs": [[231, 0, 0], [234, 0, 0]]
    }, 
    {
      "op": "Activation", 
      "name": "activation69", 
      "attr": {"act_type": "tanh"}, 
      "inputs": [[235, 0, 0]]
    }, 
    {
      "op": "_mul", 
      "name": "_mul41", 
      "inputs": [[229, 0, 0], [236, 0, 0]]
    }, 
    {
      "op": "Dropout", 
      "name": "dropout13", 
      "attr": {"p": "0.2"}, 
      "inputs": [[237, 0, 0]]
    }, 
    {
      "op": "FullyConnected", 
      "name": "t4_l2_i2h", 
      "attr": {"num_hidden": "2048"}, 
      "inputs": [[238, 0, 0], [43, 0, 0], [44, 0, 0]]
    }, 
    {
      "op": "FullyConnected", 
      "name": "t4_l2_h2h", 
      "attr": {"num_hidden": "2048"}, 
      "inputs": [[204, 0, 0], [47, 0, 0], [48, 0, 0]]
    }, 
    {
      "op": "elemwise_add", 
      "name": "_plus28", 
      "inputs": [[239, 0, 0], [240, 0, 0]]
    }, 
    {
      "op": "SliceChannel", 
      "name": "t4_l2_slice", 
      "attr": {"num_outputs": "4"}, 
      "inputs": [[241, 0, 0]]
    }, 
    {
      "op": "Activation", 
      "name": "activation72", 
      "attr": {"act_type": "sigmoid"}, 
      "inputs": [[242, 2, 0]]
    }, 
    {
      "op": "Activation", 
      "name": "activation71", 
      "attr": {"act_type": "sigmoid"}, 
      "inputs": [[242, 1, 0]]
    }, 
    {
      "op": "_mul", 
      "name": "_mul42", 
      "inputs": [[244, 0, 0], [202, 0, 0]]
    }, 
    {
      "op": "Activation", 
      "name": "activation70", 
      "attr": {"act_type": "sigmoid"}, 
      "inputs": [[242, 0, 0]]
    }, 
    {
      "op": "Activation", 
      "name": "activation73", 
      "attr": {"act_type": "tanh"}, 
      "inputs": [[242, 3, 0]]
    }, 
    {
      "op": "_mul", 
      "name": "_mul43", 
      "inputs": [[246, 0, 0], [247, 0, 0]]
    }, 
    {
      "op": "elemwise_add", 
      "name": "_plus29", 
      "inputs": [[245, 0, 0], [248, 0, 0]]
    }, 
    {
      "op": "Activation", 
      "name": "activation74", 
      "attr": {"act_type": "tanh"}, 
      "inputs": [[249, 0, 0]]
    }, 
    {
      "op": "_mul", 
      "name": "_mul44", 
      "inputs": [[243, 0, 0], [250, 0, 0]]
    }, 
    {
      "op": "Dropout", 
      "name": "dropout14", 
      "attr": {"p": "0.2"}, 
      "inputs": [[251, 0, 0]]
    }, 
    {
      "op": "FullyConnected", 
      "name": "fullyconnected4", 
      "attr": {"num_hidden": "84"}, 
      "inputs": [[252, 0, 0], [63, 0, 0], [64, 0, 0]]
    }, 
    {
      "op": "null", 
      "name": "label/4", 
      "inputs": []
    }, 
    {
      "op": "SoftmaxOutput", 
      "name": "t4_sm", 
      "inputs": [[253, 0, 0], [254, 0, 0]]
    }, 
    {
      "op": "null", 
      "name": "data/5", 
      "inputs": []
    }, 
    {
      "op": "Embedding", 
      "name": "t5_embed", 
      "attr": {
        "input_dim": "84", 
        "output_dim": "256"
      }, 
      "inputs": [[256, 0, 0], [1, 0, 0]]
    }, 
    {
      "op": "FullyConnected", 
      "name": "t5_l0_i2h", 
      "attr": {"num_hidden": "2048"}, 
      "inputs": [[257, 0, 0], [3, 0, 0], [4, 0, 0]]
    }, 
    {
      "op": "FullyConnected", 
      "name": "t5_l0_h2h", 
      "attr": {"num_hidden": "2048"}, 
      "inputs": [[223, 0, 0], [7, 0, 0], [8, 0, 0]]
    }, 
    {
      "op": "elemwise_add", 
      "name": "_plus30", 
      "inputs": [[258, 0, 0], [259, 0, 0]]
    }, 
    {
      "op": "SliceChannel", 
      "name": "t5_l0_slice", 
      "attr": {"num_outputs": "4"}, 
      "inputs": [[260, 0, 0]]
    }, 
    {
      "op": "Activation", 
      "name": "activation77", 
      "attr": {"act_type": "sigmoid"}, 
      "inputs": [[261, 2, 0]]
    }, 
    {
      "op": "Activation", 
      "name": "activation76", 
      "attr": {"act_type": "sigmoid"}, 
      "inputs": [[261, 1, 0]]
    }, 
    {
      "op": "_mul", 
      "name": "_mul45", 
      "inputs": [[263, 0, 0], [221, 0, 0]]
    }, 
    {
      "op": "Activation", 
      "name": "activation75", 
      "attr": {"act_type": "sigmoid"}, 
      "inputs": [[261, 0, 0]]
    }, 
    {
      "op": "Activation", 
      "name": "activation78", 
      "attr": {"act_type": "tanh"}, 
      "inputs": [[261, 3, 0]]
    }, 
    {
      "op": "_mul", 
      "name": "_mul46", 
      "inputs": [[265, 0, 0], [266, 0, 0]]
    }, 
    {
      "op": "elemwise_add", 
      "name": "_plus31", 
      "inputs": [[264, 0, 0], [267, 0, 0]]
    }, 
    {
      "op": "Activation", 
      "name": "activation79", 
      "attr": {"act_type": "tanh"}, 
      "inputs": [[268, 0, 0]]
    }, 
    {
      "op": "_mul", 
      "name": "_mul47", 
      "inputs": [[262, 0, 0], [269, 0, 0]]
    }, 
    {
      "op": "Dropout", 
      "name": "dropout15", 
      "attr": {"p": "0.2"}, 
      "inputs": [[270, 0, 0]]
    }, 
    {
      "op": "FullyConnected", 
      "name": "t5_l1_i2h", 
      "attr": {"num_hidden": "2048"}, 
      "inputs": [[271, 0, 0], [23, 0, 0], [24, 0, 0]]
    }, 
    {
      "op": "FullyConnected", 
      "name": "t5_l1_h2h", 
      "attr": {"num_hidden": "2048"}, 
      "inputs": [[237, 0, 0], [27, 0, 0], [28, 0, 0]]
    }, 
    {
      "op": "elemwise_add", 
      "name": "_plus32", 
      "inputs": [[272, 0, 0], [273, 0, 0]]
    }, 
    {
      "op": "SliceChannel", 
      "name": "t5_l1_slice", 
      "attr": {"num_outputs": "4"}, 
      "inputs": [[274, 0, 0]]
    }, 
    {
      "op": "Activation", 
      "name": "activation82", 
      "attr": {"act_type": "sigmoid"}, 
      "inputs": [[275, 2, 0]]
    }, 
    {
      "op": "Activation", 
      "name": "activation81", 
      "attr": {"act_type": "sigmoid"}, 
      "inputs": [[275, 1, 0]]
    }, 
    {
      "op": "_mul", 
      "name": "_mul48", 
      "inputs": [[277, 0, 0], [235, 0, 0]]
    }, 
    {
      "op": "Activation", 
      "name": "activation80", 
      "attr": {"act_type": "sigmoid"}, 
      "inputs": [[275, 0, 0]]
    }, 
    {
      "op": "Activation", 
      "name": "activation83", 
      "attr": {"act_type": "tanh"}, 
      "inputs": [[275, 3, 0]]
    }, 
    {
      "op": "_mul", 
      "name": "_mul49", 
      "inputs": [[279, 0, 0], [280, 0, 0]]
    }, 
    {
      "op": "elemwise_add", 
      "name": "_plus33", 
      "inputs": [[278, 0, 0], [281, 0, 0]]
    }, 
    {
      "op": "Activation", 
      "name": "activation84", 
      "attr": {"act_type": "tanh"}, 
      "inputs": [[282, 0, 0]]
    }, 
    {
      "op": "_mul", 
      "name": "_mul50", 
      "inputs": [[276, 0, 0], [283, 0, 0]]
    }, 
    {
      "op": "Dropout", 
      "name": "dropout16", 
      "attr": {"p": "0.2"}, 
      "inputs": [[284, 0, 0]]
    }, 
    {
      "op": "FullyConnected", 
      "name": "t5_l2_i2h", 
      "attr": {"num_hidden": "2048"}, 
      "inputs": [[285, 0, 0], [43, 0, 0], [44, 0, 0]]
    }, 
    {
      "op": "FullyConnected", 
      "name": "t5_l2_h2h", 
      "attr": {"num_hidden": "2048"}, 
      "inputs": [[251, 0, 0], [47, 0, 0], [48, 0, 0]]
    }, 
    {
      "op": "elemwise_add", 
      "name": "_plus34", 
      "inputs": [[286, 0, 0], [287, 0, 0]]
    }, 
    {
      "op": "SliceChannel", 
      "name": "t5_l2_slice", 
      "attr": {"num_outputs": "4"}, 
      "inputs": [[288, 0, 0]]
    }, 
    {
      "op": "Activation", 
      "name": "activation87", 
      "attr": {"act_type": "sigmoid"}, 
      "inputs": [[289, 2, 0]]
    }, 
    {
      "op": "Activation", 
      "name": "activation86", 
      "attr": {"act_type": "sigmoid"}, 
      "inputs": [[289, 1, 0]]
    }, 
    {
      "op": "_mul", 
      "name": "_mul51", 
      "inputs": [[291, 0, 0], [249, 0, 0]]
    }, 
    {
      "op": "Activation", 
      "name": "activation85", 
      "attr": {"act_type": "sigmoid"}, 
      "inputs": [[289, 0, 0]]
    }, 
    {
      "op": "Activation", 
      "name": "activation88", 
      "attr": {"act_type": "tanh"}, 
      "inputs": [[289, 3, 0]]
    }, 
    {
      "op": "_mul", 
      "name": "_mul52", 
      "inputs": [[293, 0, 0], [294, 0, 0]]
    }, 
    {
      "op": "elemwise_add", 
      "name": "_plus35", 
      "inputs": [[292, 0, 0], [295, 0, 0]]
    }, 
    {
      "op": "Activation", 
      "name": "activation89", 
      "attr": {"act_type": "tanh"}, 
      "inputs": [[296, 0, 0]]
    }, 
    {
      "op": "_mul", 
      "name": "_mul53", 
      "inputs": [[290, 0, 0], [297, 0, 0]]
    }, 
    {
      "op": "Dropout", 
      "name": "dropout17", 
      "attr": {"p": "0.2"}, 
      "inputs": [[298, 0, 0]]
    }, 
    {
      "op": "FullyConnected", 
      "name": "fullyconnected5", 
      "attr": {"num_hidden": "84"}, 
      "inputs": [[299, 0, 0], [63, 0, 0], [64, 0, 0]]
    }, 
    {
      "op": "null", 
      "name": "label/5", 
      "inputs": []
    }, 
    {
      "op": "SoftmaxOutput", 
      "name": "t5_sm", 
      "inputs": [[300, 0, 0], [301, 0, 0]]
    }, 
    {
      "op": "null", 
      "name": "data/6", 
      "inputs": []
    }, 
    {
      "op": "Embedding", 
      "name": "t6_embed", 
      "attr": {
        "input_dim": "84", 
        "output_dim": "256"
      }, 
      "inputs": [[303, 0, 0], [1, 0, 0]]
    }, 
    {
      "op": "FullyConnected", 
      "name": "t6_l0_i2h", 
      "attr": {"num_hidden": "2048"}, 
      "inputs": [[304, 0, 0], [3, 0, 0], [4, 0, 0]]
    }, 
    {
      "op": "FullyConnected", 
      "name": "t6_l0_h2h", 
      "attr": {"num_hidden": "2048"}, 
      "inputs": [[270, 0, 0], [7, 0, 0], [8, 0, 0]]
    }, 
    {
      "op": "elemwise_add", 
      "name": "_plus36", 
      "inputs": [[305, 0, 0], [306, 0, 0]]
    }, 
    {
      "op": "SliceChannel", 
      "name": "t6_l0_slice", 
      "attr": {"num_outputs": "4"}, 
      "inputs": [[307, 0, 0]]
    }, 
    {
      "op": "Activation", 
      "name": "activation92", 
      "attr": {"act_type": "sigmoid"}, 
      "inputs": [[308, 2, 0]]
    }, 
    {
      "op": "Activation", 
      "name": "activation91", 
      "attr": {"act_type": "sigmoid"}, 
      "inputs": [[308, 1, 0]]
    }, 
    {
      "op": "_mul", 
      "name": "_mul54", 
      "inputs": [[310, 0, 0], [268, 0, 0]]
    }, 
    {
      "op": "Activation", 
      "name": "activation90", 
      "attr": {"act_type": "sigmoid"}, 
      "inputs": [[308, 0, 0]]
    }, 
    {
      "op": "Activation", 
      "name": "activation93", 
      "attr": {"act_type": "tanh"}, 
      "inputs": [[308, 3, 0]]
    }, 
    {
      "op": "_mul", 
      "name": "_mul55", 
      "inputs": [[312, 0, 0], [313, 0, 0]]
    }, 
    {
      "op": "elemwise_add", 
      "name": "_plus37", 
      "inputs": [[311, 0, 0], [314, 0, 0]]
    }, 
    {
      "op": "Activation", 
      "name": "activation94", 
      "attr": {"act_type": "tanh"}, 
      "inputs": [[315, 0, 0]]
    }, 
    {
      "op": "_mul", 
      "name": "_mul56", 
      "inputs": [[309, 0, 0], [316, 0, 0]]
    }, 
    {
      "op": "Dropout", 
      "name": "dropout18", 
      "attr": {"p": "0.2"}, 
      "inputs": [[317, 0, 0]]
    }, 
    {
      "op": "FullyConnected", 
      "name": "t6_l1_i2h", 
      "attr": {"num_hidden": "2048"}, 
      "inputs": [[318, 0, 0], [23, 0, 0], [24, 0, 0]]
    }, 
    {
      "op": "FullyConnected", 
      "name": "t6_l1_h2h", 
      "attr": {"num_hidden": "2048"}, 
      "inputs": [[284, 0, 0], [27, 0, 0], [28, 0, 0]]
    }, 
    {
      "op": "elemwise_add", 
      "name": "_plus38", 
      "inputs": [[319, 0, 0], [320, 0, 0]]
    }, 
    {
      "op": "SliceChannel", 
      "name": "t6_l1_slice", 
      "attr": {"num_outputs": "4"}, 
      "inputs": [[321, 0, 0]]
    }, 
    {
      "op": "Activation", 
      "name": "activation97", 
      "attr": {"act_type": "sigmoid"}, 
      "inputs": [[322, 2, 0]]
    }, 
    {
      "op": "Activation", 
      "name": "activation96", 
      "attr": {"act_type": "sigmoid"}, 
      "inputs": [[322, 1, 0]]
    }, 
    {
      "op": "_mul", 
      "name": "_mul57", 
      "inputs": [[324, 0, 0], [282, 0, 0]]
    }, 
    {
      "op": "Activation", 
      "name": "activation95", 
      "attr": {"act_type": "sigmoid"}, 
      "inputs": [[322, 0, 0]]
    }, 
    {
      "op": "Activation", 
      "name": "activation98", 
      "attr": {"act_type": "tanh"}, 
      "inputs": [[322, 3, 0]]
    }, 
    {
      "op": "_mul", 
      "name": "_mul58", 
      "inputs": [[326, 0, 0], [327, 0, 0]]
    }, 
    {
      "op": "elemwise_add", 
      "name": "_plus39", 
      "inputs": [[325, 0, 0], [328, 0, 0]]
    }, 
    {
      "op": "Activation", 
      "name": "activation99", 
      "attr": {"act_type": "tanh"}, 
      "inputs": [[329, 0, 0]]
    }, 
    {
      "op": "_mul", 
      "name": "_mul59", 
      "inputs": [[323, 0, 0], [330, 0, 0]]
    }, 
    {
      "op": "Dropout", 
      "name": "dropout19", 
      "attr": {"p": "0.2"}, 
      "inputs": [[331, 0, 0]]
    }, 
    {
      "op": "FullyConnected", 
      "name": "t6_l2_i2h", 
      "attr": {"num_hidden": "2048"}, 
      "inputs": [[332, 0, 0], [43, 0, 0], [44, 0, 0]]
    }, 
    {
      "op": "FullyConnected", 
      "name": "t6_l2_h2h", 
      "attr": {"num_hidden": "2048"}, 
      "inputs": [[298, 0, 0], [47, 0, 0], [48, 0, 0]]
    }, 
    {
      "op": "elemwise_add", 
      "name": "_plus40", 
      "inputs": [[333, 0, 0], [334, 0, 0]]
    }, 
    {
      "op": "SliceChannel", 
      "name": "t6_l2_slice", 
      "attr": {"num_outputs": "4"}, 
      "inputs": [[335, 0, 0]]
    }, 
    {
      "op": "Activation", 
      "name": "activation102", 
      "attr": {"act_type": "sigmoid"}, 
      "inputs": [[336, 2, 0]]
    }, 
    {
      "op": "Activation", 
      "name": "activation101", 
      "attr": {"act_type": "sigmoid"}, 
      "inputs": [[336, 1, 0]]
    }, 
    {
      "op": "_mul", 
      "name": "_mul60", 
      "inputs": [[338, 0, 0], [296, 0, 0]]
    }, 
    {
      "op": "Activation", 
      "name": "activation100", 
      "attr": {"act_type": "sigmoid"}, 
      "inputs": [[336, 0, 0]]
    }, 
    {
      "op": "Activation", 
      "name": "activation103", 
      "attr": {"act_type": "tanh"}, 
      "inputs": [[336, 3, 0]]
    }, 
    {
      "op": "_mul", 
      "name": "_mul61", 
      "inputs": [[340, 0, 0], [341, 0, 0]]
    }, 
    {
      "op": "elemwise_add", 
      "name": "_plus41", 
      "inputs": [[339, 0, 0], [342, 0, 0]]
    }, 
    {
      "op": "Activation", 
      "name": "activation104", 
      "attr": {"act_type": "tanh"}, 
      "inputs": [[343, 0, 0]]
    }, 
    {
      "op": "_mul", 
      "name": "_mul62", 
      "inputs": [[337, 0, 0], [344, 0, 0]]
    }, 
    {
      "op": "Dropout", 
      "name": "dropout20", 
      "attr": {"p": "0.2"}, 
      "inputs": [[345, 0, 0]]
    }, 
    {
      "op": "FullyConnected", 
      "name": "fullyconnected6", 
      "attr": {"num_hidden": "84"}, 
      "inputs": [[346, 0, 0], [63, 0, 0], [64, 0, 0]]
    }, 
    {
      "op": "null", 
      "name": "label/6", 
      "inputs": []
    }, 
    {
      "op": "SoftmaxOutput", 
      "name": "t6_sm", 
      "inputs": [[347, 0, 0], [348, 0, 0]]
    }, 
    {
      "op": "null", 
      "name": "data/7", 
      "inputs": []
    }, 
    {
      "op": "Embedding", 
      "name": "t7_embed", 
      "attr": {
        "input_dim": "84", 
        "output_dim": "256"
      }, 
      "inputs": [[350, 0, 0], [1, 0, 0]]
    }, 
    {
      "op": "FullyConnected", 
      "name": "t7_l0_i2h", 
      "attr": {"num_hidden": "2048"}, 
      "inputs": [[351, 0, 0], [3, 0, 0], [4, 0, 0]]
    }, 
    {
      "op": "FullyConnected", 
      "name": "t7_l0_h2h", 
      "attr": {"num_hidden": "2048"}, 
      "inputs": [[317, 0, 0], [7, 0, 0], [8, 0, 0]]
    }, 
    {
      "op": "elemwise_add", 
      "name": "_plus42", 
      "inputs": [[352, 0, 0], [353, 0, 0]]
    }, 
    {
      "op": "SliceChannel", 
      "name": "t7_l0_slice", 
      "attr": {"num_outputs": "4"}, 
      "inputs": [[354, 0, 0]]
    }, 
    {
      "op": "Activation", 
      "name": "activation107", 
      "attr": {"act_type": "sigmoid"}, 
      "inputs": [[355, 2, 0]]
    }, 
    {
      "op": "Activation", 
      "name": "activation106", 
      "attr": {"act_type": "sigmoid"}, 
      "inputs": [[355, 1, 0]]
    }, 
    {
      "op": "_mul", 
      "name": "_mul63", 
      "inputs": [[357, 0, 0], [315, 0, 0]]
    }, 
    {
      "op": "Activation", 
      "name": "activation105", 
      "attr": {"act_type": "sigmoid"}, 
      "inputs": [[355, 0, 0]]
    }, 
    {
      "op": "Activation", 
      "name": "activation108", 
      "attr": {"act_type": "tanh"}, 
      "inputs": [[355, 3, 0]]
    }, 
    {
      "op": "_mul", 
      "name": "_mul64", 
      "inputs": [[359, 0, 0], [360, 0, 0]]
    }, 
    {
      "op": "elemwise_add", 
      "name": "_plus43", 
      "inputs": [[358, 0, 0], [361, 0, 0]]
    }, 
    {
      "op": "Activation", 
      "name": "activation109", 
      "attr": {"act_type": "tanh"}, 
      "inputs": [[362, 0, 0]]
    }, 
    {
      "op": "_mul", 
      "name": "_mul65", 
      "inputs": [[356, 0, 0], [363, 0, 0]]
    }, 
    {
      "op": "Dropout", 
      "name": "dropout21", 
      "attr": {"p": "0.2"}, 
      "inputs": [[364, 0, 0]]
    }, 
    {
      "op": "FullyConnected", 
      "name": "t7_l1_i2h", 
      "attr": {"num_hidden": "2048"}, 
      "inputs": [[365, 0, 0], [23, 0, 0], [24, 0, 0]]
    }, 
    {
      "op": "FullyConnected", 
      "name": "t7_l1_h2h", 
      "attr": {"num_hidden": "2048"}, 
      "inputs": [[331, 0, 0], [27, 0, 0], [28, 0, 0]]
    }, 
    {
      "op": "elemwise_add", 
      "name": "_plus44", 
      "inputs": [[366, 0, 0], [367, 0, 0]]
    }, 
    {
      "op": "SliceChannel", 
      "name": "t7_l1_slice", 
      "attr": {"num_outputs": "4"}, 
      "inputs": [[368, 0, 0]]
    }, 
    {
      "op": "Activation", 
      "name": "activation112", 
      "attr": {"act_type": "sigmoid"}, 
      "inputs": [[369, 2, 0]]
    }, 
    {
      "op": "Activation", 
      "name": "activation111", 
      "attr": {"act_type": "sigmoid"}, 
      "inputs": [[369, 1, 0]]
    }, 
    {
      "op": "_mul", 
      "name": "_mul66", 
      "inputs": [[371, 0, 0], [329, 0, 0]]
    }, 
    {
      "op": "Activation", 
      "name": "activation110", 
      "attr": {"act_type": "sigmoid"}, 
      "inputs": [[369, 0, 0]]
    }, 
    {
      "op": "Activation", 
      "name": "activation113", 
      "attr": {"act_type": "tanh"}, 
      "inputs": [[369, 3, 0]]
    }, 
    {
      "op": "_mul", 
      "name": "_mul67", 
      "inputs": [[373, 0, 0], [374, 0, 0]]
    }, 
    {
      "op": "elemwise_add", 
      "name": "_plus45", 
      "inputs": [[372, 0, 0], [375, 0, 0]]
    }, 
    {
      "op": "Activation", 
      "name": "activation114", 
      "attr": {"act_type": "tanh"}, 
      "inputs": [[376, 0, 0]]
    }, 
    {
      "op": "_mul", 
      "name": "_mul68", 
      "inputs": [[370, 0, 0], [377, 0, 0]]
    }, 
    {
      "op": "Dropout", 
      "name": "dropout22", 
      "attr": {"p": "0.2"}, 
      "inputs": [[378, 0, 0]]
    }, 
    {
      "op": "FullyConnected", 
      "name": "t7_l2_i2h", 
      "attr": {"num_hidden": "2048"}, 
      "inputs": [[379, 0, 0], [43, 0, 0], [44, 0, 0]]
    }, 
    {
      "op": "FullyConnected", 
      "name": "t7_l2_h2h", 
      "attr": {"num_hidden": "2048"}, 
      "inputs": [[345, 0, 0], [47, 0, 0], [48, 0, 0]]
    }, 
    {
      "op": "elemwise_add", 
      "name": "_plus46", 
      "inputs": [[380, 0, 0], [381, 0, 0]]
    }, 
    {
      "op": "SliceChannel", 
      "name": "t7_l2_slice", 
      "attr": {"num_outputs": "4"}, 
      "inputs": [[382, 0, 0]]
    }, 
    {
      "op": "Activation", 
      "name": "activation117", 
      "attr": {"act_type": "sigmoid"}, 
      "inputs": [[383, 2, 0]]
    }, 
    {
      "op": "Activation", 
      "name": "activation116", 
      "attr": {"act_type": "sigmoid"}, 
      "inputs": [[383, 1, 0]]
    }, 
    {
      "op": "_mul", 
      "name": "_mul69", 
      "inputs": [[385, 0, 0], [343, 0, 0]]
    }, 
    {
      "op": "Activation", 
      "name": "activation115", 
      "attr": {"act_type": "sigmoid"}, 
      "inputs": [[383, 0, 0]]
    }, 
    {
      "op": "Activation", 
      "name": "activation118", 
      "attr": {"act_type": "tanh"}, 
      "inputs": [[383, 3, 0]]
    }, 
    {
      "op": "_mul", 
      "name": "_mul70", 
      "inputs": [[387, 0, 0], [388, 0, 0]]
    }, 
    {
      "op": "elemwise_add", 
      "name": "_plus47", 
      "inputs": [[386, 0, 0], [389, 0, 0]]
    }, 
    {
      "op": "Activation", 
      "name": "activation119", 
      "attr": {"act_type": "tanh"}, 
      "inputs": [[390, 0, 0]]
    }, 
    {
      "op": "_mul", 
      "name": "_mul71", 
      "inputs": [[384, 0, 0], [391, 0, 0]]
    }, 
    {
      "op": "Dropout", 
      "name": "dropout23", 
      "attr": {"p": "0.2"}, 
      "inputs": [[392, 0, 0]]
    }, 
    {
      "op": "FullyConnected", 
      "name": "fullyconnected7", 
      "attr": {"num_hidden": "84"}, 
      "inputs": [[393, 0, 0], [63, 0, 0], [64, 0, 0]]
    }, 
    {
      "op": "null", 
      "name": "label/7", 
      "inputs": []
    }, 
    {
      "op": "SoftmaxOutput", 
      "name": "t7_sm", 
      "inputs": [[394, 0, 0], [395, 0, 0]]
    }, 
    {
      "op": "null", 
      "name": "data/8", 
      "inputs": []
    }, 
    {
      "op": "Embedding", 
      "name": "t8_embed", 
      "attr": {
        "input_dim": "84", 
        "output_dim": "256"
      }, 
      "inputs": [[397, 0, 0], [1, 0, 0]]
    }, 
    {
      "op": "FullyConnected", 
      "name": "t8_l0_i2h", 
      "attr": {"num_hidden": "2048"}, 
      "inputs": [[398, 0, 0], [3, 0, 0], [4, 0, 0]]
    }, 
    {
      "op": "FullyConnected", 
      "name": "t8_l0_h2h", 
      "attr": {"num_hidden": "2048"}, 
      "inputs": [[364, 0, 0], [7, 0, 0], [8, 0, 0]]
    }, 
    {
      "op": "elemwise_add", 
      "name": "_plus48", 
      "inputs": [[399, 0, 0], [400, 0, 0]]
    }, 
    {
      "op": "SliceChannel", 
      "name": "t8_l0_slice", 
      "attr": {"num_outputs": "4"}, 
      "inputs": [[401, 0, 0]]
    }, 
    {
      "op": "Activation", 
      "name": "activation122", 
      "attr": {"act_type": "sigmoid"}, 
      "inputs": [[402, 2, 0]]
    }, 
    {
      "op": "Activation", 
      "name": "activation121", 
      "attr": {"act_type": "sigmoid"}, 
      "inputs": [[402, 1, 0]]
    }, 
    {
      "op": "_mul", 
      "name": "_mul72", 
      "inputs": [[404, 0, 0], [362, 0, 0]]
    }, 
    {
      "op": "Activation", 
      "name": "activation120", 
      "attr": {"act_type": "sigmoid"}, 
      "inputs": [[402, 0, 0]]
    }, 
    {
      "op": "Activation", 
      "name": "activation123", 
      "attr": {"act_type": "tanh"}, 
      "inputs": [[402, 3, 0]]
    }, 
    {
      "op": "_mul", 
      "name": "_mul73", 
      "inputs": [[406, 0, 0], [407, 0, 0]]
    }, 
    {
      "op": "elemwise_add", 
      "name": "_plus49", 
      "inputs": [[405, 0, 0], [408, 0, 0]]
    }, 
    {
      "op": "Activation", 
      "name": "activation124", 
      "attr": {"act_type": "tanh"}, 
      "inputs": [[409, 0, 0]]
    }, 
    {
      "op": "_mul", 
      "name": "_mul74", 
      "inputs": [[403, 0, 0], [410, 0, 0]]
    }, 
    {
      "op": "Dropout", 
      "name": "dropout24", 
      "attr": {"p": "0.2"}, 
      "inputs": [[411, 0, 0]]
    }, 
    {
      "op": "FullyConnected", 
      "name": "t8_l1_i2h", 
      "attr": {"num_hidden": "2048"}, 
      "inputs": [[412, 0, 0], [23, 0, 0], [24, 0, 0]]
    }, 
    {
      "op": "FullyConnected", 
      "name": "t8_l1_h2h", 
      "attr": {"num_hidden": "2048"}, 
      "inputs": [[378, 0, 0], [27, 0, 0], [28, 0, 0]]
    }, 
    {
      "op": "elemwise_add", 
      "name": "_plus50", 
      "inputs": [[413, 0, 0], [414, 0, 0]]
    }, 
    {
      "op": "SliceChannel", 
      "name": "t8_l1_slice", 
      "attr": {"num_outputs": "4"}, 
      "inputs": [[415, 0, 0]]
    }, 
    {
      "op": "Activation", 
      "name": "activation127", 
      "attr": {"act_type": "sigmoid"}, 
      "inputs": [[416, 2, 0]]
    }, 
    {
      "op": "Activation", 
      "name": "activation126", 
      "attr": {"act_type": "sigmoid"}, 
      "inputs": [[416, 1, 0]]
    }, 
    {
      "op": "_mul", 
      "name": "_mul75", 
      "inputs": [[418, 0, 0], [376, 0, 0]]
    }, 
    {
      "op": "Activation", 
      "name": "activation125", 
      "attr": {"act_type": "sigmoid"}, 
      "inputs": [[416, 0, 0]]
    }, 
    {
      "op": "Activation", 
      "name": "activation128", 
      "attr": {"act_type": "tanh"}, 
      "inputs": [[416, 3, 0]]
    }, 
    {
      "op": "_mul", 
      "name": "_mul76", 
      "inputs": [[420, 0, 0], [421, 0, 0]]
    }, 
    {
      "op": "elemwise_add", 
      "name": "_plus51", 
      "inputs": [[419, 0, 0], [422, 0, 0]]
    }, 
    {
      "op": "Activation", 
      "name": "activation129", 
      "attr": {"act_type": "tanh"}, 
      "inputs": [[423, 0, 0]]
    }, 
    {
      "op": "_mul", 
      "name": "_mul77", 
      "inputs": [[417, 0, 0], [424, 0, 0]]
    }, 
    {
      "op": "Dropout", 
      "name": "dropout25", 
      "attr": {"p": "0.2"}, 
      "inputs": [[425, 0, 0]]
    }, 
    {
      "op": "FullyConnected", 
      "name": "t8_l2_i2h", 
      "attr": {"num_hidden": "2048"}, 
      "inputs": [[426, 0, 0], [43, 0, 0], [44, 0, 0]]
    }, 
    {
      "op": "FullyConnected", 
      "name": "t8_l2_h2h", 
      "attr": {"num_hidden": "2048"}, 
      "inputs": [[392, 0, 0], [47, 0, 0], [48, 0, 0]]
    }, 
    {
      "op": "elemwise_add", 
      "name": "_plus52", 
      "inputs": [[427, 0, 0], [428, 0, 0]]
    }, 
    {
      "op": "SliceChannel", 
      "name": "t8_l2_slice", 
      "attr": {"num_outputs": "4"}, 
      "inputs": [[429, 0, 0]]
    }, 
    {
      "op": "Activation", 
      "name": "activation132", 
      "attr": {"act_type": "sigmoid"}, 
      "inputs": [[430, 2, 0]]
    }, 
    {
      "op": "Activation", 
      "name": "activation131", 
      "attr": {"act_type": "sigmoid"}, 
      "inputs": [[430, 1, 0]]
    }, 
    {
      "op": "_mul", 
      "name": "_mul78", 
      "inputs": [[432, 0, 0], [390, 0, 0]]
    }, 
    {
      "op": "Activation", 
      "name": "activation130", 
      "attr": {"act_type": "sigmoid"}, 
      "inputs": [[430, 0, 0]]
    }, 
    {
      "op": "Activation", 
      "name": "activation133", 
      "attr": {"act_type": "tanh"}, 
      "inputs": [[430, 3, 0]]
    }, 
    {
      "op": "_mul", 
      "name": "_mul79", 
      "inputs": [[434, 0, 0], [435, 0, 0]]
    }, 
    {
      "op": "elemwise_add", 
      "name": "_plus53", 
      "inputs": [[433, 0, 0], [436, 0, 0]]
    }, 
    {
      "op": "Activation", 
      "name": "activation134", 
      "attr": {"act_type": "tanh"}, 
      "inputs": [[437, 0, 0]]
    }, 
    {
      "op": "_mul", 
      "name": "_mul80", 
      "inputs": [[431, 0, 0], [438, 0, 0]]
    }, 
    {
      "op": "Dropout", 
      "name": "dropout26", 
      "attr": {"p": "0.2"}, 
      "inputs": [[439, 0, 0]]
    }, 
    {
      "op": "FullyConnected", 
      "name": "fullyconnected8", 
      "attr": {"num_hidden": "84"}, 
      "inputs": [[440, 0, 0], [63, 0, 0], [64, 0, 0]]
    }, 
    {
      "op": "null", 
      "name": "label/8", 
      "inputs": []
    }, 
    {
      "op": "SoftmaxOutput", 
      "name": "t8_sm", 
      "inputs": [[441, 0, 0], [442, 0, 0]]
    }, 
    {
      "op": "null", 
      "name": "data/9", 
      "inputs": []
    }, 
    {
      "op": "Embedding", 
      "name": "t9_embed", 
      "attr": {
        "input_dim": "84", 
        "output_dim": "256"
      }, 
      "inputs": [[444, 0, 0], [1, 0, 0]]
    }, 
    {
      "op": "FullyConnected", 
      "name": "t9_l0_i2h", 
      "attr": {"num_hidden": "2048"}, 
      "inputs": [[445, 0, 0], [3, 0, 0], [4, 0, 0]]
    }, 
    {
      "op": "FullyConnected", 
      "name": "t9_l0_h2h", 
      "attr": {"num_hidden": "2048"}, 
      "inputs": [[411, 0, 0], [7, 0, 0], [8, 0, 0]]
    }, 
    {
      "op": "elemwise_add", 
      "name": "_plus54", 
      "inputs": [[446, 0, 0], [447, 0, 0]]
    }, 
    {
      "op": "SliceChannel", 
      "name": "t9_l0_slice", 
      "attr": {"num_outputs": "4"}, 
      "inputs": [[448, 0, 0]]
    }, 
    {
      "op": "Activation", 
      "name": "activation137", 
      "attr": {"act_type": "sigmoid"}, 
      "inputs": [[449, 2, 0]]
    }, 
    {
      "op": "Activation", 
      "name": "activation136", 
      "attr": {"act_type": "sigmoid"}, 
      "inputs": [[449, 1, 0]]
    }, 
    {
      "op": "_mul", 
      "name": "_mul81", 
      "inputs": [[451, 0, 0], [409, 0, 0]]
    }, 
    {
      "op": "Activation", 
      "name": "activation135", 
      "attr": {"act_type": "sigmoid"}, 
      "inputs": [[449, 0, 0]]
    }, 
    {
      "op": "Activation", 
      "name": "activation138", 
      "attr": {"act_type": "tanh"}, 
      "inputs": [[449, 3, 0]]
    }, 
    {
      "op": "_mul", 
      "name": "_mul82", 
      "inputs": [[453, 0, 0], [454, 0, 0]]
    }, 
    {
      "op": "elemwise_add", 
      "name": "_plus55", 
      "inputs": [[452, 0, 0], [455, 0, 0]]
    }, 
    {
      "op": "Activation", 
      "name": "activation139", 
      "attr": {"act_type": "tanh"}, 
      "inputs": [[456, 0, 0]]
    }, 
    {
      "op": "_mul", 
      "name": "_mul83", 
      "inputs": [[450, 0, 0], [457, 0, 0]]
    }, 
    {
      "op": "Dropout", 
      "name": "dropout27", 
      "attr": {"p": "0.2"}, 
      "inputs": [[458, 0, 0]]
    }, 
    {
      "op": "FullyConnected", 
      "name": "t9_l1_i2h", 
      "attr": {"num_hidden": "2048"}, 
      "inputs": [[459, 0, 0], [23, 0, 0], [24, 0, 0]]
    }, 
    {
      "op": "FullyConnected", 
      "name": "t9_l1_h2h", 
      "attr": {"num_hidden": "2048"}, 
      "inputs": [[425, 0, 0], [27, 0, 0], [28, 0, 0]]
    }, 
    {
      "op": "elemwise_add", 
      "name": "_plus56", 
      "inputs": [[460, 0, 0], [461, 0, 0]]
    }, 
    {
      "op": "SliceChannel", 
      "name": "t9_l1_slice", 
      "attr": {"num_outputs": "4"}, 
      "inputs": [[462, 0, 0]]
    }, 
    {
      "op": "Activation", 
      "name": "activation142", 
      "attr": {"act_type": "sigmoid"}, 
      "inputs": [[463, 2, 0]]
    }, 
    {
      "op": "Activation", 
      "name": "activation141", 
      "attr": {"act_type": "sigmoid"}, 
      "inputs": [[463, 1, 0]]
    }, 
    {
      "op": "_mul", 
      "name": "_mul84", 
      "inputs": [[465, 0, 0], [423, 0, 0]]
    }, 
    {
      "op": "Activation", 
      "name": "activation140", 
      "attr": {"act_type": "sigmoid"}, 
      "inputs": [[463, 0, 0]]
    }, 
    {
      "op": "Activation", 
      "name": "activation143", 
      "attr": {"act_type": "tanh"}, 
      "inputs": [[463, 3, 0]]
    }, 
    {
      "op": "_mul", 
      "name": "_mul85", 
      "inputs": [[467, 0, 0], [468, 0, 0]]
    }, 
    {
      "op": "elemwise_add", 
      "name": "_plus57", 
      "inputs": [[466, 0, 0], [469, 0, 0]]
    }, 
    {
      "op": "Activation", 
      "name": "activation144", 
      "attr": {"act_type": "tanh"}, 
      "inputs": [[470, 0, 0]]
    }, 
    {
      "op": "_mul", 
      "name": "_mul86", 
      "inputs": [[464, 0, 0], [471, 0, 0]]
    }, 
    {
      "op": "Dropout", 
      "name": "dropout28", 
      "attr": {"p": "0.2"}, 
      "inputs": [[472, 0, 0]]
    }, 
    {
      "op": "FullyConnected", 
      "name": "t9_l2_i2h", 
      "attr": {"num_hidden": "2048"}, 
      "inputs": [[473, 0, 0], [43, 0, 0], [44, 0, 0]]
    }, 
    {
      "op": "FullyConnected", 
      "name": "t9_l2_h2h", 
      "attr": {"num_hidden": "2048"}, 
      "inputs": [[439, 0, 0], [47, 0, 0], [48, 0, 0]]
    }, 
    {
      "op": "elemwise_add", 
      "name": "_plus58", 
      "inputs": [[474, 0, 0], [475, 0, 0]]
    }, 
    {
      "op": "SliceChannel", 
      "name": "t9_l2_slice", 
      "attr": {"num_outputs": "4"}, 
      "inputs": [[476, 0, 0]]
    }, 
    {
      "op": "Activation", 
      "name": "activation147", 
      "attr": {"act_type": "sigmoid"}, 
      "inputs": [[477, 2, 0]]
    }, 
    {
      "op": "Activation", 
      "name": "activation146", 
      "attr": {"act_type": "sigmoid"}, 
      "inputs": [[477, 1, 0]]
    }, 
    {
      "op": "_mul", 
      "name": "_mul87", 
      "inputs": [[479, 0, 0], [437, 0, 0]]
    }, 
    {
      "op": "Activation", 
      "name": "activation145", 
      "attr": {"act_type": "sigmoid"}, 
      "inputs": [[477, 0, 0]]
    }, 
    {
      "op": "Activation", 
      "name": "activation148", 
      "attr": {"act_type": "tanh"}, 
      "inputs": [[477, 3, 0]]
    }, 
    {
      "op": "_mul", 
      "name": "_mul88", 
      "inputs": [[481, 0, 0], [482, 0, 0]]
    }, 
    {
      "op": "elemwise_add", 
      "name": "_plus59", 
      "inputs": [[480, 0, 0], [483, 0, 0]]
    }, 
    {
      "op": "Activation", 
      "name": "activation149", 
      "attr": {"act_type": "tanh"}, 
      "inputs": [[484, 0, 0]]
    }, 
    {
      "op": "_mul", 
      "name": "_mul89", 
      "inputs": [[478, 0, 0], [485, 0, 0]]
    }, 
    {
      "op": "Dropout", 
      "name": "dropout29", 
      "attr": {"p": "0.2"}, 
      "inputs": [[486, 0, 0]]
    }, 
    {
      "op": "FullyConnected", 
      "name": "fullyconnected9", 
      "attr": {"num_hidden": "84"}, 
      "inputs": [[487, 0, 0], [63, 0, 0], [64, 0, 0]]
    }, 
    {
      "op": "null", 
      "name": "label/9", 
      "inputs": []
    }, 
    {
      "op": "SoftmaxOutput", 
      "name": "t9_sm", 
      "inputs": [[488, 0, 0], [489, 0, 0]]
    }, 
    {
      "op": "null", 
      "name": "data/10", 
      "inputs": []
    }, 
    {
      "op": "Embedding", 
      "name": "t10_embed", 
      "attr": {
        "input_dim": "84", 
        "output_dim": "256"
      }, 
      "inputs": [[491, 0, 0], [1, 0, 0]]
    }, 
    {
      "op": "FullyConnected", 
      "name": "t10_l0_i2h", 
      "attr": {"num_hidden": "2048"}, 
      "inputs": [[492, 0, 0], [3, 0, 0], [4, 0, 0]]
    }, 
    {
      "op": "FullyConnected", 
      "name": "t10_l0_h2h", 
      "attr": {"num_hidden": "2048"}, 
      "inputs": [[458, 0, 0], [7, 0, 0], [8, 0, 0]]
    }, 
    {
      "op": "elemwise_add", 
      "name": "_plus60", 
      "inputs": [[493, 0, 0], [494, 0, 0]]
    }, 
    {
      "op": "SliceChannel", 
      "name": "t10_l0_slice", 
      "attr": {"num_outputs": "4"}, 
      "inputs": [[495, 0, 0]]
    }, 
    {
      "op": "Activation", 
      "name": "activation152", 
      "attr": {"act_type": "sigmoid"}, 
      "inputs": [[496, 2, 0]]
    }, 
    {
      "op": "Activation", 
      "name": "activation151", 
      "attr": {"act_type": "sigmoid"}, 
      "inputs": [[496, 1, 0]]
    }, 
    {
      "op": "_mul", 
      "name": "_mul90", 
      "inputs": [[498, 0, 0], [456, 0, 0]]
    }, 
    {
      "op": "Activation", 
      "name": "activation150", 
      "attr": {"act_type": "sigmoid"}, 
      "inputs": [[496, 0, 0]]
    }, 
    {
      "op": "Activation", 
      "name": "activation153", 
      "attr": {"act_type": "tanh"}, 
      "inputs": [[496, 3, 0]]
    }, 
    {
      "op": "_mul", 
      "name": "_mul91", 
      "inputs": [[500, 0, 0], [501, 0, 0]]
    }, 
    {
      "op": "elemwise_add", 
      "name": "_plus61", 
      "inputs": [[499, 0, 0], [502, 0, 0]]
    }, 
    {
      "op": "Activation", 
      "name": "activation154", 
      "attr": {"act_type": "tanh"}, 
      "inputs": [[503, 0, 0]]
    }, 
    {
      "op": "_mul", 
      "name": "_mul92", 
      "inputs": [[497, 0, 0], [504, 0, 0]]
    }, 
    {
      "op": "Dropout", 
      "name": "dropout30", 
      "attr": {"p": "0.2"}, 
      "inputs": [[505, 0, 0]]
    }, 
    {
      "op": "FullyConnected", 
      "name": "t10_l1_i2h", 
      "attr": {"num_hidden": "2048"}, 
      "inputs": [[506, 0, 0], [23, 0, 0], [24, 0, 0]]
    }, 
    {
      "op": "FullyConnected", 
      "name": "t10_l1_h2h", 
      "attr": {"num_hidden": "2048"}, 
      "inputs": [[472, 0, 0], [27, 0, 0], [28, 0, 0]]
    }, 
    {
      "op": "elemwise_add", 
      "name": "_plus62", 
      "inputs": [[507, 0, 0], [508, 0, 0]]
    }, 
    {
      "op": "SliceChannel", 
      "name": "t10_l1_slice", 
      "attr": {"num_outputs": "4"}, 
      "inputs": [[509, 0, 0]]
    }, 
    {
      "op": "Activation", 
      "name": "activation157", 
      "attr": {"act_type": "sigmoid"}, 
      "inputs": [[510, 2, 0]]
    }, 
    {
      "op": "Activation", 
      "name": "activation156", 
      "attr": {"act_type": "sigmoid"}, 
      "inputs": [[510, 1, 0]]
    }, 
    {
      "op": "_mul", 
      "name": "_mul93", 
      "inputs": [[512, 0, 0], [470, 0, 0]]
    }, 
    {
      "op": "Activation", 
      "name": "activation155", 
      "attr": {"act_type": "sigmoid"}, 
      "inputs": [[510, 0, 0]]
    }, 
    {
      "op": "Activation", 
      "name": "activation158", 
      "attr": {"act_type": "tanh"}, 
      "inputs": [[510, 3, 0]]
    }, 
    {
      "op": "_mul", 
      "name": "_mul94", 
      "inputs": [[514, 0, 0], [515, 0, 0]]
    }, 
    {
      "op": "elemwise_add", 
      "name": "_plus63", 
      "inputs": [[513, 0, 0], [516, 0, 0]]
    }, 
    {
      "op": "Activation", 
      "name": "activation159", 
      "attr": {"act_type": "tanh"}, 
      "inputs": [[517, 0, 0]]
    }, 
    {
      "op": "_mul", 
      "name": "_mul95", 
      "inputs": [[511, 0, 0], [518, 0, 0]]
    }, 
    {
      "op": "Dropout", 
      "name": "dropout31", 
      "attr": {"p": "0.2"}, 
      "inputs": [[519, 0, 0]]
    }, 
    {
      "op": "FullyConnected", 
      "name": "t10_l2_i2h", 
      "attr": {"num_hidden": "2048"}, 
      "inputs": [[520, 0, 0], [43, 0, 0], [44, 0, 0]]
    }, 
    {
      "op": "FullyConnected", 
      "name": "t10_l2_h2h", 
      "attr": {"num_hidden": "2048"}, 
      "inputs": [[486, 0, 0], [47, 0, 0], [48, 0, 0]]
    }, 
    {
      "op": "elemwise_add", 
      "name": "_plus64", 
      "inputs": [[521, 0, 0], [522, 0, 0]]
    }, 
    {
      "op": "SliceChannel", 
      "name": "t10_l2_slice", 
      "attr": {"num_outputs": "4"}, 
      "inputs": [[523, 0, 0]]
    }, 
    {
      "op": "Activation", 
      "name": "activation162", 
      "attr": {"act_type": "sigmoid"}, 
      "inputs": [[524, 2, 0]]
    }, 
    {
      "op": "Activation", 
      "name": "activation161", 
      "attr": {"act_type": "sigmoid"}, 
      "inputs": [[524, 1, 0]]
    }, 
    {
      "op": "_mul", 
      "name": "_mul96", 
      "inputs": [[526, 0, 0], [484, 0, 0]]
    }, 
    {
      "op": "Activation", 
      "name": "activation160", 
      "attr": {"act_type": "sigmoid"}, 
      "inputs": [[524, 0, 0]]
    }, 
    {
      "op": "Activation", 
      "name": "activation163", 
      "attr": {"act_type": "tanh"}, 
      "inputs": [[524, 3, 0]]
    }, 
    {
      "op": "_mul", 
      "name": "_mul97", 
      "inputs": [[528, 0, 0], [529, 0, 0]]
    }, 
    {
      "op": "elemwise_add", 
      "name": "_plus65", 
      "inputs": [[527, 0, 0], [530, 0, 0]]
    }, 
    {
      "op": "Activation", 
      "name": "activation164", 
      "attr": {"act_type": "tanh"}, 
      "inputs": [[531, 0, 0]]
    }, 
    {
      "op": "_mul", 
      "name": "_mul98", 
      "inputs": [[525, 0, 0], [532, 0, 0]]
    }, 
    {
      "op": "Dropout", 
      "name": "dropout32", 
      "attr": {"p": "0.2"}, 
      "inputs": [[533, 0, 0]]
    }, 
    {
      "op": "FullyConnected", 
      "name": "fullyconnected10", 
      "attr": {"num_hidden": "84"}, 
      "inputs": [[534, 0, 0], [63, 0, 0], [64, 0, 0]]
    }, 
    {
      "op": "null", 
      "name": "label/10", 
      "inputs": []
    }, 
    {
      "op": "SoftmaxOutput", 
      "name": "t10_sm", 
      "inputs": [[535, 0, 0], [536, 0, 0]]
    }, 
    {
      "op": "null", 
      "name": "data/11", 
      "inputs": []
    }, 
    {
      "op": "Embedding", 
      "name": "t11_embed", 
      "attr": {
        "input_dim": "84", 
        "output_dim": "256"
      }, 
      "inputs": [[538, 0, 0], [1, 0, 0]]
    }, 
    {
      "op": "FullyConnected", 
      "name": "t11_l0_i2h", 
      "attr": {"num_hidden": "2048"}, 
      "inputs": [[539, 0, 0], [3, 0, 0], [4, 0, 0]]
    }, 
    {
      "op": "FullyConnected", 
      "name": "t11_l0_h2h", 
      "attr": {"num_hidden": "2048"}, 
      "inputs": [[505, 0, 0], [7, 0, 0], [8, 0, 0]]
    }, 
    {
      "op": "elemwise_add", 
      "name": "_plus66", 
      "inputs": [[540, 0, 0], [541, 0, 0]]
    }, 
    {
      "op": "SliceChannel", 
      "name": "t11_l0_slice", 
      "attr": {"num_outputs": "4"}, 
      "inputs": [[542, 0, 0]]
    }, 
    {
      "op": "Activation", 
      "name": "activation167", 
      "attr": {"act_type": "sigmoid"}, 
      "inputs": [[543, 2, 0]]
    }, 
    {
      "op": "Activation", 
      "name": "activation166", 
      "attr": {"act_type": "sigmoid"}, 
      "inputs": [[543, 1, 0]]
    }, 
    {
      "op": "_mul", 
      "name": "_mul99", 
      "inputs": [[545, 0, 0], [503, 0, 0]]
    }, 
    {
      "op": "Activation", 
      "name": "activation165", 
      "attr": {"act_type": "sigmoid"}, 
      "inputs": [[543, 0, 0]]
    }, 
    {
      "op": "Activation", 
      "name": "activation168", 
      "attr": {"act_type": "tanh"}, 
      "inputs": [[543, 3, 0]]
    }, 
    {
      "op": "_mul", 
      "name": "_mul100", 
      "inputs": [[547, 0, 0], [548, 0, 0]]
    }, 
    {
      "op": "elemwise_add", 
      "name": "_plus67", 
      "inputs": [[546, 0, 0], [549, 0, 0]]
    }, 
    {
      "op": "Activation", 
      "name": "activation169", 
      "attr": {"act_type": "tanh"}, 
      "inputs": [[550, 0, 0]]
    }, 
    {
      "op": "_mul", 
      "name": "_mul101", 
      "inputs": [[544, 0, 0], [551, 0, 0]]
    }, 
    {
      "op": "Dropout", 
      "name": "dropout33", 
      "attr": {"p": "0.2"}, 
      "inputs": [[552, 0, 0]]
    }, 
    {
      "op": "FullyConnected", 
      "name": "t11_l1_i2h", 
      "attr": {"num_hidden": "2048"}, 
      "inputs": [[553, 0, 0], [23, 0, 0], [24, 0, 0]]
    }, 
    {
      "op": "FullyConnected", 
      "name": "t11_l1_h2h", 
      "attr": {"num_hidden": "2048"}, 
      "inputs": [[519, 0, 0], [27, 0, 0], [28, 0, 0]]
    }, 
    {
      "op": "elemwise_add", 
      "name": "_plus68", 
      "inputs": [[554, 0, 0], [555, 0, 0]]
    }, 
    {
      "op": "SliceChannel", 
      "name": "t11_l1_slice", 
      "attr": {"num_outputs": "4"}, 
      "inputs": [[556, 0, 0]]
    }, 
    {
      "op": "Activation", 
      "name": "activation172", 
      "attr": {"act_type": "sigmoid"}, 
      "inputs": [[557, 2, 0]]
    }, 
    {
      "op": "Activation", 
      "name": "activation171", 
      "attr": {"act_type": "sigmoid"}, 
      "inputs": [[557, 1, 0]]
    }, 
    {
      "op": "_mul", 
      "name": "_mul102", 
      "inputs": [[559, 0, 0], [517, 0, 0]]
    }, 
    {
      "op": "Activation", 
      "name": "activation170", 
      "attr": {"act_type": "sigmoid"}, 
      "inputs": [[557, 0, 0]]
    }, 
    {
      "op": "Activation", 
      "name": "activation173", 
      "attr": {"act_type": "tanh"}, 
      "inputs": [[557, 3, 0]]
    }, 
    {
      "op": "_mul", 
      "name": "_mul103", 
      "inputs": [[561, 0, 0], [562, 0, 0]]
    }, 
    {
      "op": "elemwise_add", 
      "name": "_plus69", 
      "inputs": [[560, 0, 0], [563, 0, 0]]
    }, 
    {
      "op": "Activation", 
      "name": "activation174", 
      "attr": {"act_type": "tanh"}, 
      "inputs": [[564, 0, 0]]
    }, 
    {
      "op": "_mul", 
      "name": "_mul104", 
      "inputs": [[558, 0, 0], [565, 0, 0]]
    }, 
    {
      "op": "Dropout", 
      "name": "dropout34", 
      "attr": {"p": "0.2"}, 
      "inputs": [[566, 0, 0]]
    }, 
    {
      "op": "FullyConnected", 
      "name": "t11_l2_i2h", 
      "attr": {"num_hidden": "2048"}, 
      "inputs": [[567, 0, 0], [43, 0, 0], [44, 0, 0]]
    }, 
    {
      "op": "FullyConnected", 
      "name": "t11_l2_h2h", 
      "attr": {"num_hidden": "2048"}, 
      "inputs": [[533, 0, 0], [47, 0, 0], [48, 0, 0]]
    }, 
    {
      "op": "elemwise_add", 
      "name": "_plus70", 
      "inputs": [[568, 0, 0], [569, 0, 0]]
    }, 
    {
      "op": "SliceChannel", 
      "name": "t11_l2_slice", 
      "attr": {"num_outputs": "4"}, 
      "inputs": [[570, 0, 0]]
    }, 
    {
      "op": "Activation", 
      "name": "activation177", 
      "attr": {"act_type": "sigmoid"}, 
      "inputs": [[571, 2, 0]]
    }, 
    {
      "op": "Activation", 
      "name": "activation176", 
      "attr": {"act_type": "sigmoid"}, 
      "inputs": [[571, 1, 0]]
    }, 
    {
      "op": "_mul", 
      "name": "_mul105", 
      "inputs": [[573, 0, 0], [531, 0, 0]]
    }, 
    {
      "op": "Activation", 
      "name": "activation175", 
      "attr": {"act_type": "sigmoid"}, 
      "inputs": [[571, 0, 0]]
    }, 
    {
      "op": "Activation", 
      "name": "activation178", 
      "attr": {"act_type": "tanh"}, 
      "inputs": [[571, 3, 0]]
    }, 
    {
      "op": "_mul", 
      "name": "_mul106", 
      "inputs": [[575, 0, 0], [576, 0, 0]]
    }, 
    {
      "op": "elemwise_add", 
      "name": "_plus71", 
      "inputs": [[574, 0, 0], [577, 0, 0]]
    }, 
    {
      "op": "Activation", 
      "name": "activation179", 
      "attr": {"act_type": "tanh"}, 
      "inputs": [[578, 0, 0]]
    }, 
    {
      "op": "_mul", 
      "name": "_mul107", 
      "inputs": [[572, 0, 0], [579, 0, 0]]
    }, 
    {
      "op": "Dropout", 
      "name": "dropout35", 
      "attr": {"p": "0.2"}, 
      "inputs": [[580, 0, 0]]
    }, 
    {
      "op": "FullyConnected", 
      "name": "fullyconnected11", 
      "attr": {"num_hidden": "84"}, 
      "inputs": [[581, 0, 0], [63, 0, 0], [64, 0, 0]]
    }, 
    {
      "op": "null", 
      "name": "label/11", 
      "inputs": []
    }, 
    {
      "op": "SoftmaxOutput", 
      "name": "t11_sm", 
      "inputs": [[582, 0, 0], [583, 0, 0]]
    }, 
    {
      "op": "null", 
      "name": "data/12", 
      "inputs": []
    }, 
    {
      "op": "Embedding", 
      "name": "t12_embed", 
      "attr": {
        "input_dim": "84", 
        "output_dim": "256"
      }, 
      "inputs": [[585, 0, 0], [1, 0, 0]]
    }, 
    {
      "op": "FullyConnected", 
      "name": "t12_l0_i2h", 
      "attr": {"num_hidden": "2048"}, 
      "inputs": [[586, 0, 0], [3, 0, 0], [4, 0, 0]]
    }, 
    {
      "op": "FullyConnected", 
      "name": "t12_l0_h2h", 
      "attr": {"num_hidden": "2048"}, 
      "inputs": [[552, 0, 0], [7, 0, 0], [8, 0, 0]]
    }, 
    {
      "op": "elemwise_add", 
      "name": "_plus72", 
      "inputs": [[587, 0, 0], [588, 0, 0]]
    }, 
    {
      "op": "SliceChannel", 
      "name": "t12_l0_slice", 
      "attr": {"num_outputs": "4"}, 
      "inputs": [[589, 0, 0]]
    }, 
    {
      "op": "Activation", 
      "name": "activation182", 
      "attr": {"act_type": "sigmoid"}, 
      "inputs": [[590, 2, 0]]
    }, 
    {
      "op": "Activation", 
      "name": "activation181", 
      "attr": {"act_type": "sigmoid"}, 
      "inputs": [[590, 1, 0]]
    }, 
    {
      "op": "_mul", 
      "name": "_mul108", 
      "inputs": [[592, 0, 0], [550, 0, 0]]
    }, 
    {
      "op": "Activation", 
      "name": "activation180", 
      "attr": {"act_type": "sigmoid"}, 
      "inputs": [[590, 0, 0]]
    }, 
    {
      "op": "Activation", 
      "name": "activation183", 
      "attr": {"act_type": "tanh"}, 
      "inputs": [[590, 3, 0]]
    }, 
    {
      "op": "_mul", 
      "name": "_mul109", 
      "inputs": [[594, 0, 0], [595, 0, 0]]
    }, 
    {
      "op": "elemwise_add", 
      "name": "_plus73", 
      "inputs": [[593, 0, 0], [596, 0, 0]]
    }, 
    {
      "op": "Activation", 
      "name": "activation184", 
      "attr": {"act_type": "tanh"}, 
      "inputs": [[597, 0, 0]]
    }, 
    {
      "op": "_mul", 
      "name": "_mul110", 
      "inputs": [[591, 0, 0], [598, 0, 0]]
    }, 
    {
      "op": "Dropout", 
      "name": "dropout36", 
      "attr": {"p": "0.2"}, 
      "inputs": [[599, 0, 0]]
    }, 
    {
      "op": "FullyConnected", 
      "name": "t12_l1_i2h", 
      "attr": {"num_hidden": "2048"}, 
      "inputs": [[600, 0, 0], [23, 0, 0], [24, 0, 0]]
    }, 
    {
      "op": "FullyConnected", 
      "name": "t12_l1_h2h", 
      "attr": {"num_hidden": "2048"}, 
      "inputs": [[566, 0, 0], [27, 0, 0], [28, 0, 0]]
    }, 
    {
      "op": "elemwise_add", 
      "name": "_plus74", 
      "inputs": [[601, 0, 0], [602, 0, 0]]
    }, 
    {
      "op": "SliceChannel", 
      "name": "t12_l1_slice", 
      "attr": {"num_outputs": "4"}, 
      "inputs": [[603, 0, 0]]
    }, 
    {
      "op": "Activation", 
      "name": "activation187", 
      "attr": {"act_type": "sigmoid"}, 
      "inputs": [[604, 2, 0]]
    }, 
    {
      "op": "Activation", 
      "name": "activation186", 
      "attr": {"act_type": "sigmoid"}, 
      "inputs": [[604, 1, 0]]
    }, 
    {
      "op": "_mul", 
      "name": "_mul111", 
      "inputs": [[606, 0, 0], [564, 0, 0]]
    }, 
    {
      "op": "Activation", 
      "name": "activation185", 
      "attr": {"act_type": "sigmoid"}, 
      "inputs": [[604, 0, 0]]
    }, 
    {
      "op": "Activation", 
      "name": "activation188", 
      "attr": {"act_type": "tanh"}, 
      "inputs": [[604, 3, 0]]
    }, 
    {
      "op": "_mul", 
      "name": "_mul112", 
      "inputs": [[608, 0, 0], [609, 0, 0]]
    }, 
    {
      "op": "elemwise_add", 
      "name": "_plus75", 
      "inputs": [[607, 0, 0], [610, 0, 0]]
    }, 
    {
      "op": "Activation", 
      "name": "activation189", 
      "attr": {"act_type": "tanh"}, 
      "inputs": [[611, 0, 0]]
    }, 
    {
      "op": "_mul", 
      "name": "_mul113", 
      "inputs": [[605, 0, 0], [612, 0, 0]]
    }, 
    {
      "op": "Dropout", 
      "name": "dropout37", 
      "attr": {"p": "0.2"}, 
      "inputs": [[613, 0, 0]]
    }, 
    {
      "op": "FullyConnected", 
      "name": "t12_l2_i2h", 
      "attr": {"num_hidden": "2048"}, 
      "inputs": [[614, 0, 0], [43, 0, 0], [44, 0, 0]]
    }, 
    {
      "op": "FullyConnected", 
      "name": "t12_l2_h2h", 
      "attr": {"num_hidden": "2048"}, 
      "inputs": [[580, 0, 0], [47, 0, 0], [48, 0, 0]]
    }, 
    {
      "op": "elemwise_add", 
      "name": "_plus76", 
      "inputs": [[615, 0, 0], [616, 0, 0]]
    }, 
    {
      "op": "SliceChannel", 
      "name": "t12_l2_slice", 
      "attr": {"num_outputs": "4"}, 
      "inputs": [[617, 0, 0]]
    }, 
    {
      "op": "Activation", 
      "name": "activation192", 
      "attr": {"act_type": "sigmoid"}, 
      "inputs": [[618, 2, 0]]
    }, 
    {
      "op": "Activation", 
      "name": "activation191", 
      "attr": {"act_type": "sigmoid"}, 
      "inputs": [[618, 1, 0]]
    }, 
    {
      "op": "_mul", 
      "name": "_mul114", 
      "inputs": [[620, 0, 0], [578, 0, 0]]
    }, 
    {
      "op": "Activation", 
      "name": "activation190", 
      "attr": {"act_type": "sigmoid"}, 
      "inputs": [[618, 0, 0]]
    }, 
    {
      "op": "Activation", 
      "name": "activation193", 
      "attr": {"act_type": "tanh"}, 
      "inputs": [[618, 3, 0]]
    }, 
    {
      "op": "_mul", 
      "name": "_mul115", 
      "inputs": [[622, 0, 0], [623, 0, 0]]
    }, 
    {
      "op": "elemwise_add", 
      "name": "_plus77", 
      "inputs": [[621, 0, 0], [624, 0, 0]]
    }, 
    {
      "op": "Activation", 
      "name": "activation194", 
      "attr": {"act_type": "tanh"}, 
      "inputs": [[625, 0, 0]]
    }, 
    {
      "op": "_mul", 
      "name": "_mul116", 
      "inputs": [[619, 0, 0], [626, 0, 0]]
    }, 
    {
      "op": "Dropout", 
      "name": "dropout38", 
      "attr": {"p": "0.2"}, 
      "inputs": [[627, 0, 0]]
    }, 
    {
      "op": "FullyConnected", 
      "name": "fullyconnected12", 
      "attr": {"num_hidden": "84"}, 
      "inputs": [[628, 0, 0], [63, 0, 0], [64, 0, 0]]
    }, 
    {
      "op": "null", 
      "name": "label/12", 
      "inputs": []
    }, 
    {
      "op": "SoftmaxOutput", 
      "name": "t12_sm", 
      "inputs": [[629, 0, 0], [630, 0, 0]]
    }, 
    {
      "op": "null", 
      "name": "data/13", 
      "inputs": []
    }, 
    {
      "op": "Embedding", 
      "name": "t13_embed", 
      "attr": {
        "input_dim": "84", 
        "output_dim": "256"
      }, 
      "inputs": [[632, 0, 0], [1, 0, 0]]
    }, 
    {
      "op": "FullyConnected", 
      "name": "t13_l0_i2h", 
      "attr": {"num_hidden": "2048"}, 
      "inputs": [[633, 0, 0], [3, 0, 0], [4, 0, 0]]
    }, 
    {
      "op": "FullyConnected", 
      "name": "t13_l0_h2h", 
      "attr": {"num_hidden": "2048"}, 
      "inputs": [[599, 0, 0], [7, 0, 0], [8, 0, 0]]
    }, 
    {
      "op": "elemwise_add", 
      "name": "_plus78", 
      "inputs": [[634, 0, 0], [635, 0, 0]]
    }, 
    {
      "op": "SliceChannel", 
      "name": "t13_l0_slice", 
      "attr": {"num_outputs": "4"}, 
      "inputs": [[636, 0, 0]]
    }, 
    {
      "op": "Activation", 
      "name": "activation197", 
      "attr": {"act_type": "sigmoid"}, 
      "inputs": [[637, 2, 0]]
    }, 
    {
      "op": "Activation", 
      "name": "activation196", 
      "attr": {"act_type": "sigmoid"}, 
      "inputs": [[637, 1, 0]]
    }, 
    {
      "op": "_mul", 
      "name": "_mul117", 
      "inputs": [[639, 0, 0], [597, 0, 0]]
    }, 
    {
      "op": "Activation", 
      "name": "activation195", 
      "attr": {"act_type": "sigmoid"}, 
      "inputs": [[637, 0, 0]]
    }, 
    {
      "op": "Activation", 
      "name": "activation198", 
      "attr": {"act_type": "tanh"}, 
      "inputs": [[637, 3, 0]]
    }, 
    {
      "op": "_mul", 
      "name": "_mul118", 
      "inputs": [[641, 0, 0], [642, 0, 0]]
    }, 
    {
      "op": "elemwise_add", 
      "name": "_plus79", 
      "inputs": [[640, 0, 0], [643, 0, 0]]
    }, 
    {
      "op": "Activation", 
      "name": "activation199", 
      "attr": {"act_type": "tanh"}, 
      "inputs": [[644, 0, 0]]
    }, 
    {
      "op": "_mul", 
      "name": "_mul119", 
      "inputs": [[638, 0, 0], [645, 0, 0]]
    }, 
    {
      "op": "Dropout", 
      "name": "dropout39", 
      "attr": {"p": "0.2"}, 
      "inputs": [[646, 0, 0]]
    }, 
    {
      "op": "FullyConnected", 
      "name": "t13_l1_i2h", 
      "attr": {"num_hidden": "2048"}, 
      "inputs": [[647, 0, 0], [23, 0, 0], [24, 0, 0]]
    }, 
    {
      "op": "FullyConnected", 
      "name": "t13_l1_h2h", 
      "attr": {"num_hidden": "2048"}, 
      "inputs": [[613, 0, 0], [27, 0, 0], [28, 0, 0]]
    }, 
    {
      "op": "elemwise_add", 
      "name": "_plus80", 
      "inputs": [[648, 0, 0], [649, 0, 0]]
    }, 
    {
      "op": "SliceChannel", 
      "name": "t13_l1_slice", 
      "attr": {"num_outputs": "4"}, 
      "inputs": [[650, 0, 0]]
    }, 
    {
      "op": "Activation", 
      "name": "activation202", 
      "attr": {"act_type": "sigmoid"}, 
      "inputs": [[651, 2, 0]]
    }, 
    {
      "op": "Activation", 
      "name": "activation201", 
      "attr": {"act_type": "sigmoid"}, 
      "inputs": [[651, 1, 0]]
    }, 
    {
      "op": "_mul", 
      "name": "_mul120", 
      "inputs": [[653, 0, 0], [611, 0, 0]]
    }, 
    {
      "op": "Activation", 
      "name": "activation200", 
      "attr": {"act_type": "sigmoid"}, 
      "inputs": [[651, 0, 0]]
    }, 
    {
      "op": "Activation", 
      "name": "activation203", 
      "attr": {"act_type": "tanh"}, 
      "inputs": [[651, 3, 0]]
    }, 
    {
      "op": "_mul", 
      "name": "_mul121", 
      "inputs": [[655, 0, 0], [656, 0, 0]]
    }, 
    {
      "op": "elemwise_add", 
      "name": "_plus81", 
      "inputs": [[654, 0, 0], [657, 0, 0]]
    }, 
    {
      "op": "Activation", 
      "name": "activation204", 
      "attr": {"act_type": "tanh"}, 
      "inputs": [[658, 0, 0]]
    }, 
    {
      "op": "_mul", 
      "name": "_mul122", 
      "inputs": [[652, 0, 0], [659, 0, 0]]
    }, 
    {
      "op": "Dropout", 
      "name": "dropout40", 
      "attr": {"p": "0.2"}, 
      "inputs": [[660, 0, 0]]
    }, 
    {
      "op": "FullyConnected", 
      "name": "t13_l2_i2h", 
      "attr": {"num_hidden": "2048"}, 
      "inputs": [[661, 0, 0], [43, 0, 0], [44, 0, 0]]
    }, 
    {
      "op": "FullyConnected", 
      "name": "t13_l2_h2h", 
      "attr": {"num_hidden": "2048"}, 
      "inputs": [[627, 0, 0], [47, 0, 0], [48, 0, 0]]
    }, 
    {
      "op": "elemwise_add", 
      "name": "_plus82", 
      "inputs": [[662, 0, 0], [663, 0, 0]]
    }, 
    {
      "op": "SliceChannel", 
      "name": "t13_l2_slice", 
      "attr": {"num_outputs": "4"}, 
      "inputs": [[664, 0, 0]]
    }, 
    {
      "op": "Activation", 
      "name": "activation207", 
      "attr": {"act_type": "sigmoid"}, 
      "inputs": [[665, 2, 0]]
    }, 
    {
      "op": "Activation", 
      "name": "activation206", 
      "attr": {"act_type": "sigmoid"}, 
      "inputs": [[665, 1, 0]]
    }, 
    {
      "op": "_mul", 
      "name": "_mul123", 
      "inputs": [[667, 0, 0], [625, 0, 0]]
    }, 
    {
      "op": "Activation", 
      "name": "activation205", 
      "attr": {"act_type": "sigmoid"}, 
      "inputs": [[665, 0, 0]]
    }, 
    {
      "op": "Activation", 
      "name": "activation208", 
      "attr": {"act_type": "tanh"}, 
      "inputs": [[665, 3, 0]]
    }, 
    {
      "op": "_mul", 
      "name": "_mul124", 
      "inputs": [[669, 0, 0], [670, 0, 0]]
    }, 
    {
      "op": "elemwise_add", 
      "name": "_plus83", 
      "inputs": [[668, 0, 0], [671, 0, 0]]
    }, 
    {
      "op": "Activation", 
      "name": "activation209", 
      "attr": {"act_type": "tanh"}, 
      "inputs": [[672, 0, 0]]
    }, 
    {
      "op": "_mul", 
      "name": "_mul125", 
      "inputs": [[666, 0, 0], [673, 0, 0]]
    }, 
    {
      "op": "Dropout", 
      "name": "dropout41", 
      "attr": {"p": "0.2"}, 
      "inputs": [[674, 0, 0]]
    }, 
    {
      "op": "FullyConnected", 
      "name": "fullyconnected13", 
      "attr": {"num_hidden": "84"}, 
      "inputs": [[675, 0, 0], [63, 0, 0], [64, 0, 0]]
    }, 
    {
      "op": "null", 
      "name": "label/13", 
      "inputs": []
    }, 
    {
      "op": "SoftmaxOutput", 
      "name": "t13_sm", 
      "inputs": [[676, 0, 0], [677, 0, 0]]
    }, 
    {
      "op": "null", 
      "name": "data/14", 
      "inputs": []
    }, 
    {
      "op": "Embedding", 
      "name": "t14_embed", 
      "attr": {
        "input_dim": "84", 
        "output_dim": "256"
      }, 
      "inputs": [[679, 0, 0], [1, 0, 0]]
    }, 
    {
      "op": "FullyConnected", 
      "name": "t14_l0_i2h", 
      "attr": {"num_hidden": "2048"}, 
      "inputs": [[680, 0, 0], [3, 0, 0], [4, 0, 0]]
    }, 
    {
      "op": "FullyConnected", 
      "name": "t14_l0_h2h", 
      "attr": {"num_hidden": "2048"}, 
      "inputs": [[646, 0, 0], [7, 0, 0], [8, 0, 0]]
    }, 
    {
      "op": "elemwise_add", 
      "name": "_plus84", 
      "inputs": [[681, 0, 0], [682, 0, 0]]
    }, 
    {
      "op": "SliceChannel", 
      "name": "t14_l0_slice", 
      "attr": {"num_outputs": "4"}, 
      "inputs": [[683, 0, 0]]
    }, 
    {
      "op": "Activation", 
      "name": "activation212", 
      "attr": {"act_type": "sigmoid"}, 
      "inputs": [[684, 2, 0]]
    }, 
    {
      "op": "Activation", 
      "name": "activation211", 
      "attr": {"act_type": "sigmoid"}, 
      "inputs": [[684, 1, 0]]
    }, 
    {
      "op": "_mul", 
      "name": "_mul126", 
      "inputs": [[686, 0, 0], [644, 0, 0]]
    }, 
    {
      "op": "Activation", 
      "name": "activation210", 
      "attr": {"act_type": "sigmoid"}, 
      "inputs": [[684, 0, 0]]
    }, 
    {
      "op": "Activation", 
      "name": "activation213", 
      "attr": {"act_type": "tanh"}, 
      "inputs": [[684, 3, 0]]
    }, 
    {
      "op": "_mul", 
      "name": "_mul127", 
      "inputs": [[688, 0, 0], [689, 0, 0]]
    }, 
    {
      "op": "elemwise_add", 
      "name": "_plus85", 
      "inputs": [[687, 0, 0], [690, 0, 0]]
    }, 
    {
      "op": "Activation", 
      "name": "activation214", 
      "attr": {"act_type": "tanh"}, 
      "inputs": [[691, 0, 0]]
    }, 
    {
      "op": "_mul", 
      "name": "_mul128", 
      "inputs": [[685, 0, 0], [692, 0, 0]]
    }, 
    {
      "op": "Dropout", 
      "name": "dropout42", 
      "attr": {"p": "0.2"}, 
      "inputs": [[693, 0, 0]]
    }, 
    {
      "op": "FullyConnected", 
      "name": "t14_l1_i2h", 
      "attr": {"num_hidden": "2048"}, 
      "inputs": [[694, 0, 0], [23, 0, 0], [24, 0, 0]]
    }, 
    {
      "op": "FullyConnected", 
      "name": "t14_l1_h2h", 
      "attr": {"num_hidden": "2048"}, 
      "inputs": [[660, 0, 0], [27, 0, 0], [28, 0, 0]]
    }, 
    {
      "op": "elemwise_add", 
      "name": "_plus86", 
      "inputs": [[695, 0, 0], [696, 0, 0]]
    }, 
    {
      "op": "SliceChannel", 
      "name": "t14_l1_slice", 
      "attr": {"num_outputs": "4"}, 
      "inputs": [[697, 0, 0]]
    }, 
    {
      "op": "Activation", 
      "name": "activation217", 
      "attr": {"act_type": "sigmoid"}, 
      "inputs": [[698, 2, 0]]
    }, 
    {
      "op": "Activation", 
      "name": "activation216", 
      "attr": {"act_type": "sigmoid"}, 
      "inputs": [[698, 1, 0]]
    }, 
    {
      "op": "_mul", 
      "name": "_mul129", 
      "inputs": [[700, 0, 0], [658, 0, 0]]
    }, 
    {
      "op": "Activation", 
      "name": "activation215", 
      "attr": {"act_type": "sigmoid"}, 
      "inputs": [[698, 0, 0]]
    }, 
    {
      "op": "Activation", 
      "name": "activation218", 
      "attr": {"act_type": "tanh"}, 
      "inputs": [[698, 3, 0]]
    }, 
    {
      "op": "_mul", 
      "name": "_mul130", 
      "inputs": [[702, 0, 0], [703, 0, 0]]
    }, 
    {
      "op": "elemwise_add", 
      "name": "_plus87", 
      "inputs": [[701, 0, 0], [704, 0, 0]]
    }, 
    {
      "op": "Activation", 
      "name": "activation219", 
      "attr": {"act_type": "tanh"}, 
      "inputs": [[705, 0, 0]]
    }, 
    {
      "op": "_mul", 
      "name": "_mul131", 
      "inputs": [[699, 0, 0], [706, 0, 0]]
    }, 
    {
      "op": "Dropout", 
      "name": "dropout43", 
      "attr": {"p": "0.2"}, 
      "inputs": [[707, 0, 0]]
    }, 
    {
      "op": "FullyConnected", 
      "name": "t14_l2_i2h", 
      "attr": {"num_hidden": "2048"}, 
      "inputs": [[708, 0, 0], [43, 0, 0], [44, 0, 0]]
    }, 
    {
      "op": "FullyConnected", 
      "name": "t14_l2_h2h", 
      "attr": {"num_hidden": "2048"}, 
      "inputs": [[674, 0, 0], [47, 0, 0], [48, 0, 0]]
    }, 
    {
      "op": "elemwise_add", 
      "name": "_plus88", 
      "inputs": [[709, 0, 0], [710, 0, 0]]
    }, 
    {
      "op": "SliceChannel", 
      "name": "t14_l2_slice", 
      "attr": {"num_outputs": "4"}, 
      "inputs": [[711, 0, 0]]
    }, 
    {
      "op": "Activation", 
      "name": "activation222", 
      "attr": {"act_type": "sigmoid"}, 
      "inputs": [[712, 2, 0]]
    }, 
    {
      "op": "Activation", 
      "name": "activation221", 
      "attr": {"act_type": "sigmoid"}, 
      "inputs": [[712, 1, 0]]
    }, 
    {
      "op": "_mul", 
      "name": "_mul132", 
      "inputs": [[714, 0, 0], [672, 0, 0]]
    }, 
    {
      "op": "Activation", 
      "name": "activation220", 
      "attr": {"act_type": "sigmoid"}, 
      "inputs": [[712, 0, 0]]
    }, 
    {
      "op": "Activation", 
      "name": "activation223", 
      "attr": {"act_type": "tanh"}, 
      "inputs": [[712, 3, 0]]
    }, 
    {
      "op": "_mul", 
      "name": "_mul133", 
      "inputs": [[716, 0, 0], [717, 0, 0]]
    }, 
    {
      "op": "elemwise_add", 
      "name": "_plus89", 
      "inputs": [[715, 0, 0], [718, 0, 0]]
    }, 
    {
      "op": "Activation", 
      "name": "activation224", 
      "attr": {"act_type": "tanh"}, 
      "inputs": [[719, 0, 0]]
    }, 
    {
      "op": "_mul", 
      "name": "_mul134", 
      "inputs": [[713, 0, 0], [720, 0, 0]]
    }, 
    {
      "op": "Dropout", 
      "name": "dropout44", 
      "attr": {"p": "0.2"}, 
      "inputs": [[721, 0, 0]]
    }, 
    {
      "op": "FullyConnected", 
      "name": "fullyconnected14", 
      "attr": {"num_hidden": "84"}, 
      "inputs": [[722, 0, 0], [63, 0, 0], [64, 0, 0]]
    }, 
    {
      "op": "null", 
      "name": "label/14", 
      "inputs": []
    }, 
    {
      "op": "SoftmaxOutput", 
      "name": "t14_sm", 
      "inputs": [[723, 0, 0], [724, 0, 0]]
    }, 
    {
      "op": "null", 
      "name": "data/15", 
      "inputs": []
    }, 
    {
      "op": "Embedding", 
      "name": "t15_embed", 
      "attr": {
        "input_dim": "84", 
        "output_dim": "256"
      }, 
      "inputs": [[726, 0, 0], [1, 0, 0]]
    }, 
    {
      "op": "FullyConnected", 
      "name": "t15_l0_i2h", 
      "attr": {"num_hidden": "2048"}, 
      "inputs": [[727, 0, 0], [3, 0, 0], [4, 0, 0]]
    }, 
    {
      "op": "FullyConnected", 
      "name": "t15_l0_h2h", 
      "attr": {"num_hidden": "2048"}, 
      "inputs": [[693, 0, 0], [7, 0, 0], [8, 0, 0]]
    }, 
    {
      "op": "elemwise_add", 
      "name": "_plus90", 
      "inputs": [[728, 0, 0], [729, 0, 0]]
    }, 
    {
      "op": "SliceChannel", 
      "name": "t15_l0_slice", 
      "attr": {"num_outputs": "4"}, 
      "inputs": [[730, 0, 0]]
    }, 
    {
      "op": "Activation", 
      "name": "activation227", 
      "attr": {"act_type": "sigmoid"}, 
      "inputs": [[731, 2, 0]]
    }, 
    {
      "op": "Activation", 
      "name": "activation226", 
      "attr": {"act_type": "sigmoid"}, 
      "inputs": [[731, 1, 0]]
    }, 
    {
      "op": "_mul", 
      "name": "_mul135", 
      "inputs": [[733, 0, 0], [691, 0, 0]]
    }, 
    {
      "op": "Activation", 
      "name": "activation225", 
      "attr": {"act_type": "sigmoid"}, 
      "inputs": [[731, 0, 0]]
    }, 
    {
      "op": "Activation", 
      "name": "activation228", 
      "attr": {"act_type": "tanh"}, 
      "inputs": [[731, 3, 0]]
    }, 
    {
      "op": "_mul", 
      "name": "_mul136", 
      "inputs": [[735, 0, 0], [736, 0, 0]]
    }, 
    {
      "op": "elemwise_add", 
      "name": "_plus91", 
      "inputs": [[734, 0, 0], [737, 0, 0]]
    }, 
    {
      "op": "Activation", 
      "name": "activation229", 
      "attr": {"act_type": "tanh"}, 
      "inputs": [[738, 0, 0]]
    }, 
    {
      "op": "_mul", 
      "name": "_mul137", 
      "inputs": [[732, 0, 0], [739, 0, 0]]
    }, 
    {
      "op": "Dropout", 
      "name": "dropout45", 
      "attr": {"p": "0.2"}, 
      "inputs": [[740, 0, 0]]
    }, 
    {
      "op": "FullyConnected", 
      "name": "t15_l1_i2h", 
      "attr": {"num_hidden": "2048"}, 
      "inputs": [[741, 0, 0], [23, 0, 0], [24, 0, 0]]
    }, 
    {
      "op": "FullyConnected", 
      "name": "t15_l1_h2h", 
      "attr": {"num_hidden": "2048"}, 
      "inputs": [[707, 0, 0], [27, 0, 0], [28, 0, 0]]
    }, 
    {
      "op": "elemwise_add", 
      "name": "_plus92", 
      "inputs": [[742, 0, 0], [743, 0, 0]]
    }, 
    {
      "op": "SliceChannel", 
      "name": "t15_l1_slice", 
      "attr": {"num_outputs": "4"}, 
      "inputs": [[744, 0, 0]]
    }, 
    {
      "op": "Activation", 
      "name": "activation232", 
      "attr": {"act_type": "sigmoid"}, 
      "inputs": [[745, 2, 0]]
    }, 
    {
      "op": "Activation", 
      "name": "activation231", 
      "attr": {"act_type": "sigmoid"}, 
      "inputs": [[745, 1, 0]]
    }, 
    {
      "op": "_mul", 
      "name": "_mul138", 
      "inputs": [[747, 0, 0], [705, 0, 0]]
    }, 
    {
      "op": "Activation", 
      "name": "activation230", 
      "attr": {"act_type": "sigmoid"}, 
      "inputs": [[745, 0, 0]]
    }, 
    {
      "op": "Activation", 
      "name": "activation233", 
      "attr": {"act_type": "tanh"}, 
      "inputs": [[745, 3, 0]]
    }, 
    {
      "op": "_mul", 
      "name": "_mul139", 
      "inputs": [[749, 0, 0], [750, 0, 0]]
    }, 
    {
      "op": "elemwise_add", 
      "name": "_plus93", 
      "inputs": [[748, 0, 0], [751, 0, 0]]
    }, 
    {
      "op": "Activation", 
      "name": "activation234", 
      "attr": {"act_type": "tanh"}, 
      "inputs": [[752, 0, 0]]
    }, 
    {
      "op": "_mul", 
      "name": "_mul140", 
      "inputs": [[746, 0, 0], [753, 0, 0]]
    }, 
    {
      "op": "Dropout", 
      "name": "dropout46", 
      "attr": {"p": "0.2"}, 
      "inputs": [[754, 0, 0]]
    }, 
    {
      "op": "FullyConnected", 
      "name": "t15_l2_i2h", 
      "attr": {"num_hidden": "2048"}, 
      "inputs": [[755, 0, 0], [43, 0, 0], [44, 0, 0]]
    }, 
    {
      "op": "FullyConnected", 
      "name": "t15_l2_h2h", 
      "attr": {"num_hidden": "2048"}, 
      "inputs": [[721, 0, 0], [47, 0, 0], [48, 0, 0]]
    }, 
    {
      "op": "elemwise_add", 
      "name": "_plus94", 
      "inputs": [[756, 0, 0], [757, 0, 0]]
    }, 
    {
      "op": "SliceChannel", 
      "name": "t15_l2_slice", 
      "attr": {"num_outputs": "4"}, 
      "inputs": [[758, 0, 0]]
    }, 
    {
      "op": "Activation", 
      "name": "activation237", 
      "attr": {"act_type": "sigmoid"}, 
      "inputs": [[759, 2, 0]]
    }, 
    {
      "op": "Activation", 
      "name": "activation236", 
      "attr": {"act_type": "sigmoid"}, 
      "inputs": [[759, 1, 0]]
    }, 
    {
      "op": "_mul", 
      "name": "_mul141", 
      "inputs": [[761, 0, 0], [719, 0, 0]]
    }, 
    {
      "op": "Activation", 
      "name": "activation235", 
      "attr": {"act_type": "sigmoid"}, 
      "inputs": [[759, 0, 0]]
    }, 
    {
      "op": "Activation", 
      "name": "activation238", 
      "attr": {"act_type": "tanh"}, 
      "inputs": [[759, 3, 0]]
    }, 
    {
      "op": "_mul", 
      "name": "_mul142", 
      "inputs": [[763, 0, 0], [764, 0, 0]]
    }, 
    {
      "op": "elemwise_add", 
      "name": "_plus95", 
      "inputs": [[762, 0, 0], [765, 0, 0]]
    }, 
    {
      "op": "Activation", 
      "name": "activation239", 
      "attr": {"act_type": "tanh"}, 
      "inputs": [[766, 0, 0]]
    }, 
    {
      "op": "_mul", 
      "name": "_mul143", 
      "inputs": [[760, 0, 0], [767, 0, 0]]
    }, 
    {
      "op": "Dropout", 
      "name": "dropout47", 
      "attr": {"p": "0.2"}, 
      "inputs": [[768, 0, 0]]
    }, 
    {
      "op": "FullyConnected", 
      "name": "fullyconnected15", 
      "attr": {"num_hidden": "84"}, 
      "inputs": [[769, 0, 0], [63, 0, 0], [64, 0, 0]]
    }, 
    {
      "op": "null", 
      "name": "label/15", 
      "inputs": []
    }, 
    {
      "op": "SoftmaxOutput", 
      "name": "t15_sm", 
      "inputs": [[770, 0, 0], [771, 0, 0]]
    }, 
    {
      "op": "null", 
      "name": "data/16", 
      "inputs": []
    }, 
    {
      "op": "Embedding", 
      "name": "t16_embed", 
      "attr": {
        "input_dim": "84", 
        "output_dim": "256"
      }, 
      "inputs": [[773, 0, 0], [1, 0, 0]]
    }, 
    {
      "op": "FullyConnected", 
      "name": "t16_l0_i2h", 
      "attr": {"num_hidden": "2048"}, 
      "inputs": [[774, 0, 0], [3, 0, 0], [4, 0, 0]]
    }, 
    {
      "op": "FullyConnected", 
      "name": "t16_l0_h2h", 
      "attr": {"num_hidden": "2048"}, 
      "inputs": [[740, 0, 0], [7, 0, 0], [8, 0, 0]]
    }, 
    {
      "op": "elemwise_add", 
      "name": "_plus96", 
      "inputs": [[775, 0, 0], [776, 0, 0]]
    }, 
    {
      "op": "SliceChannel", 
      "name": "t16_l0_slice", 
      "attr": {"num_outputs": "4"}, 
      "inputs": [[777, 0, 0]]
    }, 
    {
      "op": "Activation", 
      "name": "activation242", 
      "attr": {"act_type": "sigmoid"}, 
      "inputs": [[778, 2, 0]]
    }, 
    {
      "op": "Activation", 
      "name": "activation241", 
      "attr": {"act_type": "sigmoid"}, 
      "inputs": [[778, 1, 0]]
    }, 
    {
      "op": "_mul", 
      "name": "_mul144", 
      "inputs": [[780, 0, 0], [738, 0, 0]]
    }, 
    {
      "op": "Activation", 
      "name": "activation240", 
      "attr": {"act_type": "sigmoid"}, 
      "inputs": [[778, 0, 0]]
    }, 
    {
      "op": "Activation", 
      "name": "activation243", 
      "attr": {"act_type": "tanh"}, 
      "inputs": [[778, 3, 0]]
    }, 
    {
      "op": "_mul", 
      "name": "_mul145", 
      "inputs": [[782, 0, 0], [783, 0, 0]]
    }, 
    {
      "op": "elemwise_add", 
      "name": "_plus97", 
      "inputs": [[781, 0, 0], [784, 0, 0]]
    }, 
    {
      "op": "Activation", 
      "name": "activation244", 
      "attr": {"act_type": "tanh"}, 
      "inputs": [[785, 0, 0]]
    }, 
    {
      "op": "_mul", 
      "name": "_mul146", 
      "inputs": [[779, 0, 0], [786, 0, 0]]
    }, 
    {
      "op": "Dropout", 
      "name": "dropout48", 
      "attr": {"p": "0.2"}, 
      "inputs": [[787, 0, 0]]
    }, 
    {
      "op": "FullyConnected", 
      "name": "t16_l1_i2h", 
      "attr": {"num_hidden": "2048"}, 
      "inputs": [[788, 0, 0], [23, 0, 0], [24, 0, 0]]
    }, 
    {
      "op": "FullyConnected", 
      "name": "t16_l1_h2h", 
      "attr": {"num_hidden": "2048"}, 
      "inputs": [[754, 0, 0], [27, 0, 0], [28, 0, 0]]
    }, 
    {
      "op": "elemwise_add", 
      "name": "_plus98", 
      "inputs": [[789, 0, 0], [790, 0, 0]]
    }, 
    {
      "op": "SliceChannel", 
      "name": "t16_l1_slice", 
      "attr": {"num_outputs": "4"}, 
      "inputs": [[791, 0, 0]]
    }, 
    {
      "op": "Activation", 
      "name": "activation247", 
      "attr": {"act_type": "sigmoid"}, 
      "inputs": [[792, 2, 0]]
    }, 
    {
      "op": "Activation", 
      "name": "activation246", 
      "attr": {"act_type": "sigmoid"}, 
      "inputs": [[792, 1, 0]]
    }, 
    {
      "op": "_mul", 
      "name": "_mul147", 
      "inputs": [[794, 0, 0], [752, 0, 0]]
    }, 
    {
      "op": "Activation", 
      "name": "activation245", 
      "attr": {"act_type": "sigmoid"}, 
      "inputs": [[792, 0, 0]]
    }, 
    {
      "op": "Activation", 
      "name": "activation248", 
      "attr": {"act_type": "tanh"}, 
      "inputs": [[792, 3, 0]]
    }, 
    {
      "op": "_mul", 
      "name": "_mul148", 
      "inputs": [[796, 0, 0], [797, 0, 0]]
    }, 
    {
      "op": "elemwise_add", 
      "name": "_plus99", 
      "inputs": [[795, 0, 0], [798, 0, 0]]
    }, 
    {
      "op": "Activation", 
      "name": "activation249", 
      "attr": {"act_type": "tanh"}, 
      "inputs": [[799, 0, 0]]
    }, 
    {
      "op": "_mul", 
      "name": "_mul149", 
      "inputs": [[793, 0, 0], [800, 0, 0]]
    }, 
    {
      "op": "Dropout", 
      "name": "dropout49", 
      "attr": {"p": "0.2"}, 
      "inputs": [[801, 0, 0]]
    }, 
    {
      "op": "FullyConnected", 
      "name": "t16_l2_i2h", 
      "attr": {"num_hidden": "2048"}, 
      "inputs": [[802, 0, 0], [43, 0, 0], [44, 0, 0]]
    }, 
    {
      "op": "FullyConnected", 
      "name": "t16_l2_h2h", 
      "attr": {"num_hidden": "2048"}, 
      "inputs": [[768, 0, 0], [47, 0, 0], [48, 0, 0]]
    }, 
    {
      "op": "elemwise_add", 
      "name": "_plus100", 
      "inputs": [[803, 0, 0], [804, 0, 0]]
    }, 
    {
      "op": "SliceChannel", 
      "name": "t16_l2_slice", 
      "attr": {"num_outputs": "4"}, 
      "inputs": [[805, 0, 0]]
    }, 
    {
      "op": "Activation", 
      "name": "activation252", 
      "attr": {"act_type": "sigmoid"}, 
      "inputs": [[806, 2, 0]]
    }, 
    {
      "op": "Activation", 
      "name": "activation251", 
      "attr": {"act_type": "sigmoid"}, 
      "inputs": [[806, 1, 0]]
    }, 
    {
      "op": "_mul", 
      "name": "_mul150", 
      "inputs": [[808, 0, 0], [766, 0, 0]]
    }, 
    {
      "op": "Activation", 
      "name": "activation250", 
      "attr": {"act_type": "sigmoid"}, 
      "inputs": [[806, 0, 0]]
    }, 
    {
      "op": "Activation", 
      "name": "activation253", 
      "attr": {"act_type": "tanh"}, 
      "inputs": [[806, 3, 0]]
    }, 
    {
      "op": "_mul", 
      "name": "_mul151", 
      "inputs": [[810, 0, 0], [811, 0, 0]]
    }, 
    {
      "op": "elemwise_add", 
      "name": "_plus101", 
      "inputs": [[809, 0, 0], [812, 0, 0]]
    }, 
    {
      "op": "Activation", 
      "name": "activation254", 
      "attr": {"act_type": "tanh"}, 
      "inputs": [[813, 0, 0]]
    }, 
    {
      "op": "_mul", 
      "name": "_mul152", 
      "inputs": [[807, 0, 0], [814, 0, 0]]
    }, 
    {
      "op": "Dropout", 
      "name": "dropout50", 
      "attr": {"p": "0.2"}, 
      "inputs": [[815, 0, 0]]
    }, 
    {
      "op": "FullyConnected", 
      "name": "fullyconnected16", 
      "attr": {"num_hidden": "84"}, 
      "inputs": [[816, 0, 0], [63, 0, 0], [64, 0, 0]]
    }, 
    {
      "op": "null", 
      "name": "label/16", 
      "inputs": []
    }, 
    {
      "op": "SoftmaxOutput", 
      "name": "t16_sm", 
      "inputs": [[817, 0, 0], [818, 0, 0]]
    }, 
    {
      "op": "null", 
      "name": "data/17", 
      "inputs": []
    }, 
    {
      "op": "Embedding", 
      "name": "t17_embed", 
      "attr": {
        "input_dim": "84", 
        "output_dim": "256"
      }, 
      "inputs": [[820, 0, 0], [1, 0, 0]]
    }, 
    {
      "op": "FullyConnected", 
      "name": "t17_l0_i2h", 
      "attr": {"num_hidden": "2048"}, 
      "inputs": [[821, 0, 0], [3, 0, 0], [4, 0, 0]]
    }, 
    {
      "op": "FullyConnected", 
      "name": "t17_l0_h2h", 
      "attr": {"num_hidden": "2048"}, 
      "inputs": [[787, 0, 0], [7, 0, 0], [8, 0, 0]]
    }, 
    {
      "op": "elemwise_add", 
      "name": "_plus102", 
      "inputs": [[822, 0, 0], [823, 0, 0]]
    }, 
    {
      "op": "SliceChannel", 
      "name": "t17_l0_slice", 
      "attr": {"num_outputs": "4"}, 
      "inputs": [[824, 0, 0]]
    }, 
    {
      "op": "Activation", 
      "name": "activation257", 
      "attr": {"act_type": "sigmoid"}, 
      "inputs": [[825, 2, 0]]
    }, 
    {
      "op": "Activation", 
      "name": "activation256", 
      "attr": {"act_type": "sigmoid"}, 
      "inputs": [[825, 1, 0]]
    }, 
    {
      "op": "_mul", 
      "name": "_mul153", 
      "inputs": [[827, 0, 0], [785, 0, 0]]
    }, 
    {
      "op": "Activation", 
      "name": "activation255", 
      "attr": {"act_type": "sigmoid"}, 
      "inputs": [[825, 0, 0]]
    }, 
    {
      "op": "Activation", 
      "name": "activation258", 
      "attr": {"act_type": "tanh"}, 
      "inputs": [[825, 3, 0]]
    }, 
    {
      "op": "_mul", 
      "name": "_mul154", 
      "inputs": [[829, 0, 0], [830, 0, 0]]
    }, 
    {
      "op": "elemwise_add", 
      "name": "_plus103", 
      "inputs": [[828, 0, 0], [831, 0, 0]]
    }, 
    {
      "op": "Activation", 
      "name": "activation259", 
      "attr": {"act_type": "tanh"}, 
      "inputs": [[832, 0, 0]]
    }, 
    {
      "op": "_mul", 
      "name": "_mul155", 
      "inputs": [[826, 0, 0], [833, 0, 0]]
    }, 
    {
      "op": "Dropout", 
      "name": "dropout51", 
      "attr": {"p": "0.2"}, 
      "inputs": [[834, 0, 0]]
    }, 
    {
      "op": "FullyConnected", 
      "name": "t17_l1_i2h", 
      "attr": {"num_hidden": "2048"}, 
      "inputs": [[835, 0, 0], [23, 0, 0], [24, 0, 0]]
    }, 
    {
      "op": "FullyConnected", 
      "name": "t17_l1_h2h", 
      "attr": {"num_hidden": "2048"}, 
      "inputs": [[801, 0, 0], [27, 0, 0], [28, 0, 0]]
    }, 
    {
      "op": "elemwise_add", 
      "name": "_plus104", 
      "inputs": [[836, 0, 0], [837, 0, 0]]
    }, 
    {
      "op": "SliceChannel", 
      "name": "t17_l1_slice", 
      "attr": {"num_outputs": "4"}, 
      "inputs": [[838, 0, 0]]
    }, 
    {
      "op": "Activation", 
      "name": "activation262", 
      "attr": {"act_type": "sigmoid"}, 
      "inputs": [[839, 2, 0]]
    }, 
    {
      "op": "Activation", 
      "name": "activation261", 
      "attr": {"act_type": "sigmoid"}, 
      "inputs": [[839, 1, 0]]
    }, 
    {
      "op": "_mul", 
      "name": "_mul156", 
      "inputs": [[841, 0, 0], [799, 0, 0]]
    }, 
    {
      "op": "Activation", 
      "name": "activation260", 
      "attr": {"act_type": "sigmoid"}, 
      "inputs": [[839, 0, 0]]
    }, 
    {
      "op": "Activation", 
      "name": "activation263", 
      "attr": {"act_type": "tanh"}, 
      "inputs": [[839, 3, 0]]
    }, 
    {
      "op": "_mul", 
      "name": "_mul157", 
      "inputs": [[843, 0, 0], [844, 0, 0]]
    }, 
    {
      "op": "elemwise_add", 
      "name": "_plus105", 
      "inputs": [[842, 0, 0], [845, 0, 0]]
    }, 
    {
      "op": "Activation", 
      "name": "activation264", 
      "attr": {"act_type": "tanh"}, 
      "inputs": [[846, 0, 0]]
    }, 
    {
      "op": "_mul", 
      "name": "_mul158", 
      "inputs": [[840, 0, 0], [847, 0, 0]]
    }, 
    {
      "op": "Dropout", 
      "name": "dropout52", 
      "attr": {"p": "0.2"}, 
      "inputs": [[848, 0, 0]]
    }, 
    {
      "op": "FullyConnected", 
      "name": "t17_l2_i2h", 
      "attr": {"num_hidden": "2048"}, 
      "inputs": [[849, 0, 0], [43, 0, 0], [44, 0, 0]]
    }, 
    {
      "op": "FullyConnected", 
      "name": "t17_l2_h2h", 
      "attr": {"num_hidden": "2048"}, 
      "inputs": [[815, 0, 0], [47, 0, 0], [48, 0, 0]]
    }, 
    {
      "op": "elemwise_add", 
      "name": "_plus106", 
      "inputs": [[850, 0, 0], [851, 0, 0]]
    }, 
    {
      "op": "SliceChannel", 
      "name": "t17_l2_slice", 
      "attr": {"num_outputs": "4"}, 
      "inputs": [[852, 0, 0]]
    }, 
    {
      "op": "Activation", 
      "name": "activation267", 
      "attr": {"act_type": "sigmoid"}, 
      "inputs": [[853, 2, 0]]
    }, 
    {
      "op": "Activation", 
      "name": "activation266", 
      "attr": {"act_type": "sigmoid"}, 
      "inputs": [[853, 1, 0]]
    }, 
    {
      "op": "_mul", 
      "name": "_mul159", 
      "inputs": [[855, 0, 0], [813, 0, 0]]
    }, 
    {
      "op": "Activation", 
      "name": "activation265", 
      "attr": {"act_type": "sigmoid"}, 
      "inputs": [[853, 0, 0]]
    }, 
    {
      "op": "Activation", 
      "name": "activation268", 
      "attr": {"act_type": "tanh"}, 
      "inputs": [[853, 3, 0]]
    }, 
    {
      "op": "_mul", 
      "name": "_mul160", 
      "inputs": [[857, 0, 0], [858, 0, 0]]
    }, 
    {
      "op": "elemwise_add", 
      "name": "_plus107", 
      "inputs": [[856, 0, 0], [859, 0, 0]]
    }, 
    {
      "op": "Activation", 
      "name": "activation269", 
      "attr": {"act_type": "tanh"}, 
      "inputs": [[860, 0, 0]]
    }, 
    {
      "op": "_mul", 
      "name": "_mul161", 
      "inputs": [[854, 0, 0], [861, 0, 0]]
    }, 
    {
      "op": "Dropout", 
      "name": "dropout53", 
      "attr": {"p": "0.2"}, 
      "inputs": [[862, 0, 0]]
    }, 
    {
      "op": "FullyConnected", 
      "name": "fullyconnected17", 
      "attr": {"num_hidden": "84"}, 
      "inputs": [[863, 0, 0], [63, 0, 0], [64, 0, 0]]
    }, 
    {
      "op": "null", 
      "name": "label/17", 
      "inputs": []
    }, 
    {
      "op": "SoftmaxOutput", 
      "name": "t17_sm", 
      "inputs": [[864, 0, 0], [865, 0, 0]]
    }, 
    {
      "op": "null", 
      "name": "data/18", 
      "inputs": []
    }, 
    {
      "op": "Embedding", 
      "name": "t18_embed", 
      "attr": {
        "input_dim": "84", 
        "output_dim": "256"
      }, 
      "inputs": [[867, 0, 0], [1, 0, 0]]
    }, 
    {
      "op": "FullyConnected", 
      "name": "t18_l0_i2h", 
      "attr": {"num_hidden": "2048"}, 
      "inputs": [[868, 0, 0], [3, 0, 0], [4, 0, 0]]
    }, 
    {
      "op": "FullyConnected", 
      "name": "t18_l0_h2h", 
      "attr": {"num_hidden": "2048"}, 
      "inputs": [[834, 0, 0], [7, 0, 0], [8, 0, 0]]
    }, 
    {
      "op": "elemwise_add", 
      "name": "_plus108", 
      "inputs": [[869, 0, 0], [870, 0, 0]]
    }, 
    {
      "op": "SliceChannel", 
      "name": "t18_l0_slice", 
      "attr": {"num_outputs": "4"}, 
      "inputs": [[871, 0, 0]]
    }, 
    {
      "op": "Activation", 
      "name": "activation272", 
      "attr": {"act_type": "sigmoid"}, 
      "inputs": [[872, 2, 0]]
    }, 
    {
      "op": "Activation", 
      "name": "activation271", 
      "attr": {"act_type": "sigmoid"}, 
      "inputs": [[872, 1, 0]]
    }, 
    {
      "op": "_mul", 
      "name": "_mul162", 
      "inputs": [[874, 0, 0], [832, 0, 0]]
    }, 
    {
      "op": "Activation", 
      "name": "activation270", 
      "attr": {"act_type": "sigmoid"}, 
      "inputs": [[872, 0, 0]]
    }, 
    {
      "op": "Activation", 
      "name": "activation273", 
      "attr": {"act_type": "tanh"}, 
      "inputs": [[872, 3, 0]]
    }, 
    {
      "op": "_mul", 
      "name": "_mul163", 
      "inputs": [[876, 0, 0], [877, 0, 0]]
    }, 
    {
      "op": "elemwise_add", 
      "name": "_plus109", 
      "inputs": [[875, 0, 0], [878, 0, 0]]
    }, 
    {
      "op": "Activation", 
      "name": "activation274", 
      "attr": {"act_type": "tanh"}, 
      "inputs": [[879, 0, 0]]
    }, 
    {
      "op": "_mul", 
      "name": "_mul164", 
      "inputs": [[873, 0, 0], [880, 0, 0]]
    }, 
    {
      "op": "Dropout", 
      "name": "dropout54", 
      "attr": {"p": "0.2"}, 
      "inputs": [[881, 0, 0]]
    }, 
    {
      "op": "FullyConnected", 
      "name": "t18_l1_i2h", 
      "attr": {"num_hidden": "2048"}, 
      "inputs": [[882, 0, 0], [23, 0, 0], [24, 0, 0]]
    }, 
    {
      "op": "FullyConnected", 
      "name": "t18_l1_h2h", 
      "attr": {"num_hidden": "2048"}, 
      "inputs": [[848, 0, 0], [27, 0, 0], [28, 0, 0]]
    }, 
    {
      "op": "elemwise_add", 
      "name": "_plus110", 
      "inputs": [[883, 0, 0], [884, 0, 0]]
    }, 
    {
      "op": "SliceChannel", 
      "name": "t18_l1_slice", 
      "attr": {"num_outputs": "4"}, 
      "inputs": [[885, 0, 0]]
    }, 
    {
      "op": "Activation", 
      "name": "activation277", 
      "attr": {"act_type": "sigmoid"}, 
      "inputs": [[886, 2, 0]]
    }, 
    {
      "op": "Activation", 
      "name": "activation276", 
      "attr": {"act_type": "sigmoid"}, 
      "inputs": [[886, 1, 0]]
    }, 
    {
      "op": "_mul", 
      "name": "_mul165", 
      "inputs": [[888, 0, 0], [846, 0, 0]]
    }, 
    {
      "op": "Activation", 
      "name": "activation275", 
      "attr": {"act_type": "sigmoid"}, 
      "inputs": [[886, 0, 0]]
    }, 
    {
      "op": "Activation", 
      "name": "activation278", 
      "attr": {"act_type": "tanh"}, 
      "inputs": [[886, 3, 0]]
    }, 
    {
      "op": "_mul", 
      "name": "_mul166", 
      "inputs": [[890, 0, 0], [891, 0, 0]]
    }, 
    {
      "op": "elemwise_add", 
      "name": "_plus111", 
      "inputs": [[889, 0, 0], [892, 0, 0]]
    }, 
    {
      "op": "Activation", 
      "name": "activation279", 
      "attr": {"act_type": "tanh"}, 
      "inputs": [[893, 0, 0]]
    }, 
    {
      "op": "_mul", 
      "name": "_mul167", 
      "inputs": [[887, 0, 0], [894, 0, 0]]
    }, 
    {
      "op": "Dropout", 
      "name": "dropout55", 
      "attr": {"p": "0.2"}, 
      "inputs": [[895, 0, 0]]
    }, 
    {
      "op": "FullyConnected", 
      "name": "t18_l2_i2h", 
      "attr": {"num_hidden": "2048"}, 
      "inputs": [[896, 0, 0], [43, 0, 0], [44, 0, 0]]
    }, 
    {
      "op": "FullyConnected", 
      "name": "t18_l2_h2h", 
      "attr": {"num_hidden": "2048"}, 
      "inputs": [[862, 0, 0], [47, 0, 0], [48, 0, 0]]
    }, 
    {
      "op": "elemwise_add", 
      "name": "_plus112", 
      "inputs": [[897, 0, 0], [898, 0, 0]]
    }, 
    {
      "op": "SliceChannel", 
      "name": "t18_l2_slice", 
      "attr": {"num_outputs": "4"}, 
      "inputs": [[899, 0, 0]]
    }, 
    {
      "op": "Activation", 
      "name": "activation282", 
      "attr": {"act_type": "sigmoid"}, 
      "inputs": [[900, 2, 0]]
    }, 
    {
      "op": "Activation", 
      "name": "activation281", 
      "attr": {"act_type": "sigmoid"}, 
      "inputs": [[900, 1, 0]]
    }, 
    {
      "op": "_mul", 
      "name": "_mul168", 
      "inputs": [[902, 0, 0], [860, 0, 0]]
    }, 
    {
      "op": "Activation", 
      "name": "activation280", 
      "attr": {"act_type": "sigmoid"}, 
      "inputs": [[900, 0, 0]]
    }, 
    {
      "op": "Activation", 
      "name": "activation283", 
      "attr": {"act_type": "tanh"}, 
      "inputs": [[900, 3, 0]]
    }, 
    {
      "op": "_mul", 
      "name": "_mul169", 
      "inputs": [[904, 0, 0], [905, 0, 0]]
    }, 
    {
      "op": "elemwise_add", 
      "name": "_plus113", 
      "inputs": [[903, 0, 0], [906, 0, 0]]
    }, 
    {
      "op": "Activation", 
      "name": "activation284", 
      "attr": {"act_type": "tanh"}, 
      "inputs": [[907, 0, 0]]
    }, 
    {
      "op": "_mul", 
      "name": "_mul170", 
      "inputs": [[901, 0, 0], [908, 0, 0]]
    }, 
    {
      "op": "Dropout", 
      "name": "dropout56", 
      "attr": {"p": "0.2"}, 
      "inputs": [[909, 0, 0]]
    }, 
    {
      "op": "FullyConnected", 
      "name": "fullyconnected18", 
      "attr": {"num_hidden": "84"}, 
      "inputs": [[910, 0, 0], [63, 0, 0], [64, 0, 0]]
    }, 
    {
      "op": "null", 
      "name": "label/18", 
      "inputs": []
    }, 
    {
      "op": "SoftmaxOutput", 
      "name": "t18_sm", 
      "inputs": [[911, 0, 0], [912, 0, 0]]
    }, 
    {
      "op": "null", 
      "name": "data/19", 
      "inputs": []
    }, 
    {
      "op": "Embedding", 
      "name": "t19_embed", 
      "attr": {
        "input_dim": "84", 
        "output_dim": "256"
      }, 
      "inputs": [[914, 0, 0], [1, 0, 0]]
    }, 
    {
      "op": "FullyConnected", 
      "name": "t19_l0_i2h", 
      "attr": {"num_hidden": "2048"}, 
      "inputs": [[915, 0, 0], [3, 0, 0], [4, 0, 0]]
    }, 
    {
      "op": "FullyConnected", 
      "name": "t19_l0_h2h", 
      "attr": {"num_hidden": "2048"}, 
      "inputs": [[881, 0, 0], [7, 0, 0], [8, 0, 0]]
    }, 
    {
      "op": "elemwise_add", 
      "name": "_plus114", 
      "inputs": [[916, 0, 0], [917, 0, 0]]
    }, 
    {
      "op": "SliceChannel", 
      "name": "t19_l0_slice", 
      "attr": {"num_outputs": "4"}, 
      "inputs": [[918, 0, 0]]
    }, 
    {
      "op": "Activation", 
      "name": "activation287", 
      "attr": {"act_type": "sigmoid"}, 
      "inputs": [[919, 2, 0]]
    }, 
    {
      "op": "Activation", 
      "name": "activation286", 
      "attr": {"act_type": "sigmoid"}, 
      "inputs": [[919, 1, 0]]
    }, 
    {
      "op": "_mul", 
      "name": "_mul171", 
      "inputs": [[921, 0, 0], [879, 0, 0]]
    }, 
    {
      "op": "Activation", 
      "name": "activation285", 
      "attr": {"act_type": "sigmoid"}, 
      "inputs": [[919, 0, 0]]
    }, 
    {
      "op": "Activation", 
      "name": "activation288", 
      "attr": {"act_type": "tanh"}, 
      "inputs": [[919, 3, 0]]
    }, 
    {
      "op": "_mul", 
      "name": "_mul172", 
      "inputs": [[923, 0, 0], [924, 0, 0]]
    }, 
    {
      "op": "elemwise_add", 
      "name": "_plus115", 
      "inputs": [[922, 0, 0], [925, 0, 0]]
    }, 
    {
      "op": "Activation", 
      "name": "activation289", 
      "attr": {"act_type": "tanh"}, 
      "inputs": [[926, 0, 0]]
    }, 
    {
      "op": "_mul", 
      "name": "_mul173", 
      "inputs": [[920, 0, 0], [927, 0, 0]]
    }, 
    {
      "op": "Dropout", 
      "name": "dropout57", 
      "attr": {"p": "0.2"}, 
      "inputs": [[928, 0, 0]]
    }, 
    {
      "op": "FullyConnected", 
      "name": "t19_l1_i2h", 
      "attr": {"num_hidden": "2048"}, 
      "inputs": [[929, 0, 0], [23, 0, 0], [24, 0, 0]]
    }, 
    {
      "op": "FullyConnected", 
      "name": "t19_l1_h2h", 
      "attr": {"num_hidden": "2048"}, 
      "inputs": [[895, 0, 0], [27, 0, 0], [28, 0, 0]]
    }, 
    {
      "op": "elemwise_add", 
      "name": "_plus116", 
      "inputs": [[930, 0, 0], [931, 0, 0]]
    }, 
    {
      "op": "SliceChannel", 
      "name": "t19_l1_slice", 
      "attr": {"num_outputs": "4"}, 
      "inputs": [[932, 0, 0]]
    }, 
    {
      "op": "Activation", 
      "name": "activation292", 
      "attr": {"act_type": "sigmoid"}, 
      "inputs": [[933, 2, 0]]
    }, 
    {
      "op": "Activation", 
      "name": "activation291", 
      "attr": {"act_type": "sigmoid"}, 
      "inputs": [[933, 1, 0]]
    }, 
    {
      "op": "_mul", 
      "name": "_mul174", 
      "inputs": [[935, 0, 0], [893, 0, 0]]
    }, 
    {
      "op": "Activation", 
      "name": "activation290", 
      "attr": {"act_type": "sigmoid"}, 
      "inputs": [[933, 0, 0]]
    }, 
    {
      "op": "Activation", 
      "name": "activation293", 
      "attr": {"act_type": "tanh"}, 
      "inputs": [[933, 3, 0]]
    }, 
    {
      "op": "_mul", 
      "name": "_mul175", 
      "inputs": [[937, 0, 0], [938, 0, 0]]
    }, 
    {
      "op": "elemwise_add", 
      "name": "_plus117", 
      "inputs": [[936, 0, 0], [939, 0, 0]]
    }, 
    {
      "op": "Activation", 
      "name": "activation294", 
      "attr": {"act_type": "tanh"}, 
      "inputs": [[940, 0, 0]]
    }, 
    {
      "op": "_mul", 
      "name": "_mul176", 
      "inputs": [[934, 0, 0], [941, 0, 0]]
    }, 
    {
      "op": "Dropout", 
      "name": "dropout58", 
      "attr": {"p": "0.2"}, 
      "inputs": [[942, 0, 0]]
    }, 
    {
      "op": "FullyConnected", 
      "name": "t19_l2_i2h", 
      "attr": {"num_hidden": "2048"}, 
      "inputs": [[943, 0, 0], [43, 0, 0], [44, 0, 0]]
    }, 
    {
      "op": "FullyConnected", 
      "name": "t19_l2_h2h", 
      "attr": {"num_hidden": "2048"}, 
      "inputs": [[909, 0, 0], [47, 0, 0], [48, 0, 0]]
    }, 
    {
      "op": "elemwise_add", 
      "name": "_plus118", 
      "inputs": [[944, 0, 0], [945, 0, 0]]
    }, 
    {
      "op": "SliceChannel", 
      "name": "t19_l2_slice", 
      "attr": {"num_outputs": "4"}, 
      "inputs": [[946, 0, 0]]
    }, 
    {
      "op": "Activation", 
      "name": "activation297", 
      "attr": {"act_type": "sigmoid"}, 
      "inputs": [[947, 2, 0]]
    }, 
    {
      "op": "Activation", 
      "name": "activation296", 
      "attr": {"act_type": "sigmoid"}, 
      "inputs": [[947, 1, 0]]
    }, 
    {
      "op": "_mul", 
      "name": "_mul177", 
      "inputs": [[949, 0, 0], [907, 0, 0]]
    }, 
    {
      "op": "Activation", 
      "name": "activation295", 
      "attr": {"act_type": "sigmoid"}, 
      "inputs": [[947, 0, 0]]
    }, 
    {
      "op": "Activation", 
      "name": "activation298", 
      "attr": {"act_type": "tanh"}, 
      "inputs": [[947, 3, 0]]
    }, 
    {
      "op": "_mul", 
      "name": "_mul178", 
      "inputs": [[951, 0, 0], [952, 0, 0]]
    }, 
    {
      "op": "elemwise_add", 
      "name": "_plus119", 
      "inputs": [[950, 0, 0], [953, 0, 0]]
    }, 
    {
      "op": "Activation", 
      "name": "activation299", 
      "attr": {"act_type": "tanh"}, 
      "inputs": [[954, 0, 0]]
    }, 
    {
      "op": "_mul", 
      "name": "_mul179", 
      "inputs": [[948, 0, 0], [955, 0, 0]]
    }, 
    {
      "op": "Dropout", 
      "name": "dropout59", 
      "attr": {"p": "0.2"}, 
      "inputs": [[956, 0, 0]]
    }, 
    {
      "op": "FullyConnected", 
      "name": "fullyconnected19", 
      "attr": {"num_hidden": "84"}, 
      "inputs": [[957, 0, 0], [63, 0, 0], [64, 0, 0]]
    }, 
    {
      "op": "null", 
      "name": "label/19", 
      "inputs": []
    }, 
    {
      "op": "SoftmaxOutput", 
      "name": "t19_sm", 
      "inputs": [[958, 0, 0], [959, 0, 0]]
    }, 
    {
      "op": "null", 
      "name": "data/20", 
      "inputs": []
    }, 
    {
      "op": "Embedding", 
      "name": "t20_embed", 
      "attr": {
        "input_dim": "84", 
        "output_dim": "256"
      }, 
      "inputs": [[961, 0, 0], [1, 0, 0]]
    }, 
    {
      "op": "FullyConnected", 
      "name": "t20_l0_i2h", 
      "attr": {"num_hidden": "2048"}, 
      "inputs": [[962, 0, 0], [3, 0, 0], [4, 0, 0]]
    }, 
    {
      "op": "FullyConnected", 
      "name": "t20_l0_h2h", 
      "attr": {"num_hidden": "2048"}, 
      "inputs": [[928, 0, 0], [7, 0, 0], [8, 0, 0]]
    }, 
    {
      "op": "elemwise_add", 
      "name": "_plus120", 
      "inputs": [[963, 0, 0], [964, 0, 0]]
    }, 
    {
      "op": "SliceChannel", 
      "name": "t20_l0_slice", 
      "attr": {"num_outputs": "4"}, 
      "inputs": [[965, 0, 0]]
    }, 
    {
      "op": "Activation", 
      "name": "activation302", 
      "attr": {"act_type": "sigmoid"}, 
      "inputs": [[966, 2, 0]]
    }, 
    {
      "op": "Activation", 
      "name": "activation301", 
      "attr": {"act_type": "sigmoid"}, 
      "inputs": [[966, 1, 0]]
    }, 
    {
      "op": "_mul", 
      "name": "_mul180", 
      "inputs": [[968, 0, 0], [926, 0, 0]]
    }, 
    {
      "op": "Activation", 
      "name": "activation300", 
      "attr": {"act_type": "sigmoid"}, 
      "inputs": [[966, 0, 0]]
    }, 
    {
      "op": "Activation", 
      "name": "activation303", 
      "attr": {"act_type": "tanh"}, 
      "inputs": [[966, 3, 0]]
    }, 
    {
      "op": "_mul", 
      "name": "_mul181", 
      "inputs": [[970, 0, 0], [971, 0, 0]]
    }, 
    {
      "op": "elemwise_add", 
      "name": "_plus121", 
      "inputs": [[969, 0, 0], [972, 0, 0]]
    }, 
    {
      "op": "Activation", 
      "name": "activation304", 
      "attr": {"act_type": "tanh"}, 
      "inputs": [[973, 0, 0]]
    }, 
    {
      "op": "_mul", 
      "name": "_mul182", 
      "inputs": [[967, 0, 0], [974, 0, 0]]
    }, 
    {
      "op": "Dropout", 
      "name": "dropout60", 
      "attr": {"p": "0.2"}, 
      "inputs": [[975, 0, 0]]
    }, 
    {
      "op": "FullyConnected", 
      "name": "t20_l1_i2h", 
      "attr": {"num_hidden": "2048"}, 
      "inputs": [[976, 0, 0], [23, 0, 0], [24, 0, 0]]
    }, 
    {
      "op": "FullyConnected", 
      "name": "t20_l1_h2h", 
      "attr": {"num_hidden": "2048"}, 
      "inputs": [[942, 0, 0], [27, 0, 0], [28, 0, 0]]
    }, 
    {
      "op": "elemwise_add", 
      "name": "_plus122", 
      "inputs": [[977, 0, 0], [978, 0, 0]]
    }, 
    {
      "op": "SliceChannel", 
      "name": "t20_l1_slice", 
      "attr": {"num_outputs": "4"}, 
      "inputs": [[979, 0, 0]]
    }, 
    {
      "op": "Activation", 
      "name": "activation307", 
      "attr": {"act_type": "sigmoid"}, 
      "inputs": [[980, 2, 0]]
    }, 
    {
      "op": "Activation", 
      "name": "activation306", 
      "attr": {"act_type": "sigmoid"}, 
      "inputs": [[980, 1, 0]]
    }, 
    {
      "op": "_mul", 
      "name": "_mul183", 
      "inputs": [[982, 0, 0], [940, 0, 0]]
    }, 
    {
      "op": "Activation", 
      "name": "activation305", 
      "attr": {"act_type": "sigmoid"}, 
      "inputs": [[980, 0, 0]]
    }, 
    {
      "op": "Activation", 
      "name": "activation308", 
      "attr": {"act_type": "tanh"}, 
      "inputs": [[980, 3, 0]]
    }, 
    {
      "op": "_mul", 
      "name": "_mul184", 
      "inputs": [[984, 0, 0], [985, 0, 0]]
    }, 
    {
      "op": "elemwise_add", 
      "name": "_plus123", 
      "inputs": [[983, 0, 0], [986, 0, 0]]
    }, 
    {
      "op": "Activation", 
      "name": "activation309", 
      "attr": {"act_type": "tanh"}, 
      "inputs": [[987, 0, 0]]
    }, 
    {
      "op": "_mul", 
      "name": "_mul185", 
      "inputs": [[981, 0, 0], [988, 0, 0]]
    }, 
    {
      "op": "Dropout", 
      "name": "dropout61", 
      "attr": {"p": "0.2"}, 
      "inputs": [[989, 0, 0]]
    }, 
    {
      "op": "FullyConnected", 
      "name": "t20_l2_i2h", 
      "attr": {"num_hidden": "2048"}, 
      "inputs": [[990, 0, 0], [43, 0, 0], [44, 0, 0]]
    }, 
    {
      "op": "FullyConnected", 
      "name": "t20_l2_h2h", 
      "attr": {"num_hidden": "2048"}, 
      "inputs": [[956, 0, 0], [47, 0, 0], [48, 0, 0]]
    }, 
    {
      "op": "elemwise_add", 
      "name": "_plus124", 
      "inputs": [[991, 0, 0], [992, 0, 0]]
    }, 
    {
      "op": "SliceChannel", 
      "name": "t20_l2_slice", 
      "attr": {"num_outputs": "4"}, 
      "inputs": [[993, 0, 0]]
    }, 
    {
      "op": "Activation", 
      "name": "activation312", 
      "attr": {"act_type": "sigmoid"}, 
      "inputs": [[994, 2, 0]]
    }, 
    {
      "op": "Activation", 
      "name": "activation311", 
      "attr": {"act_type": "sigmoid"}, 
      "inputs": [[994, 1, 0]]
    }, 
    {
      "op": "_mul", 
      "name": "_mul186", 
      "inputs": [[996, 0, 0], [954, 0, 0]]
    }, 
    {
      "op": "Activation", 
      "name": "activation310", 
      "attr": {"act_type": "sigmoid"}, 
      "inputs": [[994, 0, 0]]
    }, 
    {
      "op": "Activation", 
      "name": "activation313", 
      "attr": {"act_type": "tanh"}, 
      "inputs": [[994, 3, 0]]
    }, 
    {
      "op": "_mul", 
      "name": "_mul187", 
      "inputs": [[998, 0, 0], [999, 0, 0]]
    }, 
    {
      "op": "elemwise_add", 
      "name": "_plus125", 
      "inputs": [[997, 0, 0], [1000, 0, 0]]
    }, 
    {
      "op": "Activation", 
      "name": "activation314", 
      "attr": {"act_type": "tanh"}, 
      "inputs": [[1001, 0, 0]]
    }, 
    {
      "op": "_mul", 
      "name": "_mul188", 
      "inputs": [[995, 0, 0], [1002, 0, 0]]
    }, 
    {
      "op": "Dropout", 
      "name": "dropout62", 
      "attr": {"p": "0.2"}, 
      "inputs": [[1003, 0, 0]]
    }, 
    {
      "op": "FullyConnected", 
      "name": "fullyconnected20", 
      "attr": {"num_hidden": "84"}, 
      "inputs": [[1004, 0, 0], [63, 0, 0], [64, 0, 0]]
    }, 
    {
      "op": "null", 
      "name": "label/20", 
      "inputs": []
    }, 
    {
      "op": "SoftmaxOutput", 
      "name": "t20_sm", 
      "inputs": [[1005, 0, 0], [1006, 0, 0]]
    }, 
    {
      "op": "null", 
      "name": "data/21", 
      "inputs": []
    }, 
    {
      "op": "Embedding", 
      "name": "t21_embed", 
      "attr": {
        "input_dim": "84", 
        "output_dim": "256"
      }, 
      "inputs": [[1008, 0, 0], [1, 0, 0]]
    }, 
    {
      "op": "FullyConnected", 
      "name": "t21_l0_i2h", 
      "attr": {"num_hidden": "2048"}, 
      "inputs": [[1009, 0, 0], [3, 0, 0], [4, 0, 0]]
    }, 
    {
      "op": "FullyConnected", 
      "name": "t21_l0_h2h", 
      "attr": {"num_hidden": "2048"}, 
      "inputs": [[975, 0, 0], [7, 0, 0], [8, 0, 0]]
    }, 
    {
      "op": "elemwise_add", 
      "name": "_plus126", 
      "inputs": [[1010, 0, 0], [1011, 0, 0]]
    }, 
    {
      "op": "SliceChannel", 
      "name": "t21_l0_slice", 
      "attr": {"num_outputs": "4"}, 
      "inputs": [[1012, 0, 0]]
    }, 
    {
      "op": "Activation", 
      "name": "activation317", 
      "attr": {"act_type": "sigmoid"}, 
      "inputs": [[1013, 2, 0]]
    }, 
    {
      "op": "Activation", 
      "name": "activation316", 
      "attr": {"act_type": "sigmoid"}, 
      "inputs": [[1013, 1, 0]]
    }, 
    {
      "op": "_mul", 
      "name": "_mul189", 
      "inputs": [[1015, 0, 0], [973, 0, 0]]
    }, 
    {
      "op": "Activation", 
      "name": "activation315", 
      "attr": {"act_type": "sigmoid"}, 
      "inputs": [[1013, 0, 0]]
    }, 
    {
      "op": "Activation", 
      "name": "activation318", 
      "attr": {"act_type": "tanh"}, 
      "inputs": [[1013, 3, 0]]
    }, 
    {
      "op": "_mul", 
      "name": "_mul190", 
      "inputs": [[1017, 0, 0], [1018, 0, 0]]
    }, 
    {
      "op": "elemwise_add", 
      "name": "_plus127", 
      "inputs": [[1016, 0, 0], [1019, 0, 0]]
    }, 
    {
      "op": "Activation", 
      "name": "activation319", 
      "attr": {"act_type": "tanh"}, 
      "inputs": [[1020, 0, 0]]
    }, 
    {
      "op": "_mul", 
      "name": "_mul191", 
      "inputs": [[1014, 0, 0], [1021, 0, 0]]
    }, 
    {
      "op": "Dropout", 
      "name": "dropout63", 
      "attr": {"p": "0.2"}, 
      "inputs": [[1022, 0, 0]]
    }, 
    {
      "op": "FullyConnected", 
      "name": "t21_l1_i2h", 
      "attr": {"num_hidden": "2048"}, 
      "inputs": [[1023, 0, 0], [23, 0, 0], [24, 0, 0]]
    }, 
    {
      "op": "FullyConnected", 
      "name": "t21_l1_h2h", 
      "attr": {"num_hidden": "2048"}, 
      "inputs": [[989, 0, 0], [27, 0, 0], [28, 0, 0]]
    }, 
    {
      "op": "elemwise_add", 
      "name": "_plus128", 
      "inputs": [[1024, 0, 0], [1025, 0, 0]]
    }, 
    {
      "op": "SliceChannel", 
      "name": "t21_l1_slice", 
      "attr": {"num_outputs": "4"}, 
      "inputs": [[1026, 0, 0]]
    }, 
    {
      "op": "Activation", 
      "name": "activation322", 
      "attr": {"act_type": "sigmoid"}, 
      "inputs": [[1027, 2, 0]]
    }, 
    {
      "op": "Activation", 
      "name": "activation321", 
      "attr": {"act_type": "sigmoid"}, 
      "inputs": [[1027, 1, 0]]
    }, 
    {
      "op": "_mul", 
      "name": "_mul192", 
      "inputs": [[1029, 0, 0], [987, 0, 0]]
    }, 
    {
      "op": "Activation", 
      "name": "activation320", 
      "attr": {"act_type": "sigmoid"}, 
      "inputs": [[1027, 0, 0]]
    }, 
    {
      "op": "Activation", 
      "name": "activation323", 
      "attr": {"act_type": "tanh"}, 
      "inputs": [[1027, 3, 0]]
    }, 
    {
      "op": "_mul", 
      "name": "_mul193", 
      "inputs": [[1031, 0, 0], [1032, 0, 0]]
    }, 
    {
      "op": "elemwise_add", 
      "name": "_plus129", 
      "inputs": [[1030, 0, 0], [1033, 0, 0]]
    }, 
    {
      "op": "Activation", 
      "name": "activation324", 
      "attr": {"act_type": "tanh"}, 
      "inputs": [[1034, 0, 0]]
    }, 
    {
      "op": "_mul", 
      "name": "_mul194", 
      "inputs": [[1028, 0, 0], [1035, 0, 0]]
    }, 
    {
      "op": "Dropout", 
      "name": "dropout64", 
      "attr": {"p": "0.2"}, 
      "inputs": [[1036, 0, 0]]
    }, 
    {
      "op": "FullyConnected", 
      "name": "t21_l2_i2h", 
      "attr": {"num_hidden": "2048"}, 
      "inputs": [[1037, 0, 0], [43, 0, 0], [44, 0, 0]]
    }, 
    {
      "op": "FullyConnected", 
      "name": "t21_l2_h2h", 
      "attr": {"num_hidden": "2048"}, 
      "inputs": [[1003, 0, 0], [47, 0, 0], [48, 0, 0]]
    }, 
    {
      "op": "elemwise_add", 
      "name": "_plus130", 
      "inputs": [[1038, 0, 0], [1039, 0, 0]]
    }, 
    {
      "op": "SliceChannel", 
      "name": "t21_l2_slice", 
      "attr": {"num_outputs": "4"}, 
      "inputs": [[1040, 0, 0]]
    }, 
    {
      "op": "Activation", 
      "name": "activation327", 
      "attr": {"act_type": "sigmoid"}, 
      "inputs": [[1041, 2, 0]]
    }, 
    {
      "op": "Activation", 
      "name": "activation326", 
      "attr": {"act_type": "sigmoid"}, 
      "inputs": [[1041, 1, 0]]
    }, 
    {
      "op": "_mul", 
      "name": "_mul195", 
      "inputs": [[1043, 0, 0], [1001, 0, 0]]
    }, 
    {
      "op": "Activation", 
      "name": "activation325", 
      "attr": {"act_type": "sigmoid"}, 
      "inputs": [[1041, 0, 0]]
    }, 
    {
      "op": "Activation", 
      "name": "activation328", 
      "attr": {"act_type": "tanh"}, 
      "inputs": [[1041, 3, 0]]
    }, 
    {
      "op": "_mul", 
      "name": "_mul196", 
      "inputs": [[1045, 0, 0], [1046, 0, 0]]
    }, 
    {
      "op": "elemwise_add", 
      "name": "_plus131", 
      "inputs": [[1044, 0, 0], [1047, 0, 0]]
    }, 
    {
      "op": "Activation", 
      "name": "activation329", 
      "attr": {"act_type": "tanh"}, 
      "inputs": [[1048, 0, 0]]
    }, 
    {
      "op": "_mul", 
      "name": "_mul197", 
      "inputs": [[1042, 0, 0], [1049, 0, 0]]
    }, 
    {
      "op": "Dropout", 
      "name": "dropout65", 
      "attr": {"p": "0.2"}, 
      "inputs": [[1050, 0, 0]]
    }, 
    {
      "op": "FullyConnected", 
      "name": "fullyconnected21", 
      "attr": {"num_hidden": "84"}, 
      "inputs": [[1051, 0, 0], [63, 0, 0], [64, 0, 0]]
    }, 
    {
      "op": "null", 
      "name": "label/21", 
      "inputs": []
    }, 
    {
      "op": "SoftmaxOutput", 
      "name": "t21_sm", 
      "inputs": [[1052, 0, 0], [1053, 0, 0]]
    }, 
    {
      "op": "null", 
      "name": "data/22", 
      "inputs": []
    }, 
    {
      "op": "Embedding", 
      "name": "t22_embed", 
      "attr": {
        "input_dim": "84", 
        "output_dim": "256"
      }, 
      "inputs": [[1055, 0, 0], [1, 0, 0]]
    }, 
    {
      "op": "FullyConnected", 
      "name": "t22_l0_i2h", 
      "attr": {"num_hidden": "2048"}, 
      "inputs": [[1056, 0, 0], [3, 0, 0], [4, 0, 0]]
    }, 
    {
      "op": "FullyConnected", 
      "name": "t22_l0_h2h", 
      "attr": {"num_hidden": "2048"}, 
      "inputs": [[1022, 0, 0], [7, 0, 0], [8, 0, 0]]
    }, 
    {
      "op": "elemwise_add", 
      "name": "_plus132", 
      "inputs": [[1057, 0, 0], [1058, 0, 0]]
    }, 
    {
      "op": "SliceChannel", 
      "name": "t22_l0_slice", 
      "attr": {"num_outputs": "4"}, 
      "inputs": [[1059, 0, 0]]
    }, 
    {
      "op": "Activation", 
      "name": "activation332", 
      "attr": {"act_type": "sigmoid"}, 
      "inputs": [[1060, 2, 0]]
    }, 
    {
      "op": "Activation", 
      "name": "activation331", 
      "attr": {"act_type": "sigmoid"}, 
      "inputs": [[1060, 1, 0]]
    }, 
    {
      "op": "_mul", 
      "name": "_mul198", 
      "inputs": [[1062, 0, 0], [1020, 0, 0]]
    }, 
    {
      "op": "Activation", 
      "name": "activation330", 
      "attr": {"act_type": "sigmoid"}, 
      "inputs": [[1060, 0, 0]]
    }, 
    {
      "op": "Activation", 
      "name": "activation333", 
      "attr": {"act_type": "tanh"}, 
      "inputs": [[1060, 3, 0]]
    }, 
    {
      "op": "_mul", 
      "name": "_mul199", 
      "inputs": [[1064, 0, 0], [1065, 0, 0]]
    }, 
    {
      "op": "elemwise_add", 
      "name": "_plus133", 
      "inputs": [[1063, 0, 0], [1066, 0, 0]]
    }, 
    {
      "op": "Activation", 
      "name": "activation334", 
      "attr": {"act_type": "tanh"}, 
      "inputs": [[1067, 0, 0]]
    }, 
    {
      "op": "_mul", 
      "name": "_mul200", 
      "inputs": [[1061, 0, 0], [1068, 0, 0]]
    }, 
    {
      "op": "Dropout", 
      "name": "dropout66", 
      "attr": {"p": "0.2"}, 
      "inputs": [[1069, 0, 0]]
    }, 
    {
      "op": "FullyConnected", 
      "name": "t22_l1_i2h", 
      "attr": {"num_hidden": "2048"}, 
      "inputs": [[1070, 0, 0], [23, 0, 0], [24, 0, 0]]
    }, 
    {
      "op": "FullyConnected", 
      "name": "t22_l1_h2h", 
      "attr": {"num_hidden": "2048"}, 
      "inputs": [[1036, 0, 0], [27, 0, 0], [28, 0, 0]]
    }, 
    {
      "op": "elemwise_add", 
      "name": "_plus134", 
      "inputs": [[1071, 0, 0], [1072, 0, 0]]
    }, 
    {
      "op": "SliceChannel", 
      "name": "t22_l1_slice", 
      "attr": {"num_outputs": "4"}, 
      "inputs": [[1073, 0, 0]]
    }, 
    {
      "op": "Activation", 
      "name": "activation337", 
      "attr": {"act_type": "sigmoid"}, 
      "inputs": [[1074, 2, 0]]
    }, 
    {
      "op": "Activation", 
      "name": "activation336", 
      "attr": {"act_type": "sigmoid"}, 
      "inputs": [[1074, 1, 0]]
    }, 
    {
      "op": "_mul", 
      "name": "_mul201", 
      "inputs": [[1076, 0, 0], [1034, 0, 0]]
    }, 
    {
      "op": "Activation", 
      "name": "activation335", 
      "attr": {"act_type": "sigmoid"}, 
      "inputs": [[1074, 0, 0]]
    }, 
    {
      "op": "Activation", 
      "name": "activation338", 
      "attr": {"act_type": "tanh"}, 
      "inputs": [[1074, 3, 0]]
    }, 
    {
      "op": "_mul", 
      "name": "_mul202", 
      "inputs": [[1078, 0, 0], [1079, 0, 0]]
    }, 
    {
      "op": "elemwise_add", 
      "name": "_plus135", 
      "inputs": [[1077, 0, 0], [1080, 0, 0]]
    }, 
    {
      "op": "Activation", 
      "name": "activation339", 
      "attr": {"act_type": "tanh"}, 
      "inputs": [[1081, 0, 0]]
    }, 
    {
      "op": "_mul", 
      "name": "_mul203", 
      "inputs": [[1075, 0, 0], [1082, 0, 0]]
    }, 
    {
      "op": "Dropout", 
      "name": "dropout67", 
      "attr": {"p": "0.2"}, 
      "inputs": [[1083, 0, 0]]
    }, 
    {
      "op": "FullyConnected", 
      "name": "t22_l2_i2h", 
      "attr": {"num_hidden": "2048"}, 
      "inputs": [[1084, 0, 0], [43, 0, 0], [44, 0, 0]]
    }, 
    {
      "op": "FullyConnected", 
      "name": "t22_l2_h2h", 
      "attr": {"num_hidden": "2048"}, 
      "inputs": [[1050, 0, 0], [47, 0, 0], [48, 0, 0]]
    }, 
    {
      "op": "elemwise_add", 
      "name": "_plus136", 
      "inputs": [[1085, 0, 0], [1086, 0, 0]]
    }, 
    {
      "op": "SliceChannel", 
      "name": "t22_l2_slice", 
      "attr": {"num_outputs": "4"}, 
      "inputs": [[1087, 0, 0]]
    }, 
    {
      "op": "Activation", 
      "name": "activation342", 
      "attr": {"act_type": "sigmoid"}, 
      "inputs": [[1088, 2, 0]]
    }, 
    {
      "op": "Activation", 
      "name": "activation341", 
      "attr": {"act_type": "sigmoid"}, 
      "inputs": [[1088, 1, 0]]
    }, 
    {
      "op": "_mul", 
      "name": "_mul204", 
      "inputs": [[1090, 0, 0], [1048, 0, 0]]
    }, 
    {
      "op": "Activation", 
      "name": "activation340", 
      "attr": {"act_type": "sigmoid"}, 
      "inputs": [[1088, 0, 0]]
    }, 
    {
      "op": "Activation", 
      "name": "activation343", 
      "attr": {"act_type": "tanh"}, 
      "inputs": [[1088, 3, 0]]
    }, 
    {
      "op": "_mul", 
      "name": "_mul205", 
      "inputs": [[1092, 0, 0], [1093, 0, 0]]
    }, 
    {
      "op": "elemwise_add", 
      "name": "_plus137", 
      "inputs": [[1091, 0, 0], [1094, 0, 0]]
    }, 
    {
      "op": "Activation", 
      "name": "activation344", 
      "attr": {"act_type": "tanh"}, 
      "inputs": [[1095, 0, 0]]
    }, 
    {
      "op": "_mul", 
      "name": "_mul206", 
      "inputs": [[1089, 0, 0], [1096, 0, 0]]
    }, 
    {
      "op": "Dropout", 
      "name": "dropout68", 
      "attr": {"p": "0.2"}, 
      "inputs": [[1097, 0, 0]]
    }, 
    {
      "op": "FullyConnected", 
      "name": "fullyconnected22", 
      "attr": {"num_hidden": "84"}, 
      "inputs": [[1098, 0, 0], [63, 0, 0], [64, 0, 0]]
    }, 
    {
      "op": "null", 
      "name": "label/22", 
      "inputs": []
    }, 
    {
      "op": "SoftmaxOutput", 
      "name": "t22_sm", 
      "inputs": [[1099, 0, 0], [1100, 0, 0]]
    }, 
    {
      "op": "null", 
      "name": "data/23", 
      "inputs": []
    }, 
    {
      "op": "Embedding", 
      "name": "t23_embed", 
      "attr": {
        "input_dim": "84", 
        "output_dim": "256"
      }, 
      "inputs": [[1102, 0, 0], [1, 0, 0]]
    }, 
    {
      "op": "FullyConnected", 
      "name": "t23_l0_i2h", 
      "attr": {"num_hidden": "2048"}, 
      "inputs": [[1103, 0, 0], [3, 0, 0], [4, 0, 0]]
    }, 
    {
      "op": "FullyConnected", 
      "name": "t23_l0_h2h", 
      "attr": {"num_hidden": "2048"}, 
      "inputs": [[1069, 0, 0], [7, 0, 0], [8, 0, 0]]
    }, 
    {
      "op": "elemwise_add", 
      "name": "_plus138", 
      "inputs": [[1104, 0, 0], [1105, 0, 0]]
    }, 
    {
      "op": "SliceChannel", 
      "name": "t23_l0_slice", 
      "attr": {"num_outputs": "4"}, 
      "inputs": [[1106, 0, 0]]
    }, 
    {
      "op": "Activation", 
      "name": "activation347", 
      "attr": {"act_type": "sigmoid"}, 
      "inputs": [[1107, 2, 0]]
    }, 
    {
      "op": "Activation", 
      "name": "activation346", 
      "attr": {"act_type": "sigmoid"}, 
      "inputs": [[1107, 1, 0]]
    }, 
    {
      "op": "_mul", 
      "name": "_mul207", 
      "inputs": [[1109, 0, 0], [1067, 0, 0]]
    }, 
    {
      "op": "Activation", 
      "name": "activation345", 
      "attr": {"act_type": "sigmoid"}, 
      "inputs": [[1107, 0, 0]]
    }, 
    {
      "op": "Activation", 
      "name": "activation348", 
      "attr": {"act_type": "tanh"}, 
      "inputs": [[1107, 3, 0]]
    }, 
    {
      "op": "_mul", 
      "name": "_mul208", 
      "inputs": [[1111, 0, 0], [1112, 0, 0]]
    }, 
    {
      "op": "elemwise_add", 
      "name": "_plus139", 
      "inputs": [[1110, 0, 0], [1113, 0, 0]]
    }, 
    {
      "op": "Activation", 
      "name": "activation349", 
      "attr": {"act_type": "tanh"}, 
      "inputs": [[1114, 0, 0]]
    }, 
    {
      "op": "_mul", 
      "name": "_mul209", 
      "inputs": [[1108, 0, 0], [1115, 0, 0]]
    }, 
    {
      "op": "Dropout", 
      "name": "dropout69", 
      "attr": {"p": "0.2"}, 
      "inputs": [[1116, 0, 0]]
    }, 
    {
      "op": "FullyConnected", 
      "name": "t23_l1_i2h", 
      "attr": {"num_hidden": "2048"}, 
      "inputs": [[1117, 0, 0], [23, 0, 0], [24, 0, 0]]
    }, 
    {
      "op": "FullyConnected", 
      "name": "t23_l1_h2h", 
      "attr": {"num_hidden": "2048"}, 
      "inputs": [[1083, 0, 0], [27, 0, 0], [28, 0, 0]]
    }, 
    {
      "op": "elemwise_add", 
      "name": "_plus140", 
      "inputs": [[1118, 0, 0], [1119, 0, 0]]
    }, 
    {
      "op": "SliceChannel", 
      "name": "t23_l1_slice", 
      "attr": {"num_outputs": "4"}, 
      "inputs": [[1120, 0, 0]]
    }, 
    {
      "op": "Activation", 
      "name": "activation352", 
      "attr": {"act_type": "sigmoid"}, 
      "inputs": [[1121, 2, 0]]
    }, 
    {
      "op": "Activation", 
      "name": "activation351", 
      "attr": {"act_type": "sigmoid"}, 
      "inputs": [[1121, 1, 0]]
    }, 
    {
      "op": "_mul", 
      "name": "_mul210", 
      "inputs": [[1123, 0, 0], [1081, 0, 0]]
    }, 
    {
      "op": "Activation", 
      "name": "activation350", 
      "attr": {"act_type": "sigmoid"}, 
      "inputs": [[1121, 0, 0]]
    }, 
    {
      "op": "Activation", 
      "name": "activation353", 
      "attr": {"act_type": "tanh"}, 
      "inputs": [[1121, 3, 0]]
    }, 
    {
      "op": "_mul", 
      "name": "_mul211", 
      "inputs": [[1125, 0, 0], [1126, 0, 0]]
    }, 
    {
      "op": "elemwise_add", 
      "name": "_plus141", 
      "inputs": [[1124, 0, 0], [1127, 0, 0]]
    }, 
    {
      "op": "Activation", 
      "name": "activation354", 
      "attr": {"act_type": "tanh"}, 
      "inputs": [[1128, 0, 0]]
    }, 
    {
      "op": "_mul", 
      "name": "_mul212", 
      "inputs": [[1122, 0, 0], [1129, 0, 0]]
    }, 
    {
      "op": "Dropout", 
      "name": "dropout70", 
      "attr": {"p": "0.2"}, 
      "inputs": [[1130, 0, 0]]
    }, 
    {
      "op": "FullyConnected", 
      "name": "t23_l2_i2h", 
      "attr": {"num_hidden": "2048"}, 
      "inputs": [[1131, 0, 0], [43, 0, 0], [44, 0, 0]]
    }, 
    {
      "op": "FullyConnected", 
      "name": "t23_l2_h2h", 
      "attr": {"num_hidden": "2048"}, 
      "inputs": [[1097, 0, 0], [47, 0, 0], [48, 0, 0]]
    }, 
    {
      "op": "elemwise_add", 
      "name": "_plus142", 
      "inputs": [[1132, 0, 0], [1133, 0, 0]]
    }, 
    {
      "op": "SliceChannel", 
      "name": "t23_l2_slice", 
      "attr": {"num_outputs": "4"}, 
      "inputs": [[1134, 0, 0]]
    }, 
    {
      "op": "Activation", 
      "name": "activation357", 
      "attr": {"act_type": "sigmoid"}, 
      "inputs": [[1135, 2, 0]]
    }, 
    {
      "op": "Activation", 
      "name": "activation356", 
      "attr": {"act_type": "sigmoid"}, 
      "inputs": [[1135, 1, 0]]
    }, 
    {
      "op": "_mul", 
      "name": "_mul213", 
      "inputs": [[1137, 0, 0], [1095, 0, 0]]
    }, 
    {
      "op": "Activation", 
      "name": "activation355", 
      "attr": {"act_type": "sigmoid"}, 
      "inputs": [[1135, 0, 0]]
    }, 
    {
      "op": "Activation", 
      "name": "activation358", 
      "attr": {"act_type": "tanh"}, 
      "inputs": [[1135, 3, 0]]
    }, 
    {
      "op": "_mul", 
      "name": "_mul214", 
      "inputs": [[1139, 0, 0], [1140, 0, 0]]
    }, 
    {
      "op": "elemwise_add", 
      "name": "_plus143", 
      "inputs": [[1138, 0, 0], [1141, 0, 0]]
    }, 
    {
      "op": "Activation", 
      "name": "activation359", 
      "attr": {"act_type": "tanh"}, 
      "inputs": [[1142, 0, 0]]
    }, 
    {
      "op": "_mul", 
      "name": "_mul215", 
      "inputs": [[1136, 0, 0], [1143, 0, 0]]
    }, 
    {
      "op": "Dropout", 
      "name": "dropout71", 
      "attr": {"p": "0.2"}, 
      "inputs": [[1144, 0, 0]]
    }, 
    {
      "op": "FullyConnected", 
      "name": "fullyconnected23", 
      "attr": {"num_hidden": "84"}, 
      "inputs": [[1145, 0, 0], [63, 0, 0], [64, 0, 0]]
    }, 
    {
      "op": "null", 
      "name": "label/23", 
      "inputs": []
    }, 
    {
      "op": "SoftmaxOutput", 
      "name": "t23_sm", 
      "inputs": [[1146, 0, 0], [1147, 0, 0]]
    }, 
    {
      "op": "null", 
      "name": "data/24", 
      "inputs": []
    }, 
    {
      "op": "Embedding", 
      "name": "t24_embed", 
      "attr": {
        "input_dim": "84", 
        "output_dim": "256"
      }, 
      "inputs": [[1149, 0, 0], [1, 0, 0]]
    }, 
    {
      "op": "FullyConnected", 
      "name": "t24_l0_i2h", 
      "attr": {"num_hidden": "2048"}, 
      "inputs": [[1150, 0, 0], [3, 0, 0], [4, 0, 0]]
    }, 
    {
      "op": "FullyConnected", 
      "name": "t24_l0_h2h", 
…
    2213, 
    2214, 
    2215, 
    2216, 
    2217, 
    2218, 
    2219, 
    2220, 
    2221, 
    2222, 
    2224, 
    2225, 
    2226, 
    2227, 
    2231, 
    2232, 
    2233, 
    2234, 
    2235, 
    2236, 
    2237, 
    2238, 
    2239, 
    2240, 
    2242, 
    2243, 
    2244, 
    2245, 
    2249, 
    2250, 
    2251, 
    2252, 
    2253, 
    2254, 
    2255, 
    2256, 
    2257, 
    2258, 
    2260, 
    2261, 
    2262, 
    2263, 
    2264, 
    2265, 
    2266, 
    2267, 
    2268, 
    2272, 
    2273, 
    2274, 
    2275, 
    2276, 
    2277, 
    2278, 
    2279, 
    2280, 
    2281, 
    2283, 
    2284, 
    2285, 
    2286, 
    2290, 
    2291, 
    2292, 
    2293, 
    2294, 
    2295, 
    2296, 
    2297, 
    2298, 
    2299, 
    2301, 
    2302, 
    2303, 
    2304, 
    2308, 
    2309, 
    2310, 
    2311, 
    2312, 
    2313, 
    2314, 
    2315, 
    2316, 
    2317, 
    2319, 
    2320, 
    2321, 
    2322, 
    2323, 
    2324, 
    2325, 
    2326, 
    2327, 
    2331, 
    2332, 
    2333, 
    2334, 
    2335, 
    2336, 
    2337, 
    2338, 
    2339, 
    2340, 
    2342, 
    2343, 
    2344, 
    2345, 
    2349, 
    2350, 
    2351, 
    2352, 
    2353, 
    2354, 
    2355, 
    2356, 
    2357, 
    2358, 
    2360, 
    2361, 
    2362, 
    2363, 
    2367, 
    2368, 
    2369, 
    2370, 
    2371, 
    2372, 
    2373, 
    2374, 
    2375, 
    2376, 
    2378, 
    2379, 
    2380, 
    2381, 
    2382, 
    2383, 
    2384, 
    2385, 
    2386, 
    2390, 
    2391, 
    2392, 
    2393, 
    2394, 
    2395, 
    2396, 
    2397, 
    2398, 
    2399, 
    2401, 
    2402, 
    2403, 
    2404, 
    2408, 
    2409, 
    2410, 
    2411, 
    2412, 
    2413, 
    2414, 
    2415, 
    2416, 
    2417, 
    2419, 
    2420, 
    2421, 
    2422, 
    2426, 
    2427, 
    2428, 
    2429, 
    2430, 
    2431, 
    2432, 
    2433, 
    2434, 
    2435, 
    2437, 
    2438, 
    2439, 
    2440, 
    2441, 
    2442, 
    2443, 
    2444, 
    2445, 
    2449, 
    2450, 
    2451, 
    2452, 
    2453, 
    2454, 
    2455, 
    2456, 
    2457, 
    2458, 
    2460, 
    2461, 
    2462, 
    2463, 
    2467, 
    2468, 
    2469, 
    2470, 
    2471, 
    2472, 
    2473, 
    2474, 
    2475, 
    2476, 
    2478, 
    2479, 
    2480, 
    2481, 
    2485, 
    2486, 
    2487, 
    2488, 
    2489, 
    2490, 
    2491, 
    2492, 
    2493, 
    2494, 
    2496, 
    2497, 
    2498, 
    2499, 
    2500, 
    2501, 
    2502, 
    2503, 
    2504, 
    2508, 
    2509, 
    2510, 
    2511, 
    2512, 
    2513, 
    2514, 
    2515, 
    2516, 
    2517, 
    2519, 
    2520, 
    2521, 
    2522, 
    2526, 
    2527, 
    2528, 
    2529, 
    2530, 
    2531, 
    2532, 
    2533, 
    2534, 
    2535, 
    2537, 
    2538, 
    2539, 
    2540, 
    2544, 
    2545, 
    2546, 
    2547, 
    2548, 
    2549, 
    2550, 
    2551, 
    2552, 
    2553, 
    2555, 
    2556, 
    2557, 
    2558, 
    2559, 
    2560, 
    2561, 
    2562, 
    2563, 
    2567, 
    2568, 
    2569, 
    2570, 
    2571, 
    2572, 
    2573, 
    2574, 
    2575, 
    2576, 
    2578, 
    2579, 
    2580, 
    2581, 
    2585, 
    2586, 
    2587, 
    2588, 
    2589, 
    2590, 
    2591, 
    2592, 
    2593, 
    2594, 
    2596, 
    2597, 
    2598, 
    2599, 
    2603, 
    2604, 
    2605, 
    2606, 
    2607, 
    2608, 
    2609, 
    2610, 
    2611, 
    2612, 
    2614, 
    2615, 
    2616, 
    2617, 
    2618, 
    2619, 
    2620, 
    2621, 
    2622, 
    2626, 
    2627, 
    2628, 
    2629, 
    2630, 
    2631, 
    2632, 
    2633, 
    2634, 
    2635, 
    2637, 
    2638, 
    2639, 
    2640, 
    2644, 
    2645, 
    2646, 
    2647, 
    2648, 
    2649, 
    2650, 
    2651, 
    2652, 
    2653, 
    2655, 
    2656, 
    2657, 
    2658, 
    2662, 
    2663, 
    2664, 
    2665, 
    2666, 
    2667, 
    2668, 
    2669, 
    2670, 
    2671, 
    2673, 
    2674, 
    2675, 
    2676, 
    2677, 
    2678, 
    2679, 
    2680, 
    2681, 
    2685, 
    2686, 
    2687, 
    2688, 
    2689, 
    2690, 
    2691, 
    2692, 
    2693, 
    2694, 
    2696, 
    2697, 
    2698, 
    2699, 
    2703, 
    2704, 
    2705, 
    2706, 
    2707, 
    2708, 
    2709, 
    2710, 
    2711, 
    2712, 
    2714, 
    2715, 
    2716, 
    2717, 
    2721, 
    2722, 
    2723, 
    2724, 
    2725, 
    2726, 
    2727, 
    2728, 
    2729, 
    2730, 
    2732, 
    2733, 
    2734, 
    2735, 
    2736, 
    2737, 
    2738, 
    2739, 
    2740, 
    2744, 
    2745, 
    2746, 
    2747, 
    2748, 
    2749, 
    2750, 
    2751, 
    2752, 
    2753, 
    2755, 
    2756, 
    2757, 
    2758, 
    2762, 
    2763, 
    2764, 
    2765, 
    2766, 
    2767, 
    2768, 
    2769, 
    2770, 
    2771, 
    2773, 
    2774, 
    2775, 
    2776, 
    2780, 
    2781, 
    2782, 
    2783, 
    2784, 
    2785, 
    2786, 
    2787, 
    2788, 
    2789, 
    2791, 
    2792, 
    2793, 
    2794, 
    2795, 
    2796, 
    2797, 
    2798, 
    2799, 
    2803, 
    2804, 
    2805, 
    2806, 
    2807, 
    2808, 
    2809, 
    2810, 
    2811, 
    2812, 
    2814, 
    2815, 
    2816, 
    2817, 
    2821, 
    2822, 
    2823, 
    2824, 
    2825, 
    2826, 
    2827, 
    2828, 
    2829, 
    2830, 
    2832, 
    2833, 
    2834, 
    2835, 
    2839, 
    2840, 
    2841, 
    2842, 
    2843, 
    2844, 
    2845, 
    2846, 
    2847, 
    2848, 
    2850, 
    2851, 
    2852, 
    2853, 
    2854, 
    2855, 
    2856, 
    2857, 
    2858, 
    2862, 
    2863, 
    2864, 
    2865, 
    2866, 
    2867, 
    2868, 
    2869, 
    2870, 
    2871, 
    2873, 
    2874, 
    2875, 
    2876, 
    2880, 
    2881, 
    2882, 
    2883, 
    2884, 
    2885, 
    2886, 
    2887, 
    2888, 
    2889, 
    2891, 
    2892, 
    2893, 
    2894, 
    2898, 
    2899, 
    2900, 
    2901, 
    2902, 
    2903, 
    2904, 
    2905, 
    2906, 
    2907, 
    2909, 
    2910, 
    2911, 
    2912, 
    2913, 
    2914, 
    2915, 
    2916, 
    2917, 
    2921, 
    2922, 
    2923, 
    2924, 
    2925, 
    2926, 
    2927, 
    2928, 
    2929, 
    2930, 
    2932, 
    2933, 
    2934, 
    2935, 
    2939, 
    2940, 
    2941, 
    2942, 
    2943, 
    2944, 
    2945, 
    2946, 
    2947, 
    2948, 
    2950, 
    2951, 
    2952, 
    2953, 
    2957, 
    2958, 
    2959, 
    2960, 
    2961, 
    2962, 
    2963, 
    2964, 
    2965, 
    2966, 
    2968, 
    2969, 
    2970, 
    2971, 
    2972, 
    2973, 
    2974, 
    2975, 
    2976, 
    2980, 
    2981, 
    2982, 
    2983, 
    2984, 
    2985, 
    2986, 
    2987, 
    2988, 
    2989, 
    2991, 
    2992, 
    2993, 
    2994, 
    2998, 
    2999, 
    3000, 
    3001, 
    3002, 
    3003, 
    3004, 
    3005, 
    3006, 
    3007, 
    3009, 
    3010, 
    3011, 
    3012, 
    3016, 
    3017, 
    3018, 
    3019, 
    3020, 
    3021, 
    3022, 
    3023, 
    3024, 
    3025, 
    3027, 
    3028, 
    3029, 
    3030, 
    3031, 
    3032, 
    3033, 
    3034, 
    3035, 
    3039, 
    3040, 
    3041, 
    3042, 
    3043, 
    3044, 
    3045, 
    3046, 
    3047, 
    3048, 
    3050, 
    3051, 
    3052, 
    3053, 
    3057, 
    3058, 
    3059, 
    3060, 
    3061, 
    3062, 
    3063, 
    3064, 
    3065, 
    3066, 
    3068, 
    3069, 
    3070, 
    3071, 
    3075, 
    3076, 
    3077, 
    3078, 
    3079, 
    3080, 
    3081, 
    3082, 
    3083, 
    3084, 
    3086, 
    3087, 
    3088, 
    3089, 
    3090, 
    3091, 
    3092, 
    3093, 
    3094, 
    3098, 
    3099, 
    3100, 
    3101, 
    3102, 
    3103, 
    3104, 
    3105, 
    3106, 
    3107, 
    3109, 
    3110, 
    3111, 
    3112, 
    3116, 
    3117, 
    3118, 
    3119, 
    3120, 
    3121, 
    3122, 
    3123, 
    3124, 
    3125, 
    3127, 
    3128, 
    3129, 
    3130, 
    3134, 
    3135, 
    3136, 
    3137, 
    3138, 
    3139, 
    3140, 
    3141, 
    3142, 
    3143, 
    3145, 
    3146, 
    3147, 
    3148, 
    3149, 
    3150, 
    3151, 
    3152, 
    3153, 
    3157, 
    3158, 
    3159, 
    3160, 
    3161, 
    3162, 
    3163, 
    3164, 
    3165, 
    3166, 
    3168, 
    3169, 
    3170, 
    3171, 
    3175, 
    3176, 
    3177, 
    3178, 
    3179, 
    3180, 
    3181, 
    3182, 
    3183, 
    3184, 
    3186, 
    3187, 
    3188, 
    3189, 
    3193, 
    3194, 
    3195, 
    3196, 
    3197, 
    3198, 
    3199, 
    3200, 
    3201, 
    3202, 
    3204, 
    3205, 
    3206, 
    3207, 
    3208, 
    3209, 
    3210, 
    3211, 
    3212, 
    3216, 
    3217, 
    3218, 
    3219, 
    3220, 
    3221, 
    3222, 
    3223, 
    3224, 
    3225, 
    3227, 
    3228, 
    3229, 
    3230, 
    3234, 
    3235, 
    3236, 
    3237, 
    3238, 
    3239, 
    3240, 
    3241, 
    3242, 
    3243, 
    3245, 
    3246, 
    3247, 
    3248, 
    3252, 
    3253, 
    3254, 
    3255, 
    3256, 
    3257, 
    3258, 
    3259, 
    3260, 
    3261, 
    3263, 
    3264, 
    3265, 
    3266, 
    3267, 
    3268, 
    3269, 
    3270, 
    3271, 
    3275, 
    3276, 
    3277, 
    3278, 
    3279, 
    3280, 
    3281, 
    3282, 
    3283, 
    3284, 
    3286, 
    3287, 
    3288, 
    3289, 
    3293, 
    3294, 
    3295, 
    3296, 
    3297, 
    3298, 
    3299, 
    3300, 
    3301, 
    3302, 
    3304, 
    3305, 
    3306, 
    3307, 
    3311, 
    3312, 
    3313, 
    3314, 
    3315, 
    3316, 
    3317, 
    3318, 
    3319, 
    3320, 
    3322, 
    3323, 
    3324, 
    3325, 
    3326, 
    3327, 
    3328, 
    3329, 
    3330, 
    3334, 
    3335, 
    3336, 
    3337, 
    3338, 
    3339, 
    3340, 
    3341, 
    3342, 
    3343, 
    3345, 
    3346, 
    3347, 
    3348, 
    3352, 
    3353, 
    3354, 
    3355, 
    3356, 
    3357, 
    3358, 
    3359, 
    3360, 
    3361, 
    3363, 
    3364, 
    3365, 
    3366, 
    3370, 
    3371, 
    3372, 
    3373, 
    3374, 
    3375, 
    3376, 
    3377, 
    3378, 
    3379, 
    3381, 
    3382, 
    3383, 
    3384, 
    3385, 
    3386, 
    3387, 
    3388, 
    3389, 
    3393, 
    3394, 
    3395, 
    3396, 
    3397, 
    3398, 
    3399, 
    3400, 
    3401, 
    3402, 
    3404, 
    3405, 
    3406, 
    3407, 
    3411, 
    3412, 
    3413, 
    3414, 
    3415, 
    3416, 
    3417, 
    3418, 
    3419, 
    3420, 
    3422, 
    3423, 
    3424, 
    3425, 
    3429, 
    3430, 
    3431, 
    3432, 
    3433, 
    3434, 
    3435, 
    3436, 
    3437, 
    3438, 
    3440, 
    3441, 
    3442, 
    3443, 
    3444, 
    3445, 
    3446, 
    3447, 
    3448, 
    3452, 
    3453, 
    3454, 
    3455, 
    3456, 
    3457, 
    3458, 
    3459, 
    3460, 
    3461, 
    3463, 
    3464, 
    3465, 
    3466, 
    3470, 
    3471, 
    3472, 
    3473, 
    3474, 
    3475, 
    3476, 
    3477, 
    3478, 
    3479, 
    3481, 
    3482, 
    3483, 
    3484, 
    3488, 
    3489, 
    3490, 
    3491, 
    3492, 
    3493, 
    3494, 
    3495, 
    3496, 
    3497, 
    3499, 
    3500, 
    3501, 
    3502, 
    3503, 
    3504, 
    3505, 
    3506, 
    3507, 
    3511, 
    3512, 
    3513, 
    3514, 
    3515, 
    3516, 
    3517, 
    3518, 
    3519, 
    3520, 
    3522, 
    3523, 
    3524, 
    3525, 
    3529, 
    3530, 
    3531, 
    3532, 
    3533, 
    3534, 
    3535, 
    3536, 
    3537, 
    3538, 
    3540, 
    3541, 
    3542, 
    3543, 
    3547, 
    3548, 
    3549, 
    3550, 
    3551, 
    3552, 
    3553, 
    3554, 
    3555, 
    3556, 
    3558, 
    3559, 
    3560, 
    3561, 
    3562, 
    3563, 
    3564, 
    3565, 
    3566, 
    3570, 
    3571, 
    3572, 
    3573, 
    3574, 
    3575, 
    3576, 
    3577, 
    3578, 
    3579, 
    3581, 
    3582, 
    3583, 
    3584, 
    3588, 
    3589, 
    3590, 
    3591, 
    3592, 
    3593, 
    3594, 
    3595, 
    3596, 
    3597, 
    3599, 
    3600, 
    3601, 
    3602, 
    3606, 
    3607, 
    3608, 
    3609, 
    3610, 
    3611, 
    3612, 
    3613, 
    3614, 
    3615, 
    3617, 
    3618, 
    3619, 
    3620, 
    3621, 
    3622, 
    3623, 
    3624, 
    3625, 
    3629, 
    3630, 
    3631, 
    3632, 
    3633, 
    3634, 
    3635, 
    3636, 
    3637, 
    3638, 
    3640, 
    3641, 
    3642, 
    3643, 
    3647, 
    3648, 
    3649, 
    3650, 
    3651, 
    3652, 
    3653, 
    3654, 
    3655, 
    3656, 
    3658, 
    3659, 
    3660, 
    3661, 
    3665, 
    3666, 
    3667, 
    3668, 
    3669, 
    3670, 
    3671, 
    3672, 
    3673, 
    3674, 
    3676, 
    3677, 
    3678, 
    3679, 
    3680, 
    3681, 
    3682, 
    3683, 
    3684, 
    3688, 
    3689, 
    3690, 
    3691, 
    3692, 
    3693, 
    3694, 
    3695, 
    3696, 
    3697, 
    3699, 
    3700, 
    3701, 
    3702, 
    3706, 
    3707, 
    3708, 
    3709, 
    3710, 
    3711, 
    3712, 
    3713, 
    3714, 
    3715, 
    3717, 
    3718, 
    3719, 
    3720, 
    3724, 
    3725, 
    3726, 
    3727, 
    3728, 
    3729, 
    3730, 
    3731, 
    3732, 
    3733, 
    3735, 
    3736, 
    3737, 
    3738, 
    3739, 
    3740, 
    3741, 
    3742, 
    3743, 
    3747, 
    3748, 
    3749, 
    3750, 
    3751, 
    3752, 
    3753, 
    3754, 
    3755, 
    3756, 
    3758, 
    3759, 
    3760, 
    3761, 
    3765, 
    3766, 
    3767, 
    3768, 
    3769, 
    3770, 
    3771, 
    3772, 
    3773, 
    3774, 
    3776, 
    3777, 
    3778, 
    3779, 
    3783, 
    3784, 
    3785, 
    3786, 
    3787, 
    3788, 
    3789, 
    3790, 
    3791, 
    3792, 
    3794, 
    3795, 
    3796, 
    3797, 
    3798, 
    3799, 
    3800, 
    3801, 
    3802, 
    3806, 
    3807, 
    3808, 
    3809, 
    3810, 
    3811, 
    3812, 
    3813, 
    3814, 
    3815, 
    3817, 
    3818, 
    3819, 
    3820, 
    3824, 
    3825, 
    3826, 
    3827, 
    3828, 
    3829, 
    3830, 
    3831, 
    3832, 
    3833, 
    3835, 
    3836, 
    3837, 
    3838, 
    3842, 
    3843, 
    3844, 
    3845, 
    3846, 
    3847, 
    3848, 
    3849, 
    3850, 
    3851, 
    3853, 
    3854, 
    3855, 
    3856, 
    3857, 
    3858, 
    3859, 
    3860, 
    3861, 
    3865, 
    3866, 
    3867, 
    3868, 
    3869, 
    3870, 
    3871, 
    3872, 
    3873, 
    3874, 
    3876, 
    3877, 
    3878, 
    3879, 
    3883, 
    3884, 
    3885, 
    3886, 
    3887, 
    3888, 
    3889, 
    3890, 
    3891, 
    3892, 
    3894, 
    3895, 
    3896, 
    3897, 
    3901, 
    3902, 
    3903, 
    3904, 
    3905, 
    3906, 
    3907, 
    3908, 
    3909, 
    3910, 
    3912, 
    3913, 
    3914, 
    3915, 
    3916, 
    3917, 
    3918, 
    3919, 
    3920, 
    3924, 
    3925, 
    3926, 
    3927, 
    3928, 
    3929, 
    3930, 
    3931, 
    3932, 
    3933, 
    3935, 
    3936, 
    3937, 
    3938, 
    3942, 
    3943, 
    3944, 
    3945, 
    3946, 
    3947, 
    3948, 
    3949, 
    3950, 
    3951, 
    3953, 
    3954, 
    3955, 
    3956, 
    3960, 
    3961, 
    3962, 
    3963, 
    3964, 
    3965, 
    3966, 
    3967, 
    3968, 
    3969, 
    3971, 
    3972, 
    3973, 
    3974, 
    3975, 
    3976, 
    3977, 
    3978, 
    3979, 
    3983, 
    3984, 
    3985, 
    3986, 
    3987, 
    3988, 
    3989, 
    3990, 
    3991, 
    3992, 
    3994, 
    3995, 
    3996, 
    3997, 
    4001, 
    4002, 
    4003, 
    4004, 
    4005, 
    4006, 
    4007, 
    4008, 
    4009, 
    4010, 
    4012, 
    4013, 
    4014, 
    4015, 
    4019, 
    4020, 
    4021, 
    4022, 
    4023, 
    4024, 
    4025, 
    4026, 
    4027, 
    4028, 
    4030, 
    4031, 
    4032, 
    4033, 
    4034, 
    4035, 
    4036, 
    4037, 
    4038, 
    4042, 
    4043, 
    4044, 
    4045, 
    4046, 
    4047, 
    4048, 
    4049, 
    4050, 
    4051, 
    4053, 
    4054, 
    4055, 
    4056, 
    4060, 
    4061, 
    4062, 
    4063, 
    4064, 
    4065, 
    4066, 
    4067, 
    4068, 
    4069, 
    4071, 
    4072, 
    4073, 
    4074, 
    4078, 
    4079, 
    4080, 
    4081, 
    4082, 
    4083, 
    4084, 
    4085, 
    4086, 
    4087, 
    4089, 
    4090, 
    4091, 
    4092, 
    4093, 
    4094, 
    4095, 
    4096, 
    4097, 
    4101, 
    4102, 
    4103, 
    4104, 
    4105, 
    4106, 
    4107, 
    4108, 
    4109, 
    4110, 
    4112, 
    4113, 
    4114, 
    4115, 
    4119, 
    4120, 
    4121, 
    4122, 
    4123, 
    4124, 
    4125, 
    4126, 
    4127, 
    4128, 
    4130, 
    4131, 
    4132, 
    4133, 
    4137, 
    4138, 
    4139, 
    4140, 
    4141, 
    4142, 
    4143, 
    4144, 
    4145, 
    4146, 
    4148, 
    4149, 
    4150, 
    4151, 
    4152, 
    4153, 
    4154, 
    4155, 
    4156, 
    4160, 
    4161, 
    4162, 
    4163, 
    4164, 
    4165, 
    4166, 
    4167, 
    4168, 
    4169, 
    4171, 
    4172, 
    4173, 
    4174, 
    4178, 
    4179, 
    4180, 
    4181, 
    4182, 
    4183, 
    4184, 
    4185, 
    4186, 
    4187, 
    4189, 
    4190, 
    4191, 
    4192, 
    4196, 
    4197, 
    4198, 
    4199, 
    4200, 
    4201, 
    4202, 
    4203, 
    4204, 
    4205, 
    4207, 
    4208, 
    4209, 
    4210, 
    4211, 
    4212, 
    4213, 
    4214, 
    4215, 
    4219, 
    4220, 
    4221, 
    4222, 
    4223, 
    4224, 
    4225, 
    4226, 
    4227, 
    4228, 
    4230, 
    4231, 
    4232, 
    4233, 
    4237, 
    4238, 
    4239, 
    4240, 
    4241, 
    4242, 
    4243, 
    4244, 
    4245, 
    4246, 
    4248, 
    4249, 
    4250, 
    4251, 
    4255, 
    4256, 
    4257, 
    4258, 
    4259, 
    4260, 
    4261, 
    4262, 
    4263, 
    4264, 
    4266, 
    4267, 
    4268, 
    4269, 
    4270, 
    4271, 
    4272, 
    4273, 
    4274, 
    4278, 
    4279, 
    4280, 
    4281, 
    4282, 
    4283, 
    4284, 
    4285, 
    4286, 
    4287, 
    4289, 
    4290, 
    4291, 
    4292, 
    4296, 
    4297, 
    4298, 
    4299, 
    4300, 
    4301, 
    4302, 
    4303, 
    4304, 
    4305, 
    4307, 
    4308, 
    4309, 
    4310, 
    4314, 
    4315, 
    4316, 
    4317, 
    4318, 
    4319, 
    4320, 
    4321, 
    4322, 
    4323, 
    4325, 
    4326, 
    4327, 
    4328, 
    4329, 
    4330, 
    4331, 
    4332, 
    4333, 
    4337, 
    4338, 
    4339, 
    4340, 
    4341, 
    4342, 
    4343, 
    4344, 
    4345, 
    4346, 
    4348, 
    4349, 
    4350, 
    4351, 
    4355, 
    4356, 
    4357, 
    4358, 
    4359, 
    4360, 
    4361, 
    4362, 
    4363, 
    4364, 
    4366, 
    4367, 
    4368, 
    4369, 
    4373, 
    4374, 
    4375, 
    4376, 
    4377, 
    4378, 
    4379, 
    4380, 
    4381, 
    4382, 
    4384, 
    4385, 
    4386, 
    4387, 
    4388, 
    4389, 
    4390, 
    4391, 
    4392, 
    4396, 
    4397, 
    4398, 
    4399, 
    4400, 
    4401, 
    4402, 
    4403, 
    4404, 
    4405, 
    4407, 
    4408, 
    4409, 
    4410, 
    4414, 
    4415, 
    4416, 
    4417, 
    4418, 
    4419, 
    4420, 
    4421, 
    4422, 
    4423, 
    4425, 
    4426, 
    4427, 
    4428, 
    4432, 
    4433, 
    4434, 
    4435, 
    4436, 
    4437, 
    4438, 
    4439, 
    4440, 
    4441, 
    4443, 
    4444, 
    4445, 
    4446, 
    4447, 
    4448, 
    4449, 
    4450, 
    4451, 
    4455, 
    4456, 
    4457, 
    4458, 
    4459, 
    4460, 
    4461, 
    4462, 
    4463, 
    4464, 
    4466, 
    4467, 
    4468, 
    4469, 
    4473, 
    4474, 
    4475, 
    4476, 
    4477, 
    4478, 
    4479, 
    4480, 
    4481, 
    4482, 
    4484, 
    4485, 
    4486, 
    4487, 
    4491, 
    4492, 
    4493, 
    4494, 
    4495, 
    4496, 
    4497, 
    4498, 
    4499, 
    4500, 
    4502, 
    4503, 
    4504, 
    4505, 
    4506, 
    4507, 
    4508, 
    4509, 
    4510, 
    4514, 
    4515, 
    4516, 
    4517, 
    4518, 
    4519, 
    4520, 
    4521, 
    4522, 
    4523, 
    4525, 
    4526, 
    4527, 
    4528, 
    4532, 
    4533, 
    4534, 
    4535, 
    4536, 
    4537, 
    4538, 
    4539, 
    4540, 
    4541, 
    4543, 
    4544, 
    4545, 
    4546, 
    4550, 
    4551, 
    4552, 
    4553, 
    4554, 
    4555, 
    4556, 
    4557, 
    4558, 
    4559, 
    4561, 
    4562, 
    4563, 
    4564, 
    4565, 
    4566, 
    4567, 
    4568, 
    4569, 
    4573, 
    4574, 
    4575, 
    4576, 
    4577, 
    4578, 
    4579, 
    4580, 
    4581, 
    4582, 
    4584, 
    4585, 
    4586, 
    4587, 
    4591, 
    4592, 
    4593, 
    4594, 
    4595, 
    4596, 
    4597, 
    4598, 
    4599, 
    4600, 
    4602, 
    4603, 
    4604, 
    4605, 
    4609, 
    4610, 
    4611, 
    4612, 
    4613, 
    4614, 
    4615, 
    4616, 
    4617, 
    4618, 
    4620, 
    4621, 
    4622, 
    4623, 
    4624, 
    4625, 
    4626, 
    4627, 
    4628, 
    4632, 
    4633, 
    4634, 
    4635, 
    4636, 
    4637, 
    4638, 
    4639, 
    4640, 
    4641, 
    4643, 
    4644, 
    4645, 
    4646, 
    4650, 
    4651, 
    4652, 
    4653, 
    4654, 
    4655, 
    4656, 
    4657, 
    4658, 
    4659, 
    4661, 
    4662, 
    4663, 
    4664, 
    4668, 
    4669, 
    4670, 
    4671, 
    4672, 
    4673, 
    4674, 
    4675, 
    4676, 
    4677, 
    4679, 
    4680, 
    4681, 
    4682, 
    4683, 
    4684, 
    4685, 
    4686, 
    4687, 
    4691, 
    4692, 
    4693, 
    4694, 
    4695, 
    4696, 
    4697, 
    4698, 
    4699, 
    4700, 
    4702, 
    4703, 
    4704, 
    4705, 
    4709, 
    4710, 
    4711, 
    4712, 
    4713, 
    4714, 
    4715, 
    4716, 
    4717, 
    4718, 
    4720, 
    4721, 
    4722, 
    4723, 
    4727, 
    4728, 
    4729, 
    4730, 
    4731, 
    4732, 
    4733, 
    4734, 
    4735, 
    4736, 
    4738, 
    4739, 
    4740, 
    4741, 
    4742, 
    4743, 
    4744, 
    4745, 
    4746, 
    4750, 
    4751, 
    4752, 
    4753, 
    4754, 
    4755, 
    4756, 
    4757, 
    4758, 
    4759, 
    4761, 
    4762, 
    4763, 
    4764, 
    4768, 
    4769, 
    4770, 
    4771, 
    4772, 
    4773, 
    4774, 
    4775, 
    4776, 
    4777, 
    4779, 
    4780, 
    4781, 
    4782, 
    4786, 
    4787, 
    4788, 
    4789, 
    4790, 
    4791, 
    4792, 
    4793, 
    4794, 
    4795, 
    4797, 
    4798, 
    4799, 
    4800, 
    4801, 
    4802, 
    4803, 
    4804, 
    4805, 
    4809, 
    4810, 
    4811, 
    4812, 
    4813, 
    4814, 
    4815, 
    4816, 
    4817, 
    4818, 
    4820, 
    4821, 
    4822, 
    4823, 
    4827, 
    4828, 
    4829, 
    4830, 
    4831, 
    4832, 
    4833, 
    4834, 
    4835, 
    4836, 
    4838, 
    4839, 
    4840, 
    4841, 
    4845, 
    4846, 
    4847, 
    4848, 
    4849, 
    4850, 
    4851, 
    4852, 
    4853, 
    4854, 
    4856, 
    4857, 
    4858, 
    4859, 
    4860, 
    4861, 
    4862, 
    4863, 
    4864, 
    4868, 
    4869, 
    4870, 
    4871, 
    4872, 
    4873, 
    4874, 
    4875, 
    4876, 
    4877, 
    4879, 
    4880, 
    4881, 
    4882, 
    4886, 
    4887, 
    4888, 
    4889, 
    4890, 
    4891, 
    4892, 
    4893, 
    4894, 
    4895, 
    4897, 
    4898, 
    4899, 
    4900, 
    4904, 
    4905, 
    4906, 
    4907, 
    4908, 
    4909, 
    4910, 
    4911, 
    4912, 
    4913, 
    4915, 
    4916, 
    4917, 
    4918, 
    4919, 
    4920, 
    4921, 
    4922, 
    4923, 
    4927, 
    4928, 
    4929, 
    4930, 
    4931, 
    4932, 
    4933, 
    4934, 
    4935, 
    4936, 
    4938, 
    4939, 
    4940, 
    4941, 
    4945, 
    4946, 
    4947, 
    4948, 
    4949, 
    4950, 
    4951, 
    4952, 
    4953, 
    4954, 
    4956, 
    4957, 
    4958, 
    4959, 
    4963, 
    4964, 
    4965, 
    4966, 
    4967, 
    4968, 
    4969, 
    4970, 
    4971, 
    4972, 
    4974, 
    4975, 
    4976, 
    4977, 
    4978, 
    4979, 
    4980, 
    4981, 
    4982, 
    4986, 
    4987, 
    4988, 
    4989, 
    4990, 
    4991, 
    4992, 
    4993, 
    4994, 
    4995, 
    4997, 
    4998, 
    4999, 
    5000, 
    5004, 
    5005, 
    5006, 
    5007, 
    5008, 
    5009, 
    5010, 
    5011, 
    5012, 
    5013, 
    5015, 
    5016, 
    5017, 
    5018, 
    5022, 
    5023, 
    5024, 
    5025, 
    5026, 
    5027, 
    5028, 
    5029, 
    5030, 
    5031, 
    5033, 
    5034, 
    5035, 
    5036, 
    5037, 
    5038, 
    5039, 
    5040, 
    5041, 
    5045, 
    5046, 
    5047, 
    5048, 
    5049, 
    5050, 
    5051, 
    5052, 
    5053, 
    5054, 
    5056, 
    5057, 
    5058, 
    5059, 
    5063, 
    5064, 
    5065, 
    5066, 
    5067, 
    5068, 
    5069, 
    5070, 
    5071, 
    5072, 
    5074, 
    5075, 
    5076, 
    5077, 
    5081, 
    5082, 
    5083, 
    5084, 
    5085, 
    5086, 
    5087, 
    5088, 
    5089, 
    5090, 
    5092, 
    5093, 
    5094, 
    5095, 
    5096, 
    5097, 
    5098, 
    5099, 
    5100, 
    5104, 
    5105, 
    5106, 
    5107, 
    5108, 
    5109, 
    5110, 
    5111, 
    5112, 
    5113, 
    5115, 
    5116, 
    5117, 
    5118, 
    5122, 
    5123, 
    5124, 
    5125, 
    5126, 
    5127, 
    5128, 
    5129, 
    5130, 
    5131, 
    5133, 
    5134, 
    5135, 
    5136, 
    5140, 
    5141, 
    5142, 
    5143, 
    5144, 
    5145, 
    5146, 
    5147, 
    5148, 
    5149, 
    5151, 
    5152, 
    5153, 
    5154, 
    5155, 
    5156, 
    5157, 
    5158, 
    5159, 
    5163, 
    5164, 
    5165, 
    5166, 
    5167, 
    5168, 
    5169, 
    5170, 
    5171, 
    5172, 
    5174, 
    5175, 
    5176, 
    5177, 
    5181, 
    5182, 
    5183, 
    5184, 
    5185, 
    5186, 
    5187, 
    5188, 
    5189, 
    5190, 
    5192, 
    5193, 
    5194, 
    5195, 
    5199, 
    5200, 
    5201, 
    5202, 
    5203, 
    5204, 
    5205, 
    5206, 
    5207, 
    5208, 
    5210, 
    5211, 
    5212, 
    5213, 
    5214, 
    5215, 
    5216, 
    5217, 
    5218, 
    5222, 
    5223, 
    5224, 
    5225, 
    5226, 
    5227, 
    5228, 
    5229, 
    5230, 
    5231, 
    5233, 
    5234, 
    5235, 
    5236, 
    5240, 
    5241, 
    5242, 
    5243, 
    5244, 
    5245, 
    5246, 
    5247, 
    5248, 
    5249, 
    5251, 
    5252, 
    5253, 
    5254, 
    5258, 
    5259, 
    5260, 
    5261, 
    5262, 
    5263, 
    5264, 
    5265, 
    5266, 
    5267, 
    5269, 
    5270, 
    5271, 
    5272, 
    5273, 
    5274, 
    5275, 
    5276, 
    5277, 
    5281, 
    5282, 
    5283, 
    5284, 
    5285, 
    5286, 
    5287, 
    5288, 
    5289, 
    5290, 
    5292, 
    5293, 
    5294, 
    5295, 
    5299, 
    5300, 
    5301, 
    5302, 
    5303, 
    5304, 
    5305, 
    5306, 
    5307, 
    5308, 
    5310, 
    5311, 
    5312, 
    5313, 
    5317, 
    5318, 
    5319, 
    5320, 
    5321, 
    5322, 
    5323, 
    5324, 
    5325, 
    5326, 
    5328, 
    5329, 
    5330, 
    5331, 
    5332, 
    5333, 
    5334, 
    5335, 
    5336, 
    5340, 
    5341, 
    5342, 
    5343, 
    5344, 
    5345, 
    5346, 
    5347, 
    5348, 
    5349, 
    5351, 
    5352, 
    5353, 
    5354, 
    5358, 
    5359, 
    5360, 
    5361, 
    5362, 
    5363, 
    5364, 
    5365, 
    5366, 
    5367, 
    5369, 
    5370, 
    5371, 
    5372, 
    5376, 
    5377, 
    5378, 
    5379, 
    5380, 
    5381, 
    5382, 
    5383, 
    5384, 
    5385, 
    5387, 
    5388, 
    5389, 
    5390, 
    5391, 
    5392, 
    5393, 
    5394, 
    5395, 
    5399, 
    5400, 
    5401, 
    5402, 
    5403, 
    5404, 
    5405, 
    5406, 
    5407, 
    5408, 
    5410, 
    5411, 
    5412, 
    5413, 
    5417, 
    5418, 
    5419, 
    5420, 
    5421, 
    5422, 
    5423, 
    5424, 
    5425, 
    5426, 
    5428, 
    5429, 
    5430, 
    5431, 
    5435, 
    5436, 
    5437, 
    5438, 
    5439, 
    5440, 
    5441, 
    5442, 
    5443, 
    5444, 
    5446, 
    5447, 
    5448, 
    5449, 
    5450, 
    5451, 
    5452, 
    5453, 
    5454, 
    5458, 
    5459, 
    5460, 
    5461, 
    5462, 
    5463, 
    5464, 
    5465, 
    5466, 
    5467, 
    5469, 
    5470, 
    5471, 
    5472, 
    5476, 
    5477, 
    5478, 
    5479, 
    5480, 
    5481, 
    5482, 
    5483, 
    5484, 
    5485, 
    5487, 
    5488, 
    5489, 
    5490, 
    5494, 
    5495, 
    5496, 
    5497, 
    5498, 
    5499, 
    5500, 
    5501, 
    5502, 
    5503, 
    5505, 
    5506, 
    5507, 
    5508, 
    5509, 
    5510, 
    5511, 
    5512, 
    5513, 
    5517, 
    5518, 
    5519, 
    5520, 
    5521, 
    5522, 
    5523, 
    5524, 
    5525, 
    5526, 
    5528, 
    5529, 
    5530, 
    5531, 
    5535, 
    5536, 
    5537, 
    5538, 
    5539, 
    5540, 
    5541, 
    5542, 
    5543, 
    5544, 
    5546, 
    5547, 
    5548, 
    5549, 
    5553, 
    5554, 
    5555, 
    5556, 
    5557, 
    5558, 
    5559, 
    5560, 
    5561, 
    5562, 
    5564, 
    5565, 
    5566, 
    5567, 
    5568, 
    5569, 
    5570, 
    5571, 
    5572, 
    5576, 
    5577, 
    5578, 
    5579, 
    5580, 
    5581, 
    5582, 
    5583, 
    5584, 
    5585, 
    5587, 
    5588, 
    5589, 
    5590, 
    5594, 
    5595, 
    5596, 
    5597, 
    5598, 
    5599, 
    5600, 
    5601, 
    5602, 
    5603, 
    5605, 
    5606, 
    5607, 
    5608, 
    5612, 
    5613, 
    5614, 
    5615, 
    5616, 
    5617, 
    5618, 
    5619, 
    5620, 
    5621, 
    5623, 
    5624, 
    5625, 
    5626, 
    5627, 
    5628, 
    5629, 
    5630, 
    5631, 
    5635, 
    5636, 
    5637, 
    5638, 
    5639, 
    5640, 
    5641, 
    5642, 
    5643, 
    5644, 
    5646, 
    5647, 
    5648, 
    5649, 
    5653, 
    5654, 
    5655, 
    5656, 
    5657, 
    5658, 
    5659, 
    5660, 
    5661, 
    5662, 
    5664, 
    5665, 
    5666, 
    5667, 
    5671, 
    5672, 
    5673, 
    5674, 
    5675, 
    5676, 
    5677, 
    5678, 
    5679, 
    5680, 
    5682, 
    5683, 
    5684, 
    5685, 
    5686, 
    5687, 
    5688, 
    5689, 
    5690, 
    5694, 
    5695, 
    5696, 
    5697, 
    5698, 
    5699, 
    5700, 
    5701, 
    5702, 
    5703, 
    5705, 
    5706, 
    5707, 
    5708, 
    5712, 
    5713, 
    5714, 
    5715, 
    5716, 
    5717, 
    5718, 
    5719, 
    5720, 
    5721, 
    5723, 
    5724, 
    5725, 
    5726, 
    5730, 
    5731, 
    5732, 
    5733, 
    5734, 
    5735, 
    5736, 
    5737, 
    5738, 
    5739, 
    5741, 
    5742, 
    5743, 
    5744, 
    5745, 
    5746, 
    5747, 
    5748, 
    5749, 
    5753, 
    5754, 
    5755, 
    5756, 
    5757, 
    5758, 
    5759, 
    5760, 
    5761, 
    5762, 
    5764, 
    5765, 
    5766, 
    5767, 
    5771, 
    5772, 
    5773, 
    5774, 
    5775, 
    5776, 
    5777, 
    5778, 
    5779, 
    5780, 
    5782, 
    5783, 
    5784, 
    5785, 
    5789, 
    5790, 
    5791, 
    5792, 
    5793, 
    5794, 
    5795, 
    5796, 
    5797, 
    5798, 
    5800, 
    5801, 
    5802, 
    5803, 
    5804, 
    5805, 
    5806, 
    5807, 
    5808, 
    5812, 
    5813, 
    5814, 
    5815, 
    5816, 
    5817, 
    5818, 
    5819, 
    5820, 
    5821, 
    5823, 
    5824, 
    5825, 
    5826, 
    5830, 
    5831, 
    5832, 
    5833, 
    5834, 
    5835, 
    5836, 
    5837, 
    5838, 
    5839, 
    5841, 
    5842, 
    5843, 
    5844, 
    5848, 
    5849, 
    5850, 
    5851, 
    5852, 
    5853, 
    5854, 
    5855, 
    5856, 
    5857, 
    5859, 
    5860, 
    5861, 
    5862, 
    5863, 
    5864, 
    5865, 
    5866, 
    5867, 
    5871, 
    5872, 
    5873, 
    5874, 
    5875, 
    5876, 
    5877, 
    5878, 
    5879, 
    5880, 
    5882, 
    5883, 
    5884, 
    5885, 
    5889, 
    5890, 
    5891, 
    5892, 
    5893, 
    5894, 
    5895, 
    5896, 
    5897, 
    5898, 
    5900, 
    5901, 
    5902, 
    5903, 
    5907, 
    5908, 
    5909, 
    5910, 
    5911, 
    5912, 
    5913, 
    5914, 
    5915, 
    5916, 
    5918, 
    5919, 
    5920, 
    5921, 
    5922, 
    5923, 
    5924, 
    5925, 
    5926, 
    5930, 
    5931, 
    5932, 
    5933, 
    5934, 
    5935, 
    5936, 
    5937, 
    5938, 
    5939, 
    5941, 
    5942, 
    5943, 
    5944, 
    5948, 
    5949, 
    5950, 
    5951, 
    5952, 
    5953, 
    5954, 
    5955, 
    5956, 
    5957, 
    5959, 
    5960, 
    5961, 
    5962, 
    5966, 
    5967, 
    5968, 
    5969, 
    5970, 
    5971, 
    5972, 
    5973, 
    5974, 
    5975, 
    5977, 
    5978, 
    5979, 
    5980, 
    5981, 
    5982, 
    5983, 
    5984, 
    5985, 
    5989, 
    5990, 
    5991, 
    5992, 
    5993, 
    5994, 
    5995, 
    5996, 
    5997, 
    5998, 
    6000, 
    6001, 
    6002, 
    6003, 
    6007, 
    6008, 
    6009, 
    6010, 
    6011, 
    6012, 
    6013, 
    6014, 
    6015, 
    6016, 
    6018, 
    6019, 
    6020, 
    6021, 
    6025, 
    6026, 
    6027, 
    6028, 
    6029, 
    6030, 
    6031, 
    6032, 
    6033, 
    6034, 
    6036, 
    6037, 
    6038, 
    6039, 
    6040, 
    6041, 
    6042, 
    6043, 
    6044, 
    6048, 
    6049, 
    6050, 
    6051, 
    6052, 
    6053, 
    6054, 
    6055, 
    6056, 
    6057, 
    6059, 
    6060, 
    6061, 
    6062, 
    6066, 
    6067, 
    6068, 
    6069, 
    6070, 
    6071, 
    6072, 
    6073, 
    6074, 
    6075, 
    6077, 
    6078, 
    6079, 
    6080, 
    6084, 
    6085, 
    6086, 
    6087, 
    6088, 
    6089, 
    6090, 
    6091, 
    6092, 
    6093, 
    6095, 
    6096, 
    6097, 
    6098, 
    6099, 
    6100, 
    6101, 
    6102, 
    6103, 
    6107, 
    6108, 
    6109, 
    6110, 
    6111, 
    6112, 
    6113, 
    6114, 
    6115, 
    6116, 
    6118, 
    6119, 
    6120, 
    6121, 
    6125, 
    6126, 
    6127, 
    6128, 
    6129, 
    6130, 
    6131, 
    6132, 
    6133, 
    6134, 
    6136, 
    6137, 
    6138, 
    6139, 
    6143, 
    6144, 
    6145, 
    6146, 
    6147, 
    6148, 
    6149, 
    6150, 
    6151, 
    6152, 
    6154, 
    6155, 
    6156, 
    6157, 
    6158, 
    6159, 
    6160, 
    6161, 
    6162, 
    6166, 
    6167, 
    6168, 
    6169, 
    6170, 
    6171, 
    6172, 
    6173, 
    6174, 
    6175, 
    6177, 
    6178, 
    6179, 
    6180, 
    6184, 
    6185, 
    6186, 
    6187, 
    6188, 
    6189, 
    6190, 
    6191, 
    6192, 
    6193, 
    6195, 
    6196, 
    6197, 
    6198, 
    6202, 
    6203, 
    6204, 
    6205, 
    6206, 
    6207, 
    6208, 
    6209, 
    6210, 
    6211, 
    6213, 
    6214, 
    6215, 
    6216, 
    6217, 
    6218, 
    6219, 
    6220, 
    6221, 
    6225, 
    6226, 
    6227, 
    6228, 
    6229, 
    6230, 
    6231, 
    6232, 
    6233, 
    6234, 
    6236, 
    6237, 
    6238, 
    6239, 
    6243, 
    6244, 
    6245, 
    6246, 
    6247, 
    6248, 
    6249, 
    6250, 
    6251, 
    6252, 
    6254, 
    6255, 
    6256, 
    6257, 
    6261, 
    6262, 
    6263, 
    6264, 
    6265, 
    6266, 
    6267, 
    6268, 
    6269, 
    6270, 
    6272, 
    6273, 
    6274, 
    6275, 
    6276, 
    6277, 
    6278, 
    6279, 
    6280, 
    6284, 
    6285, 
    6286, 
    6287, 
    6288, 
    6289, 
    6290, 
    6291, 
    6292, 
    6293, 
    6295, 
    6296, 
    6297, 
    6298, 
    6302, 
    6303, 
    6304, 
    6305, 
    6306, 
    6307, 
    6308, 
    6309, 
    6310, 
    6311, 
    6313, 
    6314, 
    6315, 
    6316, 
    6320, 
    6321, 
    6322, 
    6323, 
    6324, 
    6325, 
    6326, 
    6327, 
    6328, 
    6329, 
    6331, 
    6332, 
    6333, 
    6334, 
    6335, 
    6336, 
    6337, 
    6338, 
    6339, 
    6343, 
    6344, 
    6345, 
    6346, 
    6347, 
    6348, 
    6349, 
    6350, 
    6351, 
    6352, 
    6354, 
    6355, 
    6356, 
    6357, 
    6361, 
    6362, 
    6363, 
    6364, 
    6365, 
    6366, 
    6367, 
    6368, 
    6369, 
    6370, 
    6372, 
    6373, 
    6374, 
    6375, 
    6379, 
    6380, 
    6381, 
    6382, 
    6383, 
    6384, 
    6385, 
    6386, 
    6387, 
    6388, 
    6390, 
    6391, 
    6392, 
    6393, 
    6394, 
    6395, 
    6396, 
    6397, 
    6398, 
    6402, 
    6403, 
    6404, 
    6405, 
    6406, 
    6407, 
    6408, 
    6409, 
    6410, 
    6411, 
    6413, 
    6414, 
    6415, 
    6416, 
    6420, 
    6421, 
    6422, 
    6423, 
    6424, 
    6425, 
    6426, 
    6427, 
    6428, 
    6429, 
    6431, 
    6432, 
    6433, 
    6434, 
    6438, 
    6439, 
    6440, 
    6441, 
    6442, 
    6443, 
    6444, 
    6445, 
    6446, 
    6447, 
    6449, 
    6450, 
    6451, 
    6452, 
    6453, 
    6454, 
    6455, 
    6456, 
    6457, 
    6461, 
    6462, 
    6463, 
    6464, 
    6465, 
    6466, 
    6467, 
    6468, 
    6469, 
    6470, 
    6472, 
    6473, 
    6474, 
    6475, 
    6479, 
    6480, 
    6481, 
    6482, 
    6483, 
    6484, 
    6485, 
    6486, 
    6487, 
    6488, 
    6490, 
    6491, 
    6492, 
    6493, 
    6497, 
    6498, 
    6499, 
    6500, 
    6501, 
    6502, 
    6503, 
    6504, 
    6505, 
    6506, 
    6508, 
    6509, 
    6510, 
    6511, 
    6512, 
    6513, 
    6514, 
    6515, 
    6516, 
    6520, 
    6521, 
    6522, 
    6523, 
    6524, 
    6525, 
    6526, 
    6527, 
    6528, 
    6529, 
    6531, 
    6532, 
    6533, 
    6534, 
    6538, 
    6539, 
    6540, 
    6541, 
    6542, 
    6543, 
    6544, 
    6545, 
    6546, 
    6547, 
    6549, 
    6550, 
    6551, 
    6552, 
    6556, 
    6557, 
    6558, 
    6559, 
    6560, 
    6561, 
    6562, 
    6563, 
    6564, 
    6565, 
    6567, 
    6568, 
    6569, 
    6570, 
    6571, 
    6572, 
    6573, 
    6574, 
    6575, 
    6579, 
    6580, 
    6581, 
    6582, 
    6583, 
    6584, 
    6585, 
    6586, 
    6587, 
    6588, 
    6590, 
    6591, 
    6592, 
    6593, 
    6597, 
    6598, 
    6599, 
    6600, 
    6601, 
    6602, 
    6603, 
    6604, 
    6605, 
    6606, 
    6608, 
    6609, 
    6610, 
    6611, 
    6615, 
    6616, 
    6617, 
    6618, 
    6619, 
    6620, 
    6621, 
    6622, 
    6623, 
    6624, 
    6626, 
    6627, 
    6628, 
    6629, 
    6630, 
    6631, 
    6632, 
    6633, 
    6634, 
    6638, 
    6639, 
    6640, 
    6641, 
    6642, 
    6643, 
    6644, 
    6645, 
    6646, 
    6647, 
    6649, 
    6650, 
    6651, 
    6652, 
    6656, 
    6657, 
    6658, 
    6659, 
    6660, 
    6661, 
    6662, 
    6663, 
    6664, 
    6665, 
    6667, 
    6668, 
    6669, 
    6670, 
    6674, 
    6675, 
    6676, 
    6677, 
    6678, 
    6679, 
    6680, 
    6681, 
    6682, 
    6683, 
    6685, 
    6686, 
    6687, 
    6688, 
    6689, 
    6690, 
    6691, 
    6692, 
    6693, 
    6697, 
    6698, 
    6699, 
    6700, 
    6701, 
    6702, 
    6703, 
    6704, 
    6705, 
    6706, 
    6708, 
    6709, 
    6710, 
    6711, 
    6715, 
    6716, 
    6717, 
    6718, 
    6719, 
    6720, 
    6721, 
    6722, 
    6723, 
    6724, 
    6726, 
    6727, 
    6728, 
    6729, 
    6733, 
    6734, 
    6735, 
    6736, 
    6737, 
    6738, 
    6739, 
    6740, 
    6741, 
    6742, 
    6744, 
    6745, 
    6746, 
    6747, 
    6748, 
    6749, 
    6750, 
    6751, 
    6752, 
    6756, 
    6757, 
    6758, 
    6759, 
    6760, 
    6761, 
    6762, 
    6763, 
    6764, 
    6765, 
    6767, 
    6768, 
    6769, 
    6770, 
    6774, 
    6775, 
    6776, 
    6777, 
    6778, 
    6779, 
    6780, 
    6781, 
    6782, 
    6783, 
    6785, 
    6786, 
    6787, 
    6788, 
    6792, 
    6793, 
    6794, 
    6795, 
    6796, 
    6797, 
    6798, 
    6799, 
    6800, 
    6801, 
    6803, 
    6804, 
    6805, 
    6806, 
    6807, 
    6808, 
    6809, 
    6810, 
    6811, 
    6815, 
    6816, 
    6817, 
    6818, 
    6819, 
    6820, 
    6821, 
    6822, 
    6823, 
    6824, 
    6826, 
    6827, 
    6828, 
    6829, 
    6833, 
    6834, 
    6835, 
    6836, 
    6837, 
    6838, 
    6839, 
    6840, 
    6841, 
    6842, 
    6844, 
    6845, 
    6846, 
    6847, 
    6851, 
    6852, 
    6853, 
    6854, 
    6855, 
    6856, 
    6857, 
    6858, 
    6859, 
    6860, 
    6862, 
    6863, 
    6864, 
    6865, 
    6866, 
    6867, 
    6868, 
    6869, 
    6870, 
    6874, 
    6875, 
    6876, 
    6877, 
    6878, 
    6879, 
    6880, 
    6881, 
    6882, 
    6883, 
    6885, 
    6886, 
    6887, 
    6888, 
    6892, 
    6893, 
    6894, 
    6895, 
    6896, 
    6897, 
    6898, 
    6899, 
    6900, 
    6901, 
    6903, 
    6904, 
    6905, 
    6906, 
    6910, 
    6911, 
    6912, 
    6913, 
    6914, 
    6915, 
    6916, 
    6917, 
    6918, 
    6919, 
    6921, 
    6922, 
    6923, 
    6924, 
    6925, 
    6926, 
    6927, 
    6928, 
    6929, 
    6933, 
    6934, 
    6935, 
    6936, 
    6937, 
    6938, 
    6939, 
    6940, 
    6941, 
    6942, 
    6944, 
    6945, 
    6946, 
    6947, 
    6951, 
    6952, 
    6953, 
    6954, 
    6955, 
    6956, 
    6957, 
    6958, 
    6959, 
    6960, 
    6962, 
    6963, 
    6964, 
    6965, 
    6969, 
    6970, 
    6971, 
    6972, 
    6973, 
    6974, 
    6975, 
    6976, 
    6977, 
    6978, 
    6980, 
    6981, 
    6982, 
    6983, 
    6984, 
    6985, 
    6986, 
    6987, 
    6988, 
    6992, 
    6993, 
    6994, 
    6995, 
    6996, 
    6997, 
    6998, 
    6999, 
    7000, 
    7001, 
    7003, 
    7004, 
    7005, 
    7006, 
    7010, 
    7011, 
    7012, 
    7013, 
    7014, 
    7015, 
    7016, 
    7017, 
    7018, 
    7019, 
    7021, 
    7022, 
    7023, 
    7024, 
    7028, 
    7029, 
    7030, 
    7031, 
    7032, 
    7033, 
    7034, 
    7035, 
    7036, 
    7037, 
    7039, 
    7040, 
    7041, 
    7042, 
    7043, 
    7044, 
    7045, 
    7046, 
    7047, 
    7051, 
    7052, 
    7053, 
    7054, 
    7055, 
    7056, 
    7057, 
    7058, 
    7059, 
    7060, 
    7062, 
    7063, 
    7064, 
    7065, 
    7069, 
    7070, 
    7071, 
    7072, 
    7073, 
    7074, 
    7075, 
    7076, 
    7077, 
    7078, 
    7080, 
    7081, 
    7082, 
    7083, 
    7087, 
    7088, 
    7089, 
    7090, 
    7091, 
    7092, 
    7093, 
    7094, 
    7095, 
    7096, 
    7098, 
    7099, 
    7100, 
    7101, 
    7102, 
    7103, 
    7104, 
    7105, 
    7106, 
    7110, 
    7111, 
    7112, 
    7113, 
    7114, 
    7115, 
    7116, 
    7117, 
    7118, 
    7119, 
    7121, 
    7122, 
    7123, 
    7124, 
    7128, 
    7129, 
    7130, 
    7131, 
    7132, 
    7133, 
    7134, 
    7135, 
    7136, 
    7137, 
    7139, 
    7140, 
    7141, 
    7142, 
    7146, 
    7147, 
    7148, 
    7149, 
    7150, 
    7151, 
    7152, 
    7153, 
    7154, 
    7155, 
    7157, 
    7158, 
    7159, 
    7160, 
    7161, 
    7162, 
    7163, 
    7164, 
    7165, 
    7169, 
    7170, 
    7171, 
    7172, 
    7173, 
    7174, 
    7175, 
    7176, 
    7177, 
    7178, 
    7180, 
    7181, 
    7182, 
    7183, 
    7187, 
    7188, 
    7189, 
    7190, 
    7191, 
    7192, 
    7193, 
    7194, 
    7195, 
    7196, 
    7198, 
    7199, 
    7200, 
    7201, 
    7205, 
    7206, 
    7207, 
    7208, 
    7209, 
    7210, 
    7211, 
    7212, 
    7213, 
    7214, 
    7216, 
    7217, 
    7218, 
    7219, 
    7220, 
    7221, 
    7222, 
    7223, 
    7224, 
    7228, 
    7229, 
    7230, 
    7231, 
    7232, 
    7233, 
    7234, 
    7235, 
    7236, 
    7237, 
    7239, 
    7240, 
    7241, 
    7242, 
    7246, 
    7247, 
    7248, 
    7249, 
    7250, 
    7251, 
    7252, 
    7253, 
    7254, 
    7255, 
    7257, 
    7258, 
    7259, 
    7260, 
    7264, 
    7265, 
    7266, 
    7267, 
    7268, 
    7269, 
    7270, 
    7271, 
    7272, 
    7273, 
    7275, 
    7276, 
    7277, 
    7278, 
    7279, 
    7280, 
    7281, 
    7282, 
    7283, 
    7287, 
    7288, 
    7289, 
    7290, 
    7291, 
    7292, 
    7293, 
    7294, 
    7295, 
    7296, 
    7298, 
    7299, 
    7300, 
    7301, 
    7305, 
    7306, 
    7307, 
    7308, 
    7309, 
    7310, 
    7311, 
    7312, 
    7313, 
    7314, 
    7316, 
    7317, 
    7318, 
    7319, 
    7323, 
    7324, 
    7325, 
    7326, 
    7327, 
    7328, 
    7329, 
    7330, 
    7331, 
    7332, 
    7334, 
    7335, 
    7336, 
    7337, 
    7338, 
    7339, 
    7340, 
    7341, 
    7342, 
    7346, 
    7347, 
    7348, 
    7349, 
    7350, 
    7351, 
    7352, 
    7353, 
    7354, 
    7355, 
    7357, 
    7358, 
    7359, 
    7360, 
    7364, 
    7365, 
    7366, 
    7367, 
    7368, 
    7369, 
    7370, 
    7371, 
    7372, 
    7373, 
    7375, 
    7376, 
    7377, 
    7378, 
    7382, 
    7383, 
    7384, 
    7385, 
    7386, 
    7387, 
    7388, 
    7389, 
    7390, 
    7391, 
    7393, 
    7394, 
    7395, 
    7396, 
    7397, 
    7398, 
    7399, 
    7400, 
    7401, 
    7405, 
    7406, 
    7407, 
    7408, 
    7409, 
    7410, 
    7411, 
    7412, 
    7413, 
    7414, 
    7416, 
    7417, 
    7418, 
    7419, 
    7423, 
    7424, 
    7425, 
    7426, 
    7427, 
    7428, 
    7429, 
    7430, 
    7431, 
    7432, 
    7434, 
    7435, 
    7436, 
    7437, 
    7441, 
    7442, 
    7443, 
    7444, 
    7445, 
    7446, 
    7447, 
    7448, 
    7449, 
    7450, 
    7452, 
    7453, 
    7454, 
    7455, 
    7456, 
    7457, 
    7458, 
    7459, 
    7460, 
    7464, 
    7465, 
    7466, 
    7467, 
    7468, 
    7469, 
    7470, 
    7471, 
    7472, 
    7473, 
    7475, 
    7476, 
    7477, 
    7478, 
    7482, 
    7483, 
    7484, 
    7485, 
    7486, 
    7487, 
    7488, 
    7489, 
    7490, 
    7491, 
    7493, 
    7494, 
    7495, 
    7496, 
    7500, 
    7501, 
    7502, 
    7503, 
    7504, 
    7505, 
    7506, 
    7507, 
    7508, 
    7509, 
    7511, 
    7512, 
    7513, 
    7514, 
    7515, 
    7516, 
    7517, 
    7518, 
    7519, 
    7523, 
    7524, 
    7525, 
    7526, 
    7527, 
    7528, 
    7529, 
    7530, 
    7531, 
    7532, 
    7534, 
    7535, 
    7536, 
    7537, 
    7541, 
    7542, 
    7543, 
    7544, 
    7545, 
    7546, 
    7547, 
    7548, 
    7549, 
    7550, 
    7552, 
    7553, 
    7554, 
    7555, 
    7559, 
    7560, 
    7561, 
    7562, 
    7563, 
    7564, 
    7565, 
    7566, 
    7567, 
    7568, 
    7570, 
    7571, 
    7572, 
    7573, 
    7574, 
    7575, 
    7576, 
    7577, 
    7578, 
    7582, 
    7583, 
    7584, 
    7585, 
    7586, 
    7587, 
    7588, 
    7589, 
    7590, 
    7591, 
    7593, 
    7594, 
    7595, 
    7596, 
    7600, 
    7601, 
    7602, 
    7603, 
    7604, 
    7605, 
    7606, 
    7607, 
    7608, 
    7609, 
    7611, 
    7612, 
    7613, 
    7614, 
    7618, 
    7619, 
    7620, 
    7621, 
    7622, 
    7623, 
    7624, 
    7625, 
    7626, 
    7627, 
    7629, 
    7630, 
    7631, 
    7632
  ], 
  "heads": [
    [67, 0, 0], 
    [114, 0, 0], 
    [161, 0, 0], 
    [208, 0, 0], 
    [255, 0, 0], 
    [302, 0, 0], 
    [349, 0, 0], 
    [396, 0, 0], 
    [443, 0, 0], 
    [490, 0, 0], 
    [537, 0, 0], 
    [584, 0, 0], 
    [631, 0, 0], 
    [678, 0, 0], 
    [725, 0, 0], 
    [772, 0, 0], 
    [819, 0, 0], 
    [866, 0, 0], 
    [913, 0, 0], 
    [960, 0, 0], 
    [1007, 0, 0], 
    [1054, 0, 0], 
    [1101, 0, 0], 
    [1148, 0, 0], 
    [1195, 0, 0], 
    [1242, 0, 0], 
    [1289, 0, 0], 
    [1336, 0, 0], 
    [1383, 0, 0], 
    [1430, 0, 0], 
    [1477, 0, 0], 
    [1524, 0, 0], 
    [1571, 0, 0], 
    [1618, 0, 0], 
    [1665, 0, 0], 
    [1712, 0, 0], 
    [1759, 0, 0], 
    [1806, 0, 0], 
    [1853, 0, 0], 
    [1900, 0, 0], 
    [1947, 0, 0], 
    [1994, 0, 0], 
    [2041, 0, 0], 
    [2088, 0, 0], 
    [2135, 0, 0], 
    [2182, 0, 0], 
    [2229, 0, 0], 
    [2276, 0, 0], 
    [2323, 0, 0], 
    [2370, 0, 0], 
    [2417, 0, 0], 
    [2464, 0, 0], 
    [2511, 0, 0], 
    [2558, 0, 0], 
    [2605, 0, 0], 
    [2652, 0, 0], 
    [2699, 0, 0], 
    [2746, 0, 0], 
    [2793, 0, 0], 
    [2840, 0, 0], 
    [2887, 0, 0], 
    [2934, 0, 0], 
    [2981, 0, 0], 
    [3028, 0, 0], 
    [3075, 0, 0], 
    [3122, 0, 0], 
    [3169, 0, 0], 
    [3216, 0, 0], 
    [3263, 0, 0], 
    [3310, 0, 0], 
    [3357, 0, 0], 
    [3404, 0, 0], 
    [3451, 0, 0], 
    [3498, 0, 0], 
    [3545, 0, 0], 
    [3592, 0, 0], 
    [3639, 0, 0], 
    [3686, 0, 0], 
    [3733, 0, 0], 
    [3780, 0, 0], 
    [3827, 0, 0], 
    [3874, 0, 0], 
    [3921, 0, 0], 
    [3968, 0, 0], 
    [4015, 0, 0], 
    [4062, 0, 0], 
    [4109, 0, 0], 
    [4156, 0, 0], 
    [4203, 0, 0], 
    [4250, 0, 0], 
    [4297, 0, 0], 
    [4344, 0, 0], 
    [4391, 0, 0], 
    [4438, 0, 0], 
    [4485, 0, 0], 
    [4532, 0, 0], 
    [4579, 0, 0], 
    [4626, 0, 0], 
    [4673, 0, 0], 
    [4720, 0, 0], 
    [4767, 0, 0], 
    [4814, 0, 0], 
    [4861, 0, 0], 
    [4908, 0, 0], 
    [4955, 0, 0], 
    [5002, 0, 0], 
    [5049, 0, 0], 
    [5096, 0, 0], 
    [5143, 0, 0], 
    [5190, 0, 0], 
    [5237, 0, 0], 
    [5284, 0, 0], 
    [5331, 0, 0], 
    [5378, 0, 0], 
    [5425, 0, 0], 
    [5472, 0, 0], 
    [5519, 0, 0], 
    [5566, 0, 0], 
    [5613, 0, 0], 
    [5660, 0, 0], 
    [5707, 0, 0], 
    [5754, 0, 0], 
    [5801, 0, 0], 
    [5848, 0, 0], 
    [5895, 0, 0], 
    [5942, 0, 0], 
    [5989, 0, 0], 
    [6036, 0, 0], 
    [6083, 0, 0]
  ], 
  "attrs": {"mxnet_version": ["int", 904]}
}