{
  "nodes": [
    {
      "op": "null", 
      "name": "data", 
      "inputs": []
    }, 
    {
      "op": "null", 
      "name": "embed_weight", 
      "inputs": []
    }, 
    {
      "op": "Embedding", 
      "name": "embedding3", 
      "attr": {
        "input_dim": "80963", 
        "output_dim": "100"
      }, 
      "inputs": [[0, 0, 0], [1, 0, 0]]
    }, 
    {
      "op": "SliceChannel", 
      "name": "slicechannel3", 
      "attr": {
        "num_outputs": "200", 
        "squeeze_axis": "1"
      }, 
      "inputs": [[2, 0, 0]]
    }, 
    {
      "op": "null", 
      "name": "l0_i2h_weight", 
      "inputs": []
    }, 
    {
      "op": "null", 
      "name": "l0_i2h_bias", 
      "inputs": []
    }, 
    {
      "op": "FullyConnected", 
      "name": "t199_l0_i2h", 
      "attr": {"num_hidden": "200"}, 
      "inputs": [[3, 199, 0], [4, 0, 0], [5, 0, 0]]
    }, 
    {
      "op": "FullyConnected", 
      "name": "t198_l0_i2h", 
      "attr": {"num_hidden": "200"}, 
      "inputs": [[3, 198, 0], [4, 0, 0], [5, 0, 0]]
    }, 
    {
      "op": "FullyConnected", 
      "name": "t197_l0_i2h", 
      "attr": {"num_hidden": "200"}, 
      "inputs": [[3, 197, 0], [4, 0, 0], [5, 0, 0]]
    }, 
    {
      "op": "FullyConnected", 
      "name": "t196_l0_i2h", 
      "attr": {"num_hidden": "200"}, 
      "inputs": [[3, 196, 0], [4, 0, 0], [5, 0, 0]]
    }, 
    {
      "op": "FullyConnected", 
      "name": "t195_l0_i2h", 
      "attr": {"num_hidden": "200"}, 
      "inputs": [[3, 195, 0], [4, 0, 0], [5, 0, 0]]
    }, 
    {
      "op": "FullyConnected", 
      "name": "t194_l0_i2h", 
      "attr": {"num_hidden": "200"}, 
      "inputs": [[3, 194, 0], [4, 0, 0], [5, 0, 0]]
    }, 
    {
      "op": "FullyConnected", 
      "name": "t193_l0_i2h", 
      "attr": {"num_hidden": "200"}, 
      "inputs": [[3, 193, 0], [4, 0, 0], [5, 0, 0]]
    }, 
    {
      "op": "FullyConnected", 
      "name": "t192_l0_i2h", 
      "attr": {"num_hidden": "200"}, 
      "inputs": [[3, 192, 0], [4, 0, 0], [5, 0, 0]]
    }, 
    {
      "op": "FullyConnected", 
      "name": "t191_l0_i2h", 
      "attr": {"num_hidden": "200"}, 
      "inputs": [[3, 191, 0], [4, 0, 0], [5, 0, 0]]
    }, 
    {
      "op": "FullyConnected", 
      "name": "t190_l0_i2h", 
      "attr": {"num_hidden": "200"}, 
      "inputs": [[3, 190, 0], [4, 0, 0], [5, 0, 0]]
    }, 
    {
      "op": "FullyConnected", 
      "name": "t189_l0_i2h", 
      "attr": {"num_hidden": "200"}, 
      "inputs": [[3, 189, 0], [4, 0, 0], [5, 0, 0]]
    }, 
    {
      "op": "FullyConnected", 
      "name": "t188_l0_i2h", 
      "attr": {"num_hidden": "200"}, 
      "inputs": [[3, 188, 0], [4, 0, 0], [5, 0, 0]]
    }, 
    {
      "op": "FullyConnected", 
      "name": "t187_l0_i2h", 
      "attr": {"num_hidden": "200"}, 
      "inputs": [[3, 187, 0], [4, 0, 0], [5, 0, 0]]
    }, 
    {
      "op": "FullyConnected", 
      "name": "t186_l0_i2h", 
      "attr": {"num_hidden": "200"}, 
      "inputs": [[3, 186, 0], [4, 0, 0], [5, 0, 0]]
    }, 
    {
      "op": "FullyConnected", 
      "name": "t185_l0_i2h", 
      "attr": {"num_hidden": "200"}, 
      "inputs": [[3, 185, 0], [4, 0, 0], [5, 0, 0]]
    }, 
    {
      "op": "FullyConnected", 
      "name": "t184_l0_i2h", 
      "attr": {"num_hidden": "200"}, 
      "inputs": [[3, 184, 0], [4, 0, 0], [5, 0, 0]]
    }, 
    {
      "op": "FullyConnected", 
      "name": "t183_l0_i2h", 
      "attr": {"num_hidden": "200"}, 
      "inputs": [[3, 183, 0], [4, 0, 0], [5, 0, 0]]
    }, 
    {
      "op": "FullyConnected", 
      "name": "t182_l0_i2h", 
      "attr": {"num_hidden": "200"}, 
      "inputs": [[3, 182, 0], [4, 0, 0], [5, 0, 0]]
    }, 
    {
      "op": "FullyConnected", 
      "name": "t181_l0_i2h", 
      "attr": {"num_hidden": "200"}, 
      "inputs": [[3, 181, 0], [4, 0, 0], [5, 0, 0]]
    }, 
    {
      "op": "FullyConnected", 
      "name": "t180_l0_i2h", 
      "attr": {"num_hidden": "200"}, 
      "inputs": [[3, 180, 0], [4, 0, 0], [5, 0, 0]]
    }, 
    {
      "op": "FullyConnected", 
      "name": "t179_l0_i2h", 
      "attr": {"num_hidden": "200"}, 
      "inputs": [[3, 179, 0], [4, 0, 0], [5, 0, 0]]
    }, 
    {
      "op": "FullyConnected", 
      "name": "t178_l0_i2h", 
      "attr": {"num_hidden": "200"}, 
      "inputs": [[3, 178, 0], [4, 0, 0], [5, 0, 0]]
    }, 
    {
      "op": "FullyConnected", 
      "name": "t177_l0_i2h", 
      "attr": {"num_hidden": "200"}, 
      "inputs": [[3, 177, 0], [4, 0, 0], [5, 0, 0]]
    }, 
    {
      "op": "FullyConnected", 
      "name": "t176_l0_i2h", 
      "attr": {"num_hidden": "200"}, 
      "inputs": [[3, 176, 0], [4, 0, 0], [5, 0, 0]]
    }, 
    {
      "op": "FullyConnected", 
      "name": "t175_l0_i2h", 
      "attr": {"num_hidden": "200"}, 
      "inputs": [[3, 175, 0], [4, 0, 0], [5, 0, 0]]
    }, 
    {
      "op": "FullyConnected", 
      "name": "t174_l0_i2h", 
      "attr": {"num_hidden": "200"}, 
      "inputs": [[3, 174, 0], [4, 0, 0], [5, 0, 0]]
    }, 
    {
      "op": "FullyConnected", 
      "name": "t173_l0_i2h", 
      "attr": {"num_hidden": "200"}, 
      "inputs": [[3, 173, 0], [4, 0, 0], [5, 0, 0]]
    }, 
    {
      "op": "FullyConnected", 
      "name": "t172_l0_i2h", 
      "attr": {"num_hidden": "200"}, 
      "inputs": [[3, 172, 0], [4, 0, 0], [5, 0, 0]]
    }, 
    {
      "op": "FullyConnected", 
      "name": "t171_l0_i2h", 
      "attr": {"num_hidden": "200"}, 
      "inputs": [[3, 171, 0], [4, 0, 0], [5, 0, 0]]
    }, 
    {
      "op": "FullyConnected", 
      "name": "t170_l0_i2h", 
      "attr": {"num_hidden": "200"}, 
      "inputs": [[3, 170, 0], [4, 0, 0], [5, 0, 0]]
    }, 
    {
      "op": "FullyConnected", 
      "name": "t169_l0_i2h", 
      "attr": {"num_hidden": "200"}, 
      "inputs": [[3, 169, 0], [4, 0, 0], [5, 0, 0]]
    }, 
    {
      "op": "FullyConnected", 
      "name": "t168_l0_i2h", 
      "attr": {"num_hidden": "200"}, 
      "inputs": [[3, 168, 0], [4, 0, 0], [5, 0, 0]]
    }, 
    {
      "op": "FullyConnected", 
      "name": "t167_l0_i2h", 
      "attr": {"num_hidden": "200"}, 
      "inputs": [[3, 167, 0], [4, 0, 0], [5, 0, 0]]
    }, 
    {
      "op": "FullyConnected", 
      "name": "t166_l0_i2h", 
      "attr": {"num_hidden": "200"}, 
      "inputs": [[3, 166, 0], [4, 0, 0], [5, 0, 0]]
    }, 
    {
      "op": "FullyConnected", 
      "name": "t165_l0_i2h", 
      "attr": {"num_hidden": "200"}, 
      "inputs": [[3, 165, 0], [4, 0, 0], [5, 0, 0]]
    }, 
    {
      "op": "FullyConnected", 
      "name": "t164_l0_i2h", 
      "attr": {"num_hidden": "200"}, 
      "inputs": [[3, 164, 0], [4, 0, 0], [5, 0, 0]]
    }, 
    {
      "op": "FullyConnected", 
      "name": "t163_l0_i2h", 
      "attr": {"num_hidden": "200"}, 
      "inputs": [[3, 163, 0], [4, 0, 0], [5, 0, 0]]
    }, 
    {
      "op": "FullyConnected", 
      "name": "t162_l0_i2h", 
      "attr": {"num_hidden": "200"}, 
      "inputs": [[3, 162, 0], [4, 0, 0], [5, 0, 0]]
    }, 
    {
      "op": "FullyConnected", 
      "name": "t161_l0_i2h", 
      "attr": {"num_hidden": "200"}, 
      "inputs": [[3, 161, 0], [4, 0, 0], [5, 0, 0]]
    }, 
    {
      "op": "FullyConnected", 
      "name": "t160_l0_i2h", 
      "attr": {"num_hidden": "200"}, 
      "inputs": [[3, 160, 0], [4, 0, 0], [5, 0, 0]]
    }, 
    {
      "op": "FullyConnected", 
      "name": "t159_l0_i2h", 
      "attr": {"num_hidden": "200"}, 
      "inputs": [[3, 159, 0], [4, 0, 0], [5, 0, 0]]
    }, 
    {
      "op": "FullyConnected", 
      "name": "t158_l0_i2h", 
      "attr": {"num_hidden": "200"}, 
      "inputs": [[3, 158, 0], [4, 0, 0], [5, 0, 0]]
    }, 
    {
      "op": "FullyConnected", 
      "name": "t157_l0_i2h", 
      "attr": {"num_hidden": "200"}, 
      "inputs": [[3, 157, 0], [4, 0, 0], [5, 0, 0]]
    }, 
    {
      "op": "FullyConnected", 
      "name": "t156_l0_i2h", 
      "attr": {"num_hidden": "200"}, 
      "inputs": [[3, 156, 0], [4, 0, 0], [5, 0, 0]]
    }, 
    {
      "op": "FullyConnected", 
      "name": "t155_l0_i2h", 
      "attr": {"num_hidden": "200"}, 
      "inputs": [[3, 155, 0], [4, 0, 0], [5, 0, 0]]
    }, 
    {
      "op": "FullyConnected", 
      "name": "t154_l0_i2h", 
      "attr": {"num_hidden": "200"}, 
      "inputs": [[3, 154, 0], [4, 0, 0], [5, 0, 0]]
    }, 
    {
      "op": "FullyConnected", 
      "name": "t153_l0_i2h", 
      "attr": {"num_hidden": "200"}, 
      "inputs": [[3, 153, 0], [4, 0, 0], [5, 0, 0]]
    }, 
    {
      "op": "FullyConnected", 
      "name": "t152_l0_i2h", 
      "attr": {"num_hidden": "200"}, 
      "inputs": [[3, 152, 0], [4, 0, 0], [5, 0, 0]]
    }, 
    {
      "op": "FullyConnected", 
      "name": "t151_l0_i2h", 
      "attr": {"num_hidden": "200"}, 
      "inputs": [[3, 151, 0], [4, 0, 0], [5, 0, 0]]
    }, 
    {
      "op": "FullyConnected", 
      "name": "t150_l0_i2h", 
      "attr": {"num_hidden": "200"}, 
      "inputs": [[3, 150, 0], [4, 0, 0], [5, 0, 0]]
    }, 
    {
      "op": "FullyConnected", 
      "name": "t149_l0_i2h", 
      "attr": {"num_hidden": "200"}, 
      "inputs": [[3, 149, 0], [4, 0, 0], [5, 0, 0]]
    }, 
    {
      "op": "FullyConnected", 
      "name": "t148_l0_i2h", 
      "attr": {"num_hidden": "200"}, 
      "inputs": [[3, 148, 0], [4, 0, 0], [5, 0, 0]]
    }, 
    {
      "op": "FullyConnected", 
      "name": "t147_l0_i2h", 
      "attr": {"num_hidden": "200"}, 
      "inputs": [[3, 147, 0], [4, 0, 0], [5, 0, 0]]
    }, 
    {
      "op": "FullyConnected", 
      "name": "t146_l0_i2h", 
      "attr": {"num_hidden": "200"}, 
      "inputs": [[3, 146, 0], [4, 0, 0], [5, 0, 0]]
    }, 
    {
      "op": "FullyConnected", 
      "name": "t145_l0_i2h", 
      "attr": {"num_hidden": "200"}, 
      "inputs": [[3, 145, 0], [4, 0, 0], [5, 0, 0]]
    }, 
    {
      "op": "FullyConnected", 
      "name": "t144_l0_i2h", 
      "attr": {"num_hidden": "200"}, 
      "inputs": [[3, 144, 0], [4, 0, 0], [5, 0, 0]]
    }, 
    {
      "op": "FullyConnected", 
      "name": "t143_l0_i2h", 
      "attr": {"num_hidden": "200"}, 
      "inputs": [[3, 143, 0], [4, 0, 0], [5, 0, 0]]
    }, 
    {
      "op": "FullyConnected", 
      "name": "t142_l0_i2h", 
      "attr": {"num_hidden": "200"}, 
      "inputs": [[3, 142, 0], [4, 0, 0], [5, 0, 0]]
    }, 
    {
      "op": "FullyConnected", 
      "name": "t141_l0_i2h", 
      "attr": {"num_hidden": "200"}, 
      "inputs": [[3, 141, 0], [4, 0, 0], [5, 0, 0]]
    }, 
    {
      "op": "FullyConnected", 
      "name": "t140_l0_i2h", 
      "attr": {"num_hidden": "200"}, 
      "inputs": [[3, 140, 0], [4, 0, 0], [5, 0, 0]]
    }, 
    {
      "op": "FullyConnected", 
      "name": "t139_l0_i2h", 
      "attr": {"num_hidden": "200"}, 
      "inputs": [[3, 139, 0], [4, 0, 0], [5, 0, 0]]
    }, 
    {
      "op": "FullyConnected", 
      "name": "t138_l0_i2h", 
      "attr": {"num_hidden": "200"}, 
      "inputs": [[3, 138, 0], [4, 0, 0], [5, 0, 0]]
    }, 
    {
      "op": "FullyConnected", 
      "name": "t137_l0_i2h", 
      "attr": {"num_hidden": "200"}, 
      "inputs": [[3, 137, 0], [4, 0, 0], [5, 0, 0]]
    }, 
    {
      "op": "FullyConnected", 
      "name": "t136_l0_i2h", 
      "attr": {"num_hidden": "200"}, 
      "inputs": [[3, 136, 0], [4, 0, 0], [5, 0, 0]]
    }, 
    {
      "op": "FullyConnected", 
      "name": "t135_l0_i2h", 
      "attr": {"num_hidden": "200"}, 
      "inputs": [[3, 135, 0], [4, 0, 0], [5, 0, 0]]
    }, 
    {
      "op": "FullyConnected", 
      "name": "t134_l0_i2h", 
      "attr": {"num_hidden": "200"}, 
      "inputs": [[3, 134, 0], [4, 0, 0], [5, 0, 0]]
    }, 
    {
      "op": "FullyConnected", 
      "name": "t133_l0_i2h", 
      "attr": {"num_hidden": "200"}, 
      "inputs": [[3, 133, 0], [4, 0, 0], [5, 0, 0]]
    }, 
    {
      "op": "FullyConnected", 
      "name": "t132_l0_i2h", 
      "attr": {"num_hidden": "200"}, 
      "inputs": [[3, 132, 0], [4, 0, 0], [5, 0, 0]]
    }, 
    {
      "op": "FullyConnected", 
      "name": "t131_l0_i2h", 
      "attr": {"num_hidden": "200"}, 
      "inputs": [[3, 131, 0], [4, 0, 0], [5, 0, 0]]
    }, 
    {
      "op": "FullyConnected", 
      "name": "t130_l0_i2h", 
      "attr": {"num_hidden": "200"}, 
      "inputs": [[3, 130, 0], [4, 0, 0], [5, 0, 0]]
    }, 
    {
      "op": "FullyConnected", 
      "name": "t129_l0_i2h", 
      "attr": {"num_hidden": "200"}, 
      "inputs": [[3, 129, 0], [4, 0, 0], [5, 0, 0]]
    }, 
    {
      "op": "FullyConnected", 
      "name": "t128_l0_i2h", 
      "attr": {"num_hidden": "200"}, 
      "inputs": [[3, 128, 0], [4, 0, 0], [5, 0, 0]]
    }, 
    {
      "op": "FullyConnected", 
      "name": "t127_l0_i2h", 
      "attr": {"num_hidden": "200"}, 
      "inputs": [[3, 127, 0], [4, 0, 0], [5, 0, 0]]
    }, 
    {
      "op": "FullyConnected", 
      "name": "t126_l0_i2h", 
      "attr": {"num_hidden": "200"}, 
      "inputs": [[3, 126, 0], [4, 0, 0], [5, 0, 0]]
    }, 
    {
      "op": "FullyConnected", 
      "name": "t125_l0_i2h", 
      "attr": {"num_hidden": "200"}, 
      "inputs": [[3, 125, 0], [4, 0, 0], [5, 0, 0]]
    }, 
    {
      "op": "FullyConnected", 
      "name": "t124_l0_i2h", 
      "attr": {"num_hidden": "200"}, 
      "inputs": [[3, 124, 0], [4, 0, 0], [5, 0, 0]]
    }, 
    {
      "op": "FullyConnected", 
      "name": "t123_l0_i2h", 
      "attr": {"num_hidden": "200"}, 
      "inputs": [[3, 123, 0], [4, 0, 0], [5, 0, 0]]
    }, 
    {
      "op": "FullyConnected", 
      "name": "t122_l0_i2h", 
      "attr": {"num_hidden": "200"}, 
      "inputs": [[3, 122, 0], [4, 0, 0], [5, 0, 0]]
    }, 
    {
      "op": "FullyConnected", 
      "name": "t121_l0_i2h", 
      "attr": {"num_hidden": "200"}, 
      "inputs": [[3, 121, 0], [4, 0, 0], [5, 0, 0]]
    }, 
    {
      "op": "FullyConnected", 
      "name": "t120_l0_i2h", 
      "attr": {"num_hidden": "200"}, 
      "inputs": [[3, 120, 0], [4, 0, 0], [5, 0, 0]]
    }, 
    {
      "op": "FullyConnected", 
      "name": "t119_l0_i2h", 
      "attr": {"num_hidden": "200"}, 
      "inputs": [[3, 119, 0], [4, 0, 0], [5, 0, 0]]
    }, 
    {
      "op": "FullyConnected", 
      "name": "t118_l0_i2h", 
      "attr": {"num_hidden": "200"}, 
      "inputs": [[3, 118, 0], [4, 0, 0], [5, 0, 0]]
    }, 
    {
      "op": "FullyConnected", 
      "name": "t117_l0_i2h", 
      "attr": {"num_hidden": "200"}, 
      "inputs": [[3, 117, 0], [4, 0, 0], [5, 0, 0]]
    }, 
    {
      "op": "FullyConnected", 
      "name": "t116_l0_i2h", 
      "attr": {"num_hidden": "200"}, 
      "inputs": [[3, 116, 0], [4, 0, 0], [5, 0, 0]]
    }, 
    {
      "op": "FullyConnected", 
      "name": "t115_l0_i2h", 
      "attr": {"num_hidden": "200"}, 
      "inputs": [[3, 115, 0], [4, 0, 0], [5, 0, 0]]
    }, 
    {
      "op": "FullyConnected", 
      "name": "t114_l0_i2h", 
      "attr": {"num_hidden": "200"}, 
      "inputs": [[3, 114, 0], [4, 0, 0], [5, 0, 0]]
    }, 
    {
      "op": "FullyConnected", 
      "name": "t113_l0_i2h", 
      "attr": {"num_hidden": "200"}, 
      "inputs": [[3, 113, 0], [4, 0, 0], [5, 0, 0]]
    }, 
    {
      "op": "FullyConnected", 
      "name": "t112_l0_i2h", 
      "attr": {"num_hidden": "200"}, 
      "inputs": [[3, 112, 0], [4, 0, 0], [5, 0, 0]]
    }, 
    {
      "op": "FullyConnected", 
      "name": "t111_l0_i2h", 
      "attr": {"num_hidden": "200"}, 
      "inputs": [[3, 111, 0], [4, 0, 0], [5, 0, 0]]
    }, 
    {
      "op": "FullyConnected", 
      "name": "t110_l0_i2h", 
      "attr": {"num_hidden": "200"}, 
      "inputs": [[3, 110, 0], [4, 0, 0], [5, 0, 0]]
    }, 
    {
      "op": "FullyConnected", 
      "name": "t109_l0_i2h", 
      "attr": {"num_hidden": "200"}, 
      "inputs": [[3, 109, 0], [4, 0, 0], [5, 0, 0]]
    }, 
    {
      "op": "FullyConnected", 
      "name": "t108_l0_i2h", 
      "attr": {"num_hidden": "200"}, 
      "inputs": [[3, 108, 0], [4, 0, 0], [5, 0, 0]]
    }, 
    {
      "op": "FullyConnected", 
      "name": "t107_l0_i2h", 
      "attr": {"num_hidden": "200"}, 
      "inputs": [[3, 107, 0], [4, 0, 0], [5, 0, 0]]
    }, 
    {
      "op": "FullyConnected", 
      "name": "t106_l0_i2h", 
      "attr": {"num_hidden": "200"}, 
      "inputs": [[3, 106, 0], [4, 0, 0], [5, 0, 0]]
    }, 
    {
      "op": "FullyConnected", 
      "name": "t105_l0_i2h", 
      "attr": {"num_hidden": "200"}, 
      "inputs": [[3, 105, 0], [4, 0, 0], [5, 0, 0]]
    }, 
    {
      "op": "FullyConnected", 
      "name": "t104_l0_i2h", 
      "attr": {"num_hidden": "200"}, 
      "inputs": [[3, 104, 0], [4, 0, 0], [5, 0, 0]]
    }, 
    {
      "op": "FullyConnected", 
      "name": "t103_l0_i2h", 
      "attr": {"num_hidden": "200"}, 
      "inputs": [[3, 103, 0], [4, 0, 0], [5, 0, 0]]
    }, 
    {
      "op": "FullyConnected", 
      "name": "t102_l0_i2h", 
      "attr": {"num_hidden": "200"}, 
      "inputs": [[3, 102, 0], [4, 0, 0], [5, 0, 0]]
    }, 
    {
      "op": "FullyConnected", 
      "name": "t101_l0_i2h", 
      "attr": {"num_hidden": "200"}, 
      "inputs": [[3, 101, 0], [4, 0, 0], [5, 0, 0]]
    }, 
    {
      "op": "FullyConnected", 
      "name": "t100_l0_i2h", 
      "attr": {"num_hidden": "200"}, 
      "inputs": [[3, 100, 0], [4, 0, 0], [5, 0, 0]]
    }, 
    {
      "op": "FullyConnected", 
      "name": "t99_l0_i2h", 
      "attr": {"num_hidden": "200"}, 
      "inputs": [[3, 99, 0], [4, 0, 0], [5, 0, 0]]
    }, 
    {
      "op": "FullyConnected", 
      "name": "t98_l0_i2h", 
      "attr": {"num_hidden": "200"}, 
      "inputs": [[3, 98, 0], [4, 0, 0], [5, 0, 0]]
    }, 
    {
      "op": "FullyConnected", 
      "name": "t97_l0_i2h", 
      "attr": {"num_hidden": "200"}, 
      "inputs": [[3, 97, 0], [4, 0, 0], [5, 0, 0]]
    }, 
    {
      "op": "FullyConnected", 
      "name": "t96_l0_i2h", 
      "attr": {"num_hidden": "200"}, 
      "inputs": [[3, 96, 0], [4, 0, 0], [5, 0, 0]]
    }, 
    {
      "op": "FullyConnected", 
      "name": "t95_l0_i2h", 
      "attr": {"num_hidden": "200"}, 
      "inputs": [[3, 95, 0], [4, 0, 0], [5, 0, 0]]
    }, 
    {
      "op": "FullyConnected", 
      "name": "t94_l0_i2h", 
      "attr": {"num_hidden": "200"}, 
      "inputs": [[3, 94, 0], [4, 0, 0], [5, 0, 0]]
    }, 
    {
      "op": "FullyConnected", 
      "name": "t93_l0_i2h", 
      "attr": {"num_hidden": "200"}, 
      "inputs": [[3, 93, 0], [4, 0, 0], [5, 0, 0]]
    }, 
    {
      "op": "FullyConnected", 
      "name": "t92_l0_i2h", 
      "attr": {"num_hidden": "200"}, 
      "inputs": [[3, 92, 0], [4, 0, 0], [5, 0, 0]]
    }, 
    {
      "op": "FullyConnected", 
      "name": "t91_l0_i2h", 
      "attr": {"num_hidden": "200"}, 
      "inputs": [[3, 91, 0], [4, 0, 0], [5, 0, 0]]
    }, 
    {
      "op": "FullyConnected", 
      "name": "t90_l0_i2h", 
      "attr": {"num_hidden": "200"}, 
      "inputs": [[3, 90, 0], [4, 0, 0], [5, 0, 0]]
    }, 
    {
      "op": "FullyConnected", 
      "name": "t89_l0_i2h", 
      "attr": {"num_hidden": "200"}, 
      "inputs": [[3, 89, 0], [4, 0, 0], [5, 0, 0]]
    }, 
    {
      "op": "FullyConnected", 
      "name": "t88_l0_i2h", 
      "attr": {"num_hidden": "200"}, 
      "inputs": [[3, 88, 0], [4, 0, 0], [5, 0, 0]]
    }, 
    {
      "op": "FullyConnected", 
      "name": "t87_l0_i2h", 
      "attr": {"num_hidden": "200"}, 
      "inputs": [[3, 87, 0], [4, 0, 0], [5, 0, 0]]
    }, 
    {
      "op": "FullyConnected", 
      "name": "t86_l0_i2h", 
      "attr": {"num_hidden": "200"}, 
      "inputs": [[3, 86, 0], [4, 0, 0], [5, 0, 0]]
    }, 
    {
      "op": "FullyConnected", 
      "name": "t85_l0_i2h", 
      "attr": {"num_hidden": "200"}, 
      "inputs": [[3, 85, 0], [4, 0, 0], [5, 0, 0]]
    }, 
    {
      "op": "FullyConnected", 
      "name": "t84_l0_i2h", 
      "attr": {"num_hidden": "200"}, 
      "inputs": [[3, 84, 0], [4, 0, 0], [5, 0, 0]]
    }, 
    {
      "op": "FullyConnected", 
      "name": "t83_l0_i2h", 
      "attr": {"num_hidden": "200"}, 
      "inputs": [[3, 83, 0], [4, 0, 0], [5, 0, 0]]
    }, 
    {
      "op": "FullyConnected", 
      "name": "t82_l0_i2h", 
      "attr": {"num_hidden": "200"}, 
      "inputs": [[3, 82, 0], [4, 0, 0], [5, 0, 0]]
    }, 
    {
      "op": "FullyConnected", 
      "name": "t81_l0_i2h", 
      "attr": {"num_hidden": "200"}, 
      "inputs": [[3, 81, 0], [4, 0, 0], [5, 0, 0]]
    }, 
    {
      "op": "FullyConnected", 
      "name": "t80_l0_i2h", 
      "attr": {"num_hidden": "200"}, 
      "inputs": [[3, 80, 0], [4, 0, 0], [5, 0, 0]]
    }, 
    {
      "op": "FullyConnected", 
      "name": "t79_l0_i2h", 
      "attr": {"num_hidden": "200"}, 
      "inputs": [[3, 79, 0], [4, 0, 0], [5, 0, 0]]
    }, 
    {
      "op": "FullyConnected", 
      "name": "t78_l0_i2h", 
      "attr": {"num_hidden": "200"}, 
      "inputs": [[3, 78, 0], [4, 0, 0], [5, 0, 0]]
    }, 
    {
      "op": "FullyConnected", 
      "name": "t77_l0_i2h", 
      "attr": {"num_hidden": "200"}, 
      "inputs": [[3, 77, 0], [4, 0, 0], [5, 0, 0]]
    }, 
    {
      "op": "FullyConnected", 
      "name": "t76_l0_i2h", 
      "attr": {"num_hidden": "200"}, 
      "inputs": [[3, 76, 0], [4, 0, 0], [5, 0, 0]]
    }, 
    {
      "op": "FullyConnected", 
      "name": "t75_l0_i2h", 
      "attr": {"num_hidden": "200"}, 
      "inputs": [[3, 75, 0], [4, 0, 0], [5, 0, 0]]
    }, 
    {
      "op": "FullyConnected", 
      "name": "t74_l0_i2h", 
      "attr": {"num_hidden": "200"}, 
      "inputs": [[3, 74, 0], [4, 0, 0], [5, 0, 0]]
    }, 
    {
      "op": "FullyConnected", 
      "name": "t73_l0_i2h", 
      "attr": {"num_hidden": "200"}, 
      "inputs": [[3, 73, 0], [4, 0, 0], [5, 0, 0]]
    }, 
    {
      "op": "FullyConnected", 
      "name": "t72_l0_i2h", 
      "attr": {"num_hidden": "200"}, 
      "inputs": [[3, 72, 0], [4, 0, 0], [5, 0, 0]]
    }, 
    {
      "op": "FullyConnected", 
      "name": "t71_l0_i2h", 
      "attr": {"num_hidden": "200"}, 
      "inputs": [[3, 71, 0], [4, 0, 0], [5, 0, 0]]
    }, 
    {
      "op": "FullyConnected", 
      "name": "t70_l0_i2h", 
      "attr": {"num_hidden": "200"}, 
      "inputs": [[3, 70, 0], [4, 0, 0], [5, 0, 0]]
    }, 
    {
      "op": "FullyConnected", 
      "name": "t69_l0_i2h", 
      "attr": {"num_hidden": "200"}, 
      "inputs": [[3, 69, 0], [4, 0, 0], [5, 0, 0]]
    }, 
    {
      "op": "FullyConnected", 
      "name": "t68_l0_i2h", 
      "attr": {"num_hidden": "200"}, 
      "inputs": [[3, 68, 0], [4, 0, 0], [5, 0, 0]]
    }, 
    {
      "op": "FullyConnected", 
      "name": "t67_l0_i2h", 
      "attr": {"num_hidden": "200"}, 
      "inputs": [[3, 67, 0], [4, 0, 0], [5, 0, 0]]
    }, 
    {
      "op": "FullyConnected", 
      "name": "t66_l0_i2h", 
      "attr": {"num_hidden": "200"}, 
      "inputs": [[3, 66, 0], [4, 0, 0], [5, 0, 0]]
    }, 
    {
      "op": "FullyConnected", 
      "name": "t65_l0_i2h", 
      "attr": {"num_hidden": "200"}, 
      "inputs": [[3, 65, 0], [4, 0, 0], [5, 0, 0]]
    }, 
    {
      "op": "FullyConnected", 
      "name": "t64_l0_i2h", 
      "attr": {"num_hidden": "200"}, 
      "inputs": [[3, 64, 0], [4, 0, 0], [5, 0, 0]]
    }, 
    {
      "op": "FullyConnected", 
      "name": "t63_l0_i2h", 
      "attr": {"num_hidden": "200"}, 
      "inputs": [[3, 63, 0], [4, 0, 0], [5, 0, 0]]
    }, 
    {
      "op": "FullyConnected", 
      "name": "t62_l0_i2h", 
      "attr": {"num_hidden": "200"}, 
      "inputs": [[3, 62, 0], [4, 0, 0], [5, 0, 0]]
    }, 
    {
      "op": "FullyConnected", 
      "name": "t61_l0_i2h", 
      "attr": {"num_hidden": "200"}, 
      "inputs": [[3, 61, 0], [4, 0, 0], [5, 0, 0]]
    }, 
    {
      "op": "FullyConnected", 
      "name": "t60_l0_i2h", 
      "attr": {"num_hidden": "200"}, 
      "inputs": [[3, 60, 0], [4, 0, 0], [5, 0, 0]]
    }, 
    {
      "op": "FullyConnected", 
      "name": "t59_l0_i2h", 
      "attr": {"num_hidden": "200"}, 
      "inputs": [[3, 59, 0], [4, 0, 0], [5, 0, 0]]
    }, 
    {
      "op": "FullyConnected", 
      "name": "t58_l0_i2h", 
      "attr": {"num_hidden": "200"}, 
      "inputs": [[3, 58, 0], [4, 0, 0], [5, 0, 0]]
    }, 
    {
      "op": "FullyConnected", 
      "name": "t57_l0_i2h", 
      "attr": {"num_hidden": "200"}, 
      "inputs": [[3, 57, 0], [4, 0, 0], [5, 0, 0]]
    }, 
    {
      "op": "FullyConnected", 
      "name": "t56_l0_i2h", 
      "attr": {"num_hidden": "200"}, 
      "inputs": [[3, 56, 0], [4, 0, 0], [5, 0, 0]]
    }, 
    {
      "op": "FullyConnected", 
      "name": "t55_l0_i2h", 
      "attr": {"num_hidden": "200"}, 
      "inputs": [[3, 55, 0], [4, 0, 0], [5, 0, 0]]
    }, 
    {
      "op": "FullyConnected", 
      "name": "t54_l0_i2h", 
      "attr": {"num_hidden": "200"}, 
      "inputs": [[3, 54, 0], [4, 0, 0], [5, 0, 0]]
    }, 
    {
      "op": "FullyConnected", 
      "name": "t53_l0_i2h", 
      "attr": {"num_hidden": "200"}, 
      "inputs": [[3, 53, 0], [4, 0, 0], [5, 0, 0]]
    }, 
    {
      "op": "FullyConnected", 
      "name": "t52_l0_i2h", 
      "attr": {"num_hidden": "200"}, 
      "inputs": [[3, 52, 0], [4, 0, 0], [5, 0, 0]]
    }, 
    {
      "op": "FullyConnected", 
      "name": "t51_l0_i2h", 
      "attr": {"num_hidden": "200"}, 
      "inputs": [[3, 51, 0], [4, 0, 0], [5, 0, 0]]
    }, 
    {
      "op": "FullyConnected", 
      "name": "t50_l0_i2h", 
      "attr": {"num_hidden": "200"}, 
      "inputs": [[3, 50, 0], [4, 0, 0], [5, 0, 0]]
    }, 
    {
      "op": "FullyConnected", 
      "name": "t49_l0_i2h", 
      "attr": {"num_hidden": "200"}, 
      "inputs": [[3, 49, 0], [4, 0, 0], [5, 0, 0]]
    }, 
    {
      "op": "FullyConnected", 
      "name": "t48_l0_i2h", 
      "attr": {"num_hidden": "200"}, 
      "inputs": [[3, 48, 0], [4, 0, 0], [5, 0, 0]]
    }, 
    {
      "op": "FullyConnected", 
      "name": "t47_l0_i2h", 
      "attr": {"num_hidden": "200"}, 
      "inputs": [[3, 47, 0], [4, 0, 0], [5, 0, 0]]
    }, 
    {
      "op": "FullyConnected", 
      "name": "t46_l0_i2h", 
      "attr": {"num_hidden": "200"}, 
      "inputs": [[3, 46, 0], [4, 0, 0], [5, 0, 0]]
    }, 
    {
      "op": "FullyConnected", 
      "name": "t45_l0_i2h", 
      "attr": {"num_hidden": "200"}, 
      "inputs": [[3, 45, 0], [4, 0, 0], [5, 0, 0]]
    }, 
    {
      "op": "FullyConnected", 
      "name": "t44_l0_i2h", 
      "attr": {"num_hidden": "200"}, 
      "inputs": [[3, 44, 0], [4, 0, 0], [5, 0, 0]]
    }, 
    {
      "op": "FullyConnected", 
      "name": "t43_l0_i2h", 
      "attr": {"num_hidden": "200"}, 
      "inputs": [[3, 43, 0], [4, 0, 0], [5, 0, 0]]
    }, 
    {
      "op": "FullyConnected", 
      "name": "t42_l0_i2h", 
      "attr": {"num_hidden": "200"}, 
      "inputs": [[3, 42, 0], [4, 0, 0], [5, 0, 0]]
    }, 
    {
      "op": "FullyConnected", 
      "name": "t41_l0_i2h", 
      "attr": {"num_hidden": "200"}, 
      "inputs": [[3, 41, 0], [4, 0, 0], [5, 0, 0]]
    }, 
    {
      "op": "FullyConnected", 
      "name": "t40_l0_i2h", 
      "attr": {"num_hidden": "200"}, 
      "inputs": [[3, 40, 0], [4, 0, 0], [5, 0, 0]]
    }, 
    {
      "op": "FullyConnected", 
      "name": "t39_l0_i2h", 
      "attr": {"num_hidden": "200"}, 
      "inputs": [[3, 39, 0], [4, 0, 0], [5, 0, 0]]
    }, 
    {
      "op": "FullyConnected", 
      "name": "t38_l0_i2h", 
      "attr": {"num_hidden": "200"}, 
      "inputs": [[3, 38, 0], [4, 0, 0], [5, 0, 0]]
    }, 
    {
      "op": "FullyConnected", 
      "name": "t37_l0_i2h", 
      "attr": {"num_hidden": "200"}, 
      "inputs": [[3, 37, 0], [4, 0, 0], [5, 0, 0]]
    }, 
    {
      "op": "FullyConnected", 
      "name": "t36_l0_i2h", 
      "attr": {"num_hidden": "200"}, 
      "inputs": [[3, 36, 0], [4, 0, 0], [5, 0, 0]]
    }, 
    {
      "op": "FullyConnected", 
      "name": "t35_l0_i2h", 
      "attr": {"num_hidden": "200"}, 
      "inputs": [[3, 35, 0], [4, 0, 0], [5, 0, 0]]
    }, 
    {
      "op": "FullyConnected", 
      "name": "t34_l0_i2h", 
      "attr": {"num_hidden": "200"}, 
      "inputs": [[3, 34, 0], [4, 0, 0], [5, 0, 0]]
    }, 
    {
      "op": "FullyConnected", 
      "name": "t33_l0_i2h", 
      "attr": {"num_hidden": "200"}, 
      "inputs": [[3, 33, 0], [4, 0, 0], [5, 0, 0]]
    }, 
    {
      "op": "FullyConnected", 
      "name": "t32_l0_i2h", 
      "attr": {"num_hidden": "200"}, 
      "inputs": [[3, 32, 0], [4, 0, 0], [5, 0, 0]]
    }, 
    {
      "op": "FullyConnected", 
      "name": "t31_l0_i2h", 
      "attr": {"num_hidden": "200"}, 
      "inputs": [[3, 31, 0], [4, 0, 0], [5, 0, 0]]
    }, 
    {
      "op": "FullyConnected", 
      "name": "t30_l0_i2h", 
      "attr": {"num_hidden": "200"}, 
      "inputs": [[3, 30, 0], [4, 0, 0], [5, 0, 0]]
    }, 
    {
      "op": "FullyConnected", 
      "name": "t29_l0_i2h", 
      "attr": {"num_hidden": "200"}, 
      "inputs": [[3, 29, 0], [4, 0, 0], [5, 0, 0]]
    }, 
    {
      "op": "FullyConnected", 
      "name": "t28_l0_i2h", 
      "attr": {"num_hidden": "200"}, 
      "inputs": [[3, 28, 0], [4, 0, 0], [5, 0, 0]]
    }, 
    {
      "op": "FullyConnected", 
      "name": "t27_l0_i2h", 
      "attr": {"num_hidden": "200"}, 
      "inputs": [[3, 27, 0], [4, 0, 0], [5, 0, 0]]
    }, 
    {
      "op": "FullyConnected", 
      "name": "t26_l0_i2h", 
      "attr": {"num_hidden": "200"}, 
      "inputs": [[3, 26, 0], [4, 0, 0], [5, 0, 0]]
    }, 
    {
      "op": "FullyConnected", 
      "name": "t25_l0_i2h", 
      "attr": {"num_hidden": "200"}, 
      "inputs": [[3, 25, 0], [4, 0, 0], [5, 0, 0]]
    }, 
    {
      "op": "FullyConnected", 
      "name": "t24_l0_i2h", 
      "attr": {"num_hidden": "200"}, 
      "inputs": [[3, 24, 0], [4, 0, 0], [5, 0, 0]]
    }, 
    {
      "op": "FullyConnected", 
      "name": "t23_l0_i2h", 
      "attr": {"num_hidden": "200"}, 
      "inputs": [[3, 23, 0], [4, 0, 0], [5, 0, 0]]
    }, 
    {
      "op": "FullyConnected", 
      "name": "t22_l0_i2h", 
      "attr": {"num_hidden": "200"}, 
      "inputs": [[3, 22, 0], [4, 0, 0], [5, 0, 0]]
    }, 
    {
      "op": "FullyConnected", 
      "name": "t21_l0_i2h", 
      "attr": {"num_hidden": "200"}, 
      "inputs": [[3, 21, 0], [4, 0, 0], [5, 0, 0]]
    }, 
    {
      "op": "FullyConnected", 
      "name": "t20_l0_i2h", 
      "attr": {"num_hidden": "200"}, 
      "inputs": [[3, 20, 0], [4, 0, 0], [5, 0, 0]]
    }, 
    {
      "op": "FullyConnected", 
      "name": "t19_l0_i2h", 
      "attr": {"num_hidden": "200"}, 
      "inputs": [[3, 19, 0], [4, 0, 0], [5, 0, 0]]
    }, 
    {
      "op": "FullyConnected", 
      "name": "t18_l0_i2h", 
      "attr": {"num_hidden": "200"}, 
      "inputs": [[3, 18, 0], [4, 0, 0], [5, 0, 0]]
    }, 
    {
      "op": "FullyConnected", 
      "name": "t17_l0_i2h", 
      "attr": {"num_hidden": "200"}, 
      "inputs": [[3, 17, 0], [4, 0, 0], [5, 0, 0]]
    }, 
    {
      "op": "FullyConnected", 
      "name": "t16_l0_i2h", 
      "attr": {"num_hidden": "200"}, 
      "inputs": [[3, 16, 0], [4, 0, 0], [5, 0, 0]]
    }, 
    {
      "op": "FullyConnected", 
      "name": "t15_l0_i2h", 
      "attr": {"num_hidden": "200"}, 
      "inputs": [[3, 15, 0], [4, 0, 0], [5, 0, 0]]
    }, 
    {
      "op": "FullyConnected", 
      "name": "t14_l0_i2h", 
      "attr": {"num_hidden": "200"}, 
      "inputs": [[3, 14, 0], [4, 0, 0], [5, 0, 0]]
    }, 
    {
      "op": "FullyConnected", 
      "name": "t13_l0_i2h", 
      "attr": {"num_hidden": "200"}, 
      "inputs": [[3, 13, 0], [4, 0, 0], [5, 0, 0]]
    }, 
    {
      "op": "FullyConnected", 
      "name": "t12_l0_i2h", 
      "attr": {"num_hidden": "200"}, 
      "inputs": [[3, 12, 0], [4, 0, 0], [5, 0, 0]]
    }, 
    {
      "op": "FullyConnected", 
      "name": "t11_l0_i2h", 
      "attr": {"num_hidden": "200"}, 
      "inputs": [[3, 11, 0], [4, 0, 0], [5, 0, 0]]
    }, 
    {
      "op": "FullyConnected", 
      "name": "t10_l0_i2h", 
      "attr": {"num_hidden": "200"}, 
      "inputs": [[3, 10, 0], [4, 0, 0], [5, 0, 0]]
    }, 
    {
      "op": "FullyConnected", 
      "name": "t9_l0_i2h", 
      "attr": {"num_hidden": "200"}, 
      "inputs": [[3, 9, 0], [4, 0, 0], [5, 0, 0]]
    }, 
    {
      "op": "FullyConnected", 
      "name": "t8_l0_i2h", 
      "attr": {"num_hidden": "200"}, 
      "inputs": [[3, 8, 0], [4, 0, 0], [5, 0, 0]]
    }, 
    {
      "op": "FullyConnected", 
      "name": "t7_l0_i2h", 
      "attr": {"num_hidden": "200"}, 
      "inputs": [[3, 7, 0], [4, 0, 0], [5, 0, 0]]
    }, 
    {
      "op": "FullyConnected", 
      "name": "t6_l0_i2h", 
      "attr": {"num_hidden": "200"}, 
      "inputs": [[3, 6, 0], [4, 0, 0], [5, 0, 0]]
    }, 
    {
      "op": "FullyConnected", 
      "name": "t5_l0_i2h", 
      "attr": {"num_hidden": "200"}, 
      "inputs": [[3, 5, 0], [4, 0, 0], [5, 0, 0]]
    }, 
    {
      "op": "FullyConnected", 
      "name": "t4_l0_i2h", 
      "attr": {"num_hidden": "200"}, 
      "inputs": [[3, 4, 0], [4, 0, 0], [5, 0, 0]]
    }, 
    {
      "op": "FullyConnected", 
      "name": "t3_l0_i2h", 
      "attr": {"num_hidden": "200"}, 
      "inputs": [[3, 3, 0], [4, 0, 0], [5, 0, 0]]
    }, 
    {
      "op": "FullyConnected", 
      "name": "t2_l0_i2h", 
      "attr": {"num_hidden": "200"}, 
      "inputs": [[3, 2, 0], [4, 0, 0], [5, 0, 0]]
    }, 
    {
      "op": "FullyConnected", 
      "name": "t1_l0_i2h", 
      "attr": {"num_hidden": "200"}, 
      "inputs": [[3, 1, 0], [4, 0, 0], [5, 0, 0]]
    }, 
    {
      "op": "FullyConnected", 
      "name": "t0_l0_i2h", 
      "attr": {"num_hidden": "200"}, 
      "inputs": [[3, 0, 0], [4, 0, 0], [5, 0, 0]]
    }, 
    {
      "op": "null", 
      "name": "l0_init_h", 
      "inputs": []
    }, 
    {
      "op": "null", 
      "name": "l0_h2h_weight", 
      "inputs": []
    }, 
    {
      "op": "null", 
      "name": "l0_h2h_bias", 
      "inputs": []
    }, 
    {
      "op": "FullyConnected", 
      "name": "t0_l0_h2h", 
      "attr": {"num_hidden": "200"}, 
      "inputs": [[206, 0, 0], [207, 0, 0], [208, 0, 0]]
    }, 
    {
      "op": "elemwise_add", 
      "name": "_plus7200", 
      "inputs": [[205, 0, 0], [209, 0, 0]]
    }, 
    {
      "op": "SliceChannel", 
      "name": "t0_l0_slice", 
      "attr": {"num_outputs": "4"}, 
      "inputs": [[210, 0, 0]]
    }, 
    {
      "op": "Activation", 
      "name": "activation18002", 
      "attr": {"act_type": "sigmoid"}, 
      "inputs": [[211, 2, 0]]
    }, 
    {
      "op": "Activation", 
      "name": "activation18001", 
      "attr": {"act_type": "sigmoid"}, 
      "inputs": [[211, 1, 0]]
    }, 
    {
      "op": "null", 
      "name": "l0_init_c", 
      "inputs": []
    }, 
    {
      "op": "_mul", 
      "name": "_mul10800", 
      "inputs": [[213, 0, 0], [214, 0, 0]]
    }, 
    {
      "op": "Activation", 
      "name": "activation18000", 
      "attr": {"act_type": "sigmoid"}, 
      "inputs": [[211, 0, 0]]
    }, 
    {
      "op": "Activation", 
      "name": "activation18003", 
      "attr": {"act_type": "tanh"}, 
      "inputs": [[211, 3, 0]]
    }, 
    {
      "op": "_mul", 
      "name": "_mul10801", 
      "inputs": [[216, 0, 0], [217, 0, 0]]
    }, 
    {
      "op": "elemwise_add", 
      "name": "_plus7201", 
      "inputs": [[215, 0, 0], [218, 0, 0]]
    }, 
    {
      "op": "Activation", 
      "name": "activation18004", 
      "attr": {"act_type": "tanh"}, 
      "inputs": [[219, 0, 0]]
    }, 
    {
      "op": "_mul", 
      "name": "_mul10802", 
      "inputs": [[212, 0, 0], [220, 0, 0]]
    }, 
    {
      "op": "FullyConnected", 
      "name": "t1_l0_h2h", 
      "attr": {"num_hidden": "200"}, 
      "inputs": [[221, 0, 0], [207, 0, 0], [208, 0, 0]]
    }, 
    {
      "op": "elemwise_add", 
      "name": "_plus7204", 
      "inputs": [[204, 0, 0], [222, 0, 0]]
    }, 
    {
      "op": "SliceChannel", 
      "name": "t1_l0_slice", 
      "attr": {"num_outputs": "4"}, 
      "inputs": [[223, 0, 0]]
    }, 
    {
      "op": "Activation", 
      "name": "activation18012", 
      "attr": {"act_type": "sigmoid"}, 
      "inputs": [[224, 2, 0]]
    }, 
    {
      "op": "Activation", 
      "name": "activation18011", 
      "attr": {"act_type": "sigmoid"}, 
      "inputs": [[224, 1, 0]]
    }, 
    {
      "op": "_mul", 
      "name": "_mul10806", 
      "inputs": [[226, 0, 0], [219, 0, 0]]
    }, 
    {
      "op": "Activation", 
      "name": "activation18010", 
      "attr": {"act_type": "sigmoid"}, 
      "inputs": [[224, 0, 0]]
    }, 
    {
      "op": "Activation", 
      "name": "activation18013", 
      "attr": {"act_type": "tanh"}, 
      "inputs": [[224, 3, 0]]
    }, 
    {
      "op": "_mul", 
      "name": "_mul10807", 
      "inputs": [[228, 0, 0], [229, 0, 0]]
    }, 
    {
      "op": "elemwise_add", 
      "name": "_plus7205", 
      "inputs": [[227, 0, 0], [230, 0, 0]]
    }, 
    {
      "op": "Activation", 
      "name": "activation18014", 
      "attr": {"act_type": "tanh"}, 
      "inputs": [[231, 0, 0]]
    }, 
    {
      "op": "_mul", 
      "name": "_mul10808", 
      "inputs": [[225, 0, 0], [232, 0, 0]]
    }, 
    {
      "op": "FullyConnected", 
      "name": "t2_l0_h2h", 
      "attr": {"num_hidden": "200"}, 
      "inputs": [[233, 0, 0], [207, 0, 0], [208, 0, 0]]
    }, 
    {
      "op": "elemwise_add", 
      "name": "_plus7208", 
      "inputs": [[203, 0, 0], [234, 0, 0]]
    }, 
    {
      "op": "SliceChannel", 
      "name": "t2_l0_slice", 
      "attr": {"num_outputs": "4"}, 
      "inputs": [[235, 0, 0]]
    }, 
    {
      "op": "Activation", 
      "name": "activation18022", 
      "attr": {"act_type": "sigmoid"}, 
      "inputs": [[236, 2, 0]]
    }, 
    {
      "op": "Activation", 
      "name": "activation18021", 
      "attr": {"act_type": "sigmoid"}, 
      "inputs": [[236, 1, 0]]
    }, 
    {
      "op": "_mul", 
      "name": "_mul10812", 
      "inputs": [[238, 0, 0], [231, 0, 0]]
    }, 
    {
      "op": "Activation", 
      "name": "activation18020", 
      "attr": {"act_type": "sigmoid"}, 
      "inputs": [[236, 0, 0]]
    }, 
    {
      "op": "Activation", 
      "name": "activation18023", 
      "attr": {"act_type": "tanh"}, 
      "inputs": [[236, 3, 0]]
    }, 
    {
      "op": "_mul", 
      "name": "_mul10813", 
      "inputs": [[240, 0, 0], [241, 0, 0]]
    }, 
    {
      "op": "elemwise_add", 
      "name": "_plus7209", 
      "inputs": [[239, 0, 0], [242, 0, 0]]
    }, 
    {
      "op": "Activation", 
      "name": "activation18024", 
      "attr": {"act_type": "tanh"}, 
      "inputs": [[243, 0, 0]]
    }, 
    {
      "op": "_mul", 
      "name": "_mul10814", 
      "inputs": [[237, 0, 0], [244, 0, 0]]
    }, 
    {
      "op": "FullyConnected", 
      "name": "t3_l0_h2h", 
      "attr": {"num_hidden": "200"}, 
      "inputs": [[245, 0, 0], [207, 0, 0], [208, 0, 0]]
    }, 
    {
      "op": "elemwise_add", 
      "name": "_plus7212", 
      "inputs": [[202, 0, 0], [246, 0, 0]]
    }, 
    {
      "op": "SliceChannel", 
      "name": "t3_l0_slice", 
      "attr": {"num_outputs": "4"}, 
      "inputs": [[247, 0, 0]]
    }, 
    {
      "op": "Activation", 
      "name": "activation18032", 
      "attr": {"act_type": "sigmoid"}, 
      "inputs": [[248, 2, 0]]
    }, 
    {
      "op": "Activation", 
      "name": "activation18031", 
      "attr": {"act_type": "sigmoid"}, 
      "inputs": [[248, 1, 0]]
    }, 
    {
      "op": "_mul", 
      "name": "_mul10818", 
      "inputs": [[250, 0, 0], [243, 0, 0]]
    }, 
    {
      "op": "Activation", 
      "name": "activation18030", 
      "attr": {"act_type": "sigmoid"}, 
      "inputs": [[248, 0, 0]]
    }, 
    {
      "op": "Activation", 
      "name": "activation18033", 
      "attr": {"act_type": "tanh"}, 
      "inputs": [[248, 3, 0]]
    }, 
    {
      "op": "_mul", 
      "name": "_mul10819", 
      "inputs": [[252, 0, 0], [253, 0, 0]]
    }, 
    {
      "op": "elemwise_add", 
      "name": "_plus7213", 
      "inputs": [[251, 0, 0], [254, 0, 0]]
    }, 
    {
      "op": "Activation", 
      "name": "activation18034", 
      "attr": {"act_type": "tanh"}, 
      "inputs": [[255, 0, 0]]
    }, 
    {
      "op": "_mul", 
      "name": "_mul10820", 
      "inputs": [[249, 0, 0], [256, 0, 0]]
    }, 
    {
      "op": "FullyConnected", 
      "name": "t4_l0_h2h", 
      "attr": {"num_hidden": "200"}, 
      "inputs": [[257, 0, 0], [207, 0, 0], [208, 0, 0]]
    }, 
    {
      "op": "elemwise_add", 
      "name": "_plus7216", 
      "inputs": [[201, 0, 0], [258, 0, 0]]
    }, 
    {
      "op": "SliceChannel", 
      "name": "t4_l0_slice", 
      "attr": {"num_outputs": "4"}, 
      "inputs": [[259, 0, 0]]
    }, 
    {
      "op": "Activation", 
      "name": "activation18042", 
      "attr": {"act_type": "sigmoid"}, 
      "inputs": [[260, 2, 0]]
    }, 
    {
      "op": "Activation", 
      "name": "activation18041", 
      "attr": {"act_type": "sigmoid"}, 
      "inputs": [[260, 1, 0]]
    }, 
    {
      "op": "_mul", 
      "name": "_mul10824", 
      "inputs": [[262, 0, 0], [255, 0, 0]]
    }, 
    {
      "op": "Activation", 
      "name": "activation18040", 
      "attr": {"act_type": "sigmoid"}, 
      "inputs": [[260, 0, 0]]
    }, 
    {
      "op": "Activation", 
      "name": "activation18043", 
      "attr": {"act_type": "tanh"}, 
      "inputs": [[260, 3, 0]]
    }, 
    {
      "op": "_mul", 
      "name": "_mul10825", 
      "inputs": [[264, 0, 0], [265, 0, 0]]
    }, 
    {
      "op": "elemwise_add", 
      "name": "_plus7217", 
      "inputs": [[263, 0, 0], [266, 0, 0]]
    }, 
    {
      "op": "Activation", 
      "name": "activation18044", 
      "attr": {"act_type": "tanh"}, 
      "inputs": [[267, 0, 0]]
    }, 
    {
      "op": "_mul", 
      "name": "_mul10826", 
      "inputs": [[261, 0, 0], [268, 0, 0]]
    }, 
    {
      "op": "FullyConnected", 
      "name": "t5_l0_h2h", 
      "attr": {"num_hidden": "200"}, 
      "inputs": [[269, 0, 0], [207, 0, 0], [208, 0, 0]]
    }, 
    {
      "op": "elemwise_add", 
      "name": "_plus7220", 
      "inputs": [[200, 0, 0], [270, 0, 0]]
    }, 
    {
      "op": "SliceChannel", 
      "name": "t5_l0_slice", 
      "attr": {"num_outputs": "4"}, 
      "inputs": [[271, 0, 0]]
    }, 
    {
      "op": "Activation", 
      "name": "activation18052", 
      "attr": {"act_type": "sigmoid"}, 
      "inputs": [[272, 2, 0]]
    }, 
    {
      "op": "Activation", 
      "name": "activation18051", 
      "attr": {"act_type": "sigmoid"}, 
      "inputs": [[272, 1, 0]]
    }, 
    {
      "op": "_mul", 
      "name": "_mul10830", 
      "inputs": [[274, 0, 0], [267, 0, 0]]
    }, 
    {
      "op": "Activation", 
      "name": "activation18050", 
      "attr": {"act_type": "sigmoid"}, 
      "inputs": [[272, 0, 0]]
    }, 
    {
      "op": "Activation", 
      "name": "activation18053", 
      "attr": {"act_type": "tanh"}, 
      "inputs": [[272, 3, 0]]
    }, 
    {
      "op": "_mul", 
      "name": "_mul10831", 
      "inputs": [[276, 0, 0], [277, 0, 0]]
    }, 
    {
      "op": "elemwise_add", 
      "name": "_plus7221", 
      "inputs": [[275, 0, 0], [278, 0, 0]]
    }, 
    {
      "op": "Activation", 
      "name": "activation18054", 
      "attr": {"act_type": "tanh"}, 
      "inputs": [[279, 0, 0]]
    }, 
    {
      "op": "_mul", 
      "name": "_mul10832", 
      "inputs": [[273, 0, 0], [280, 0, 0]]
    }, 
    {
      "op": "FullyConnected", 
      "name": "t6_l0_h2h", 
      "attr": {"num_hidden": "200"}, 
      "inputs": [[281, 0, 0], [207, 0, 0], [208, 0, 0]]
    }, 
    {
      "op": "elemwise_add", 
      "name": "_plus7224", 
      "inputs": [[199, 0, 0], [282, 0, 0]]
    }, 
    {
      "op": "SliceChannel", 
      "name": "t6_l0_slice", 
      "attr": {"num_outputs": "4"}, 
      "inputs": [[283, 0, 0]]
    }, 
    {
      "op": "Activation", 
      "name": "activation18062", 
      "attr": {"act_type": "sigmoid"}, 
      "inputs": [[284, 2, 0]]
    }, 
    {
      "op": "Activation", 
      "name": "activation18061", 
      "attr": {"act_type": "sigmoid"}, 
      "inputs": [[284, 1, 0]]
    }, 
    {
      "op": "_mul", 
      "name": "_mul10836", 
      "inputs": [[286, 0, 0], [279, 0, 0]]
    }, 
    {
      "op": "Activation", 
      "name": "activation18060", 
      "attr": {"act_type": "sigmoid"}, 
      "inputs": [[284, 0, 0]]
    }, 
    {
      "op": "Activation", 
      "name": "activation18063", 
      "attr": {"act_type": "tanh"}, 
      "inputs": [[284, 3, 0]]
    }, 
    {
      "op": "_mul", 
      "name": "_mul10837", 
      "inputs": [[288, 0, 0], [289, 0, 0]]
    }, 
    {
      "op": "elemwise_add", 
      "name": "_plus7225", 
      "inputs": [[287, 0, 0], [290, 0, 0]]
    }, 
    {
      "op": "Activation", 
      "name": "activation18064", 
      "attr": {"act_type": "tanh"}, 
      "inputs": [[291, 0, 0]]
    }, 
    {
      "op": "_mul", 
      "name": "_mul10838", 
      "inputs": [[285, 0, 0], [292, 0, 0]]
    }, 
    {
      "op": "FullyConnected", 
      "name": "t7_l0_h2h", 
      "attr": {"num_hidden": "200"}, 
      "inputs": [[293, 0, 0], [207, 0, 0], [208, 0, 0]]
    }, 
    {
      "op": "elemwise_add", 
      "name": "_plus7228", 
      "inputs": [[198, 0, 0], [294, 0, 0]]
    }, 
    {
      "op": "SliceChannel", 
      "name": "t7_l0_slice", 
      "attr": {"num_outputs": "4"}, 
      "inputs": [[295, 0, 0]]
    }, 
    {
      "op": "Activation", 
      "name": "activation18072", 
      "attr": {"act_type": "sigmoid"}, 
      "inputs": [[296, 2, 0]]
    }, 
    {
      "op": "Activation", 
      "name": "activation18071", 
      "attr": {"act_type": "sigmoid"}, 
      "inputs": [[296, 1, 0]]
    }, 
    {
      "op": "_mul", 
      "name": "_mul10842", 
      "inputs": [[298, 0, 0], [291, 0, 0]]
    }, 
    {
      "op": "Activation", 
      "name": "activation18070", 
      "attr": {"act_type": "sigmoid"}, 
      "inputs": [[296, 0, 0]]
    }, 
    {
      "op": "Activation", 
      "name": "activation18073", 
      "attr": {"act_type": "tanh"}, 
      "inputs": [[296, 3, 0]]
    }, 
    {
      "op": "_mul", 
      "name": "_mul10843", 
      "inputs": [[300, 0, 0], [301, 0, 0]]
    }, 
    {
      "op": "elemwise_add", 
      "name": "_plus7229", 
      "inputs": [[299, 0, 0], [302, 0, 0]]
    }, 
    {
      "op": "Activation", 
      "name": "activation18074", 
      "attr": {"act_type": "tanh"}, 
      "inputs": [[303, 0, 0]]
    }, 
    {
      "op": "_mul", 
      "name": "_mul10844", 
      "inputs": [[297, 0, 0], [304, 0, 0]]
    }, 
    {
      "op": "FullyConnected", 
      "name": "t8_l0_h2h", 
      "attr": {"num_hidden": "200"}, 
      "inputs": [[305, 0, 0], [207, 0, 0], [208, 0, 0]]
    }, 
    {
      "op": "elemwise_add", 
      "name": "_plus7232", 
      "inputs": [[197, 0, 0], [306, 0, 0]]
    }, 
    {
      "op": "SliceChannel", 
      "name": "t8_l0_slice", 
      "attr": {"num_outputs": "4"}, 
      "inputs": [[307, 0, 0]]
    }, 
    {
      "op": "Activation", 
      "name": "activation18082", 
      "attr": {"act_type": "sigmoid"}, 
      "inputs": [[308, 2, 0]]
    }, 
    {
      "op": "Activation", 
      "name": "activation18081", 
      "attr": {"act_type": "sigmoid"}, 
      "inputs": [[308, 1, 0]]
    }, 
    {
      "op": "_mul", 
      "name": "_mul10848", 
      "inputs": [[310, 0, 0], [303, 0, 0]]
    }, 
    {
      "op": "Activation", 
      "name": "activation18080", 
      "attr": {"act_type": "sigmoid"}, 
      "inputs": [[308, 0, 0]]
    }, 
    {
      "op": "Activation", 
      "name": "activation18083", 
      "attr": {"act_type": "tanh"}, 
      "inputs": [[308, 3, 0]]
    }, 
    {
      "op": "_mul", 
      "name": "_mul10849", 
      "inputs": [[312, 0, 0], [313, 0, 0]]
    }, 
    {
      "op": "elemwise_add", 
      "name": "_plus7233", 
      "inputs": [[311, 0, 0], [314, 0, 0]]
    }, 
    {
      "op": "Activation", 
      "name": "activation18084", 
      "attr": {"act_type": "tanh"}, 
      "inputs": [[315, 0, 0]]
    }, 
    {
      "op": "_mul", 
      "name": "_mul10850", 
      "inputs": [[309, 0, 0], [316, 0, 0]]
    }, 
    {
      "op": "FullyConnected", 
      "name": "t9_l0_h2h", 
      "attr": {"num_hidden": "200"}, 
      "inputs": [[317, 0, 0], [207, 0, 0], [208, 0, 0]]
    }, 
    {
      "op": "elemwise_add", 
      "name": "_plus7236", 
      "inputs": [[196, 0, 0], [318, 0, 0]]
    }, 
    {
      "op": "SliceChannel", 
      "name": "t9_l0_slice", 
      "attr": {"num_outputs": "4"}, 
      "inputs": [[319, 0, 0]]
    }, 
    {
      "op": "Activation", 
      "name": "activation18092", 
      "attr": {"act_type": "sigmoid"}, 
      "inputs": [[320, 2, 0]]
    }, 
    {
      "op": "Activation", 
      "name": "activation18091", 
      "attr": {"act_type": "sigmoid"}, 
      "inputs": [[320, 1, 0]]
    }, 
    {
      "op": "_mul", 
      "name": "_mul10854", 
      "inputs": [[322, 0, 0], [315, 0, 0]]
    }, 
    {
      "op": "Activation", 
      "name": "activation18090", 
      "attr": {"act_type": "sigmoid"}, 
      "inputs": [[320, 0, 0]]
    }, 
    {
      "op": "Activation", 
      "name": "activation18093", 
      "attr": {"act_type": "tanh"}, 
      "inputs": [[320, 3, 0]]
    }, 
    {
      "op": "_mul", 
      "name": "_mul10855", 
      "inputs": [[324, 0, 0], [325, 0, 0]]
    }, 
    {
      "op": "elemwise_add", 
      "name": "_plus7237", 
      "inputs": [[323, 0, 0], [326, 0, 0]]
    }, 
    {
      "op": "Activation", 
      "name": "activation18094", 
      "attr": {"act_type": "tanh"}, 
      "inputs": [[327, 0, 0]]
    }, 
    {
      "op": "_mul", 
      "name": "_mul10856", 
      "inputs": [[321, 0, 0], [328, 0, 0]]
    }, 
    {
      "op": "FullyConnected", 
      "name": "t10_l0_h2h", 
      "attr": {"num_hidden": "200"}, 
      "inputs": [[329, 0, 0], [207, 0, 0], [208, 0, 0]]
    }, 
    {
      "op": "elemwise_add", 
      "name": "_plus7240", 
      "inputs": [[195, 0, 0], [330, 0, 0]]
    }, 
    {
      "op": "SliceChannel", 
      "name": "t10_l0_slice", 
      "attr": {"num_outputs": "4"}, 
      "inputs": [[331, 0, 0]]
    }, 
    {
      "op": "Activation", 
      "name": "activation18102", 
      "attr": {"act_type": "sigmoid"}, 
      "inputs": [[332, 2, 0]]
    }, 
    {
      "op": "Activation", 
      "name": "activation18101", 
      "attr": {"act_type": "sigmoid"}, 
      "inputs": [[332, 1, 0]]
    }, 
    {
      "op": "_mul", 
      "name": "_mul10860", 
      "inputs": [[334, 0, 0], [327, 0, 0]]
    }, 
    {
      "op": "Activation", 
      "name": "activation18100", 
      "attr": {"act_type": "sigmoid"}, 
      "inputs": [[332, 0, 0]]
    }, 
    {
      "op": "Activation", 
      "name": "activation18103", 
      "attr": {"act_type": "tanh"}, 
      "inputs": [[332, 3, 0]]
    }, 
    {
      "op": "_mul", 
      "name": "_mul10861", 
      "inputs": [[336, 0, 0], [337, 0, 0]]
    }, 
    {
      "op": "elemwise_add", 
      "name": "_plus7241", 
      "inputs": [[335, 0, 0], [338, 0, 0]]
    }, 
    {
      "op": "Activation", 
      "name": "activation18104", 
      "attr": {"act_type": "tanh"}, 
      "inputs": [[339, 0, 0]]
    }, 
    {
      "op": "_mul", 
      "name": "_mul10862", 
      "inputs": [[333, 0, 0], [340, 0, 0]]
    }, 
    {
      "op": "FullyConnected", 
      "name": "t11_l0_h2h", 
      "attr": {"num_hidden": "200"}, 
      "inputs": [[341, 0, 0], [207, 0, 0], [208, 0, 0]]
    }, 
    {
      "op": "elemwise_add", 
      "name": "_plus7244", 
      "inputs": [[194, 0, 0], [342, 0, 0]]
    }, 
    {
      "op": "SliceChannel", 
      "name": "t11_l0_slice", 
      "attr": {"num_outputs": "4"}, 
      "inputs": [[343, 0, 0]]
    }, 
    {
      "op": "Activation", 
      "name": "activation18112", 
      "attr": {"act_type": "sigmoid"}, 
      "inputs": [[344, 2, 0]]
    }, 
    {
      "op": "Activation", 
      "name": "activation18111", 
      "attr": {"act_type": "sigmoid"}, 
      "inputs": [[344, 1, 0]]
    }, 
    {
      "op": "_mul", 
      "name": "_mul10866", 
      "inputs": [[346, 0, 0], [339, 0, 0]]
    }, 
    {
      "op": "Activation", 
      "name": "activation18110", 
      "attr": {"act_type": "sigmoid"}, 
      "inputs": [[344, 0, 0]]
    }, 
    {
      "op": "Activation", 
      "name": "activation18113", 
      "attr": {"act_type": "tanh"}, 
      "inputs": [[344, 3, 0]]
    }, 
    {
      "op": "_mul", 
      "name": "_mul10867", 
      "inputs": [[348, 0, 0], [349, 0, 0]]
    }, 
    {
      "op": "elemwise_add", 
      "name": "_plus7245", 
      "inputs": [[347, 0, 0], [350, 0, 0]]
    }, 
    {
      "op": "Activation", 
      "name": "activation18114", 
      "attr": {"act_type": "tanh"}, 
      "inputs": [[351, 0, 0]]
    }, 
    {
      "op": "_mul", 
      "name": "_mul10868", 
      "inputs": [[345, 0, 0], [352, 0, 0]]
    }, 
    {
      "op": "FullyConnected", 
      "name": "t12_l0_h2h", 
      "attr": {"num_hidden": "200"}, 
      "inputs": [[353, 0, 0], [207, 0, 0], [208, 0, 0]]
    }, 
    {
      "op": "elemwise_add", 
      "name": "_plus7248", 
      "inputs": [[193, 0, 0], [354, 0, 0]]
    }, 
    {
      "op": "SliceChannel", 
      "name": "t12_l0_slice", 
      "attr": {"num_outputs": "4"}, 
      "inputs": [[355, 0, 0]]
    }, 
    {
      "op": "Activation", 
      "name": "activation18122", 
      "attr": {"act_type": "sigmoid"}, 
      "inputs": [[356, 2, 0]]
    }, 
    {
      "op": "Activation", 
      "name": "activation18121", 
      "attr": {"act_type": "sigmoid"}, 
      "inputs": [[356, 1, 0]]
    }, 
    {
      "op": "_mul", 
      "name": "_mul10872", 
      "inputs": [[358, 0, 0], [351, 0, 0]]
    }, 
    {
      "op": "Activation", 
      "name": "activation18120", 
      "attr": {"act_type": "sigmoid"}, 
      "inputs": [[356, 0, 0]]
    }, 
    {
      "op": "Activation", 
      "name": "activation18123", 
      "attr": {"act_type": "tanh"}, 
      "inputs": [[356, 3, 0]]
    }, 
    {
      "op": "_mul", 
      "name": "_mul10873", 
      "inputs": [[360, 0, 0], [361, 0, 0]]
    }, 
    {
      "op": "elemwise_add", 
      "name": "_plus7249", 
      "inputs": [[359, 0, 0], [362, 0, 0]]
    }, 
    {
      "op": "Activation", 
      "name": "activation18124", 
      "attr": {"act_type": "tanh"}, 
      "inputs": [[363, 0, 0]]
    }, 
    {
      "op": "_mul", 
      "name": "_mul10874", 
      "inputs": [[357, 0, 0], [364, 0, 0]]
    }, 
    {
      "op": "FullyConnected", 
      "name": "t13_l0_h2h", 
      "attr": {"num_hidden": "200"}, 
      "inputs": [[365, 0, 0], [207, 0, 0], [208, 0, 0]]
    }, 
    {
      "op": "elemwise_add", 
      "name": "_plus7252", 
      "inputs": [[192, 0, 0], [366, 0, 0]]
    }, 
    {
      "op": "SliceChannel", 
      "name": "t13_l0_slice", 
      "attr": {"num_outputs": "4"}, 
      "inputs": [[367, 0, 0]]
    }, 
    {
      "op": "Activation", 
      "name": "activation18132", 
      "attr": {"act_type": "sigmoid"}, 
      "inputs": [[368, 2, 0]]
    }, 
    {
      "op": "Activation", 
      "name": "activation18131", 
      "attr": {"act_type": "sigmoid"}, 
      "inputs": [[368, 1, 0]]
    }, 
    {
      "op": "_mul", 
      "name": "_mul10878", 
      "inputs": [[370, 0, 0], [363, 0, 0]]
    }, 
    {
      "op": "Activation", 
      "name": "activation18130", 
      "attr": {"act_type": "sigmoid"}, 
      "inputs": [[368, 0, 0]]
    }, 
    {
      "op": "Activation", 
      "name": "activation18133", 
      "attr": {"act_type": "tanh"}, 
      "inputs": [[368, 3, 0]]
    }, 
    {
      "op": "_mul", 
      "name": "_mul10879", 
      "inputs": [[372, 0, 0], [373, 0, 0]]
    }, 
    {
      "op": "elemwise_add", 
      "name": "_plus7253", 
      "inputs": [[371, 0, 0], [374, 0, 0]]
    }, 
    {
      "op": "Activation", 
      "name": "activation18134", 
      "attr": {"act_type": "tanh"}, 
      "inputs": [[375, 0, 0]]
    }, 
    {
      "op": "_mul", 
      "name": "_mul10880", 
      "inputs": [[369, 0, 0], [376, 0, 0]]
    }, 
    {
      "op": "FullyConnected", 
      "name": "t14_l0_h2h", 
      "attr": {"num_hidden": "200"}, 
      "inputs": [[377, 0, 0], [207, 0, 0], [208, 0, 0]]
    }, 
    {
      "op": "elemwise_add", 
      "name": "_plus7256", 
      "inputs": [[191, 0, 0], [378, 0, 0]]
    }, 
    {
      "op": "SliceChannel", 
      "name": "t14_l0_slice", 
      "attr": {"num_outputs": "4"}, 
      "inputs": [[379, 0, 0]]
    }, 
    {
      "op": "Activation", 
      "name": "activation18142", 
      "attr": {"act_type": "sigmoid"}, 
      "inputs": [[380, 2, 0]]
    }, 
    {
      "op": "Activation", 
      "name": "activation18141", 
      "attr": {"act_type": "sigmoid"}, 
      "inputs": [[380, 1, 0]]
    }, 
    {
      "op": "_mul", 
      "name": "_mul10884", 
      "inputs": [[382, 0, 0], [375, 0, 0]]
    }, 
    {
      "op": "Activation", 
      "name": "activation18140", 
      "attr": {"act_type": "sigmoid"}, 
      "inputs": [[380, 0, 0]]
    }, 
    {
      "op": "Activation", 
      "name": "activation18143", 
      "attr": {"act_type": "tanh"}, 
      "inputs": [[380, 3, 0]]
    }, 
    {
      "op": "_mul", 
      "name": "_mul10885", 
      "inputs": [[384, 0, 0], [385, 0, 0]]
    }, 
    {
      "op": "elemwise_add", 
      "name": "_plus7257", 
      "inputs": [[383, 0, 0], [386, 0, 0]]
    }, 
    {
      "op": "Activation", 
      "name": "activation18144", 
      "attr": {"act_type": "tanh"}, 
      "inputs": [[387, 0, 0]]
    }, 
    {
      "op": "_mul", 
      "name": "_mul10886", 
      "inputs": [[381, 0, 0], [388, 0, 0]]
    }, 
    {
      "op": "FullyConnected", 
      "name": "t15_l0_h2h", 
      "attr": {"num_hidden": "200"}, 
      "inputs": [[389, 0, 0], [207, 0, 0], [208, 0, 0]]
    }, 
    {
      "op": "elemwise_add", 
      "name": "_plus7260", 
      "inputs": [[190, 0, 0], [390, 0, 0]]
    }, 
    {
      "op": "SliceChannel", 
      "name": "t15_l0_slice", 
      "attr": {"num_outputs": "4"}, 
      "inputs": [[391, 0, 0]]
    }, 
    {
      "op": "Activation", 
      "name": "activation18152", 
      "attr": {"act_type": "sigmoid"}, 
      "inputs": [[392, 2, 0]]
    }, 
    {
      "op": "Activation", 
      "name": "activation18151", 
      "attr": {"act_type": "sigmoid"}, 
      "inputs": [[392, 1, 0]]
    }, 
    {
      "op": "_mul", 
      "name": "_mul10890", 
      "inputs": [[394, 0, 0], [387, 0, 0]]
    }, 
    {
      "op": "Activation", 
      "name": "activation18150", 
      "attr": {"act_type": "sigmoid"}, 
      "inputs": [[392, 0, 0]]
    }, 
    {
      "op": "Activation", 
      "name": "activation18153", 
      "attr": {"act_type": "tanh"}, 
      "inputs": [[392, 3, 0]]
    }, 
    {
      "op": "_mul", 
      "name": "_mul10891", 
      "inputs": [[396, 0, 0], [397, 0, 0]]
    }, 
    {
      "op": "elemwise_add", 
      "name": "_plus7261", 
      "inputs": [[395, 0, 0], [398, 0, 0]]
    }, 
    {
      "op": "Activation", 
      "name": "activation18154", 
      "attr": {"act_type": "tanh"}, 
      "inputs": [[399, 0, 0]]
    }, 
    {
      "op": "_mul", 
      "name": "_mul10892", 
      "inputs": [[393, 0, 0], [400, 0, 0]]
    }, 
    {
      "op": "FullyConnected", 
      "name": "t16_l0_h2h", 
      "attr": {"num_hidden": "200"}, 
      "inputs": [[401, 0, 0], [207, 0, 0], [208, 0, 0]]
    }, 
    {
      "op": "elemwise_add", 
      "name": "_plus7264", 
      "inputs": [[189, 0, 0], [402, 0, 0]]
    }, 
    {
      "op": "SliceChannel", 
      "name": "t16_l0_slice", 
      "attr": {"num_outputs": "4"}, 
      "inputs": [[403, 0, 0]]
    }, 
    {
      "op": "Activation", 
      "name": "activation18162", 
      "attr": {"act_type": "sigmoid"}, 
      "inputs": [[404, 2, 0]]
    }, 
    {
      "op": "Activation", 
      "name": "activation18161", 
      "attr": {"act_type": "sigmoid"}, 
      "inputs": [[404, 1, 0]]
    }, 
    {
      "op": "_mul", 
      "name": "_mul10896", 
      "inputs": [[406, 0, 0], [399, 0, 0]]
    }, 
    {
      "op": "Activation", 
      "name": "activation18160", 
      "attr": {"act_type": "sigmoid"}, 
      "inputs": [[404, 0, 0]]
    }, 
    {
      "op": "Activation", 
      "name": "activation18163", 
      "attr": {"act_type": "tanh"}, 
      "inputs": [[404, 3, 0]]
    }, 
    {
      "op": "_mul", 
      "name": "_mul10897", 
      "inputs": [[408, 0, 0], [409, 0, 0]]
    }, 
    {
      "op": "elemwise_add", 
      "name": "_plus7265", 
      "inputs": [[407, 0, 0], [410, 0, 0]]
    }, 
    {
      "op": "Activation", 
      "name": "activation18164", 
      "attr": {"act_type": "tanh"}, 
      "inputs": [[411, 0, 0]]
    }, 
    {
      "op": "_mul", 
      "name": "_mul10898", 
      "inputs": [[405, 0, 0], [412, 0, 0]]
    }, 
    {
      "op": "FullyConnected", 
      "name": "t17_l0_h2h", 
      "attr": {"num_hidden": "200"}, 
      "inputs": [[413, 0, 0], [207, 0, 0], [208, 0, 0]]
    }, 
    {
      "op": "elemwise_add", 
      "name": "_plus7268", 
      "inputs": [[188, 0, 0], [414, 0, 0]]
    }, 
    {
      "op": "SliceChannel", 
      "name": "t17_l0_slice", 
      "attr": {"num_outputs": "4"}, 
      "inputs": [[415, 0, 0]]
    }, 
    {
      "op": "Activation", 
      "name": "activation18172", 
      "attr": {"act_type": "sigmoid"}, 
      "inputs": [[416, 2, 0]]
    }, 
    {
      "op": "Activation", 
      "name": "activation18171", 
      "attr": {"act_type": "sigmoid"}, 
      "inputs": [[416, 1, 0]]
    }, 
    {
      "op": "_mul", 
      "name": "_mul10902", 
      "inputs": [[418, 0, 0], [411, 0, 0]]
    }, 
    {
      "op": "Activation", 
      "name": "activation18170", 
      "attr": {"act_type": "sigmoid"}, 
      "inputs": [[416, 0, 0]]
    }, 
    {
      "op": "Activation", 
      "name": "activation18173", 
      "attr": {"act_type": "tanh"}, 
      "inputs": [[416, 3, 0]]
    }, 
    {
      "op": "_mul", 
      "name": "_mul10903", 
      "inputs": [[420, 0, 0], [421, 0, 0]]
    }, 
    {
      "op": "elemwise_add", 
      "name": "_plus7269", 
      "inputs": [[419, 0, 0], [422, 0, 0]]
    }, 
    {
      "op": "Activation", 
      "name": "activation18174", 
      "attr": {"act_type": "tanh"}, 
      "inputs": [[423, 0, 0]]
    }, 
    {
      "op": "_mul", 
      "name": "_mul10904", 
      "inputs": [[417, 0, 0], [424, 0, 0]]
    }, 
    {
      "op": "FullyConnected", 
      "name": "t18_l0_h2h", 
      "attr": {"num_hidden": "200"}, 
      "inputs": [[425, 0, 0], [207, 0, 0], [208, 0, 0]]
    }, 
    {
      "op": "elemwise_add", 
      "name": "_plus7272", 
      "inputs": [[187, 0, 0], [426, 0, 0]]
    }, 
    {
      "op": "SliceChannel", 
      "name": "t18_l0_slice", 
      "attr": {"num_outputs": "4"}, 
      "inputs": [[427, 0, 0]]
    }, 
    {
      "op": "Activation", 
      "name": "activation18182", 
      "attr": {"act_type": "sigmoid"}, 
      "inputs": [[428, 2, 0]]
    }, 
    {
      "op": "Activation", 
      "name": "activation18181", 
      "attr": {"act_type": "sigmoid"}, 
      "inputs": [[428, 1, 0]]
    }, 
    {
      "op": "_mul", 
      "name": "_mul10908", 
      "inputs": [[430, 0, 0], [423, 0, 0]]
    }, 
    {
      "op": "Activation", 
      "name": "activation18180", 
      "attr": {"act_type": "sigmoid"}, 
      "inputs": [[428, 0, 0]]
    }, 
    {
      "op": "Activation", 
      "name": "activation18183", 
      "attr": {"act_type": "tanh"}, 
      "inputs": [[428, 3, 0]]
    }, 
    {
      "op": "_mul", 
      "name": "_mul10909", 
      "inputs": [[432, 0, 0], [433, 0, 0]]
    }, 
    {
      "op": "elemwise_add", 
      "name": "_plus7273", 
      "inputs": [[431, 0, 0], [434, 0, 0]]
    }, 
    {
      "op": "Activation", 
      "name": "activation18184", 
      "attr": {"act_type": "tanh"}, 
      "inputs": [[435, 0, 0]]
    }, 
    {
      "op": "_mul", 
      "name": "_mul10910", 
      "inputs": [[429, 0, 0], [436, 0, 0]]
    }, 
    {
      "op": "FullyConnected", 
      "name": "t19_l0_h2h", 
      "attr": {"num_hidden": "200"}, 
      "inputs": [[437, 0, 0], [207, 0, 0], [208, 0, 0]]
    }, 
    {
      "op": "elemwise_add", 
      "name": "_plus7276", 
      "inputs": [[186, 0, 0], [438, 0, 0]]
    }, 
    {
      "op": "SliceChannel", 
      "name": "t19_l0_slice", 
      "attr": {"num_outputs": "4"}, 
      "inputs": [[439, 0, 0]]
    }, 
    {
      "op": "Activation", 
      "name": "activation18192", 
      "attr": {"act_type": "sigmoid"}, 
      "inputs": [[440, 2, 0]]
    }, 
    {
      "op": "Activation", 
      "name": "activation18191", 
      "attr": {"act_type": "sigmoid"}, 
      "inputs": [[440, 1, 0]]
    }, 
    {
      "op": "_mul", 
      "name": "_mul10914", 
      "inputs": [[442, 0, 0], [435, 0, 0]]
    }, 
    {
      "op": "Activation", 
      "name": "activation18190", 
      "attr": {"act_type": "sigmoid"}, 
      "inputs": [[440, 0, 0]]
    }, 
    {
      "op": "Activation", 
      "name": "activation18193", 
      "attr": {"act_type": "tanh"}, 
      "inputs": [[440, 3, 0]]
    }, 
    {
      "op": "_mul", 
      "name": "_mul10915", 
      "inputs": [[444, 0, 0], [445, 0, 0]]
    }, 
    {
      "op": "elemwise_add", 
      "name": "_plus7277", 
      "inputs": [[443, 0, 0], [446, 0, 0]]
    }, 
    {
      "op": "Activation", 
      "name": "activation18194", 
      "attr": {"act_type": "tanh"}, 
      "inputs": [[447, 0, 0]]
    }, 
    {
      "op": "_mul", 
      "name": "_mul10916", 
      "inputs": [[441, 0, 0], [448, 0, 0]]
    }, 
    {
      "op": "FullyConnected", 
      "name": "t20_l0_h2h", 
      "attr": {"num_hidden": "200"}, 
      "inputs": [[449, 0, 0], [207, 0, 0], [208, 0, 0]]
    }, 
    {
      "op": "elemwise_add", 
      "name": "_plus7280", 
      "inputs": [[185, 0, 0], [450, 0, 0]]
    }, 
    {
      "op": "SliceChannel", 
      "name": "t20_l0_slice", 
      "attr": {"num_outputs": "4"}, 
      "inputs": [[451, 0, 0]]
    }, 
    {
      "op": "Activation", 
      "name": "activation18202", 
      "attr": {"act_type": "sigmoid"}, 
      "inputs": [[452, 2, 0]]
    }, 
    {
      "op": "Activation", 
      "name": "activation18201", 
      "attr": {"act_type": "sigmoid"}, 
      "inputs": [[452, 1, 0]]
    }, 
    {
      "op": "_mul", 
      "name": "_mul10920", 
      "inputs": [[454, 0, 0], [447, 0, 0]]
    }, 
    {
      "op": "Activation", 
      "name": "activation18200", 
      "attr": {"act_type": "sigmoid"}, 
      "inputs": [[452, 0, 0]]
    }, 
    {
      "op": "Activation", 
      "name": "activation18203", 
      "attr": {"act_type": "tanh"}, 
      "inputs": [[452, 3, 0]]
    }, 
    {
      "op": "_mul", 
      "name": "_mul10921", 
      "inputs": [[456, 0, 0], [457, 0, 0]]
    }, 
    {
      "op": "elemwise_add", 
      "name": "_plus7281", 
      "inputs": [[455, 0, 0], [458, 0, 0]]
    }, 
    {
      "op": "Activation", 
      "name": "activation18204", 
      "attr": {"act_type": "tanh"}, 
      "inputs": [[459, 0, 0]]
    }, 
    {
      "op": "_mul", 
      "name": "_mul10922", 
      "inputs": [[453, 0, 0], [460, 0, 0]]
    }, 
    {
      "op": "FullyConnected", 
      "name": "t21_l0_h2h", 
      "attr": {"num_hidden": "200"}, 
      "inputs": [[461, 0, 0], [207, 0, 0], [208, 0, 0]]
    }, 
    {
      "op": "elemwise_add", 
      "name": "_plus7284", 
      "inputs": [[184, 0, 0], [462, 0, 0]]
    }, 
    {
      "op": "SliceChannel", 
      "name": "t21_l0_slice", 
      "attr": {"num_outputs": "4"}, 
      "inputs": [[463, 0, 0]]
    }, 
    {
      "op": "Activation", 
      "name": "activation18212", 
      "attr": {"act_type": "sigmoid"}, 
      "inputs": [[464, 2, 0]]
    }, 
    {
      "op": "Activation", 
      "name": "activation18211", 
      "attr": {"act_type": "sigmoid"}, 
      "inputs": [[464, 1, 0]]
    }, 
    {
      "op": "_mul", 
      "name": "_mul10926", 
      "inputs": [[466, 0, 0], [459, 0, 0]]
    }, 
    {
      "op": "Activation", 
      "name": "activation18210", 
      "attr": {"act_type": "sigmoid"}, 
      "inputs": [[464, 0, 0]]
    }, 
    {
      "op": "Activation", 
      "name": "activation18213", 
      "attr": {"act_type": "tanh"}, 
      "inputs": [[464, 3, 0]]
    }, 
    {
      "op": "_mul", 
      "name": "_mul10927", 
      "inputs": [[468, 0, 0], [469, 0, 0]]
    }, 
    {
      "op": "elemwise_add", 
      "name": "_plus7285", 
      "inputs": [[467, 0, 0], [470, 0, 0]]
    }, 
    {
      "op": "Activation", 
      "name": "activation18214", 
      "attr": {"act_type": "tanh"}, 
      "inputs": [[471, 0, 0]]
    }, 
    {
      "op": "_mul", 
      "name": "_mul10928", 
      "inputs": [[465, 0, 0], [472, 0, 0]]
    }, 
    {
      "op": "FullyConnected", 
      "name": "t22_l0_h2h", 
      "attr": {"num_hidden": "200"}, 
      "inputs": [[473, 0, 0], [207, 0, 0], [208, 0, 0]]
    }, 
    {
      "op": "elemwise_add", 
      "name": "_plus7288", 
      "inputs": [[183, 0, 0], [474, 0, 0]]
    }, 
    {
      "op": "SliceChannel", 
      "name": "t22_l0_slice", 
      "attr": {"num_outputs": "4"}, 
      "inputs": [[475, 0, 0]]
    }, 
    {
      "op": "Activation", 
      "name": "activation18222", 
      "attr": {"act_type": "sigmoid"}, 
      "inputs": [[476, 2, 0]]
    }, 
    {
      "op": "Activation", 
      "name": "activation18221", 
      "attr": {"act_type": "sigmoid"}, 
      "inputs": [[476, 1, 0]]
    }, 
    {
      "op": "_mul", 
      "name": "_mul10932", 
      "inputs": [[478, 0, 0], [471, 0, 0]]
    }, 
    {
      "op": "Activation", 
      "name": "activation18220", 
      "attr": {"act_type": "sigmoid"}, 
      "inputs": [[476, 0, 0]]
    }, 
    {
      "op": "Activation", 
      "name": "activation18223", 
      "attr": {"act_type": "tanh"}, 
      "inputs": [[476, 3, 0]]
    }, 
    {
      "op": "_mul", 
      "name": "_mul10933", 
      "inputs": [[480, 0, 0], [481, 0, 0]]
    }, 
    {
      "op": "elemwise_add", 
      "name": "_plus7289", 
      "inputs": [[479, 0, 0], [482, 0, 0]]
    }, 
    {
      "op": "Activation", 
      "name": "activation18224", 
      "attr": {"act_type": "tanh"}, 
      "inputs": [[483, 0, 0]]
    }, 
    {
      "op": "_mul", 
      "name": "_mul10934", 
      "inputs": [[477, 0, 0], [484, 0, 0]]
    }, 
    {
      "op": "FullyConnected", 
      "name": "t23_l0_h2h", 
      "attr": {"num_hidden": "200"}, 
      "inputs": [[485, 0, 0], [207, 0, 0], [208, 0, 0]]
    }, 
    {
      "op": "elemwise_add", 
      "name": "_plus7292", 
      "inputs": [[182, 0, 0], [486, 0, 0]]
    }, 
    {
      "op": "SliceChannel", 
      "name": "t23_l0_slice", 
      "attr": {"num_outputs": "4"}, 
      "inputs": [[487, 0, 0]]
    }, 
    {
      "op": "Activation", 
      "name": "activation18232", 
      "attr": {"act_type": "sigmoid"}, 
      "inputs": [[488, 2, 0]]
    }, 
    {
      "op": "Activation", 
      "name": "activation18231", 
      "attr": {"act_type": "sigmoid"}, 
      "inputs": [[488, 1, 0]]
    }, 
    {
      "op": "_mul", 
      "name": "_mul10938", 
      "inputs": [[490, 0, 0], [483, 0, 0]]
    }, 
    {
      "op": "Activation", 
      "name": "activation18230", 
      "attr": {"act_type": "sigmoid"}, 
      "inputs": [[488, 0, 0]]
    }, 
    {
      "op": "Activation", 
      "name": "activation18233", 
      "attr": {"act_type": "tanh"}, 
      "inputs": [[488, 3, 0]]
    }, 
    {
      "op": "_mul", 
      "name": "_mul10939", 
      "inputs": [[492, 0, 0], [493, 0, 0]]
    }, 
    {
      "op": "elemwise_add", 
      "name": "_plus7293", 
      "inputs": [[491, 0, 0], [494, 0, 0]]
    }, 
    {
      "op": "Activation", 
      "name": "activation18234", 
      "attr": {"act_type": "tanh"}, 
      "inputs": [[495, 0, 0]]
    }, 
    {
      "op": "_mul", 
      "name": "_mul10940", 
      "inputs": [[489, 0, 0], [496, 0, 0]]
    }, 
    {
      "op": "FullyConnected", 
      "name": "t24_l0_h2h", 
      "attr": {"num_hidden": "200"}, 
      "inputs": [[497, 0, 0], [207, 0, 0], [208, 0, 0]]
    }, 
    {
      "op": "elemwise_add", 
      "name": "_plus7296", 
      "inputs": [[181, 0, 0], [498, 0, 0]]
    }, 
    {
      "op": "SliceChannel", 
      "name": "t24_l0_slice", 
      "attr": {"num_outputs": "4"}, 
      "inputs": [[499, 0, 0]]
    }, 
    {
      "op": "Activation", 
      "name": "activation18242", 
      "attr": {"act_type": "sigmoid"}, 
      "inputs": [[500, 2, 0]]
    }, 
    {
      "op": "Activation", 
      "name": "activation18241", 
      "attr": {"act_type": "sigmoid"}, 
      "inputs": [[500, 1, 0]]
    }, 
    {
      "op": "_mul", 
      "name": "_mul10944", 
      "inputs": [[502, 0, 0], [495, 0, 0]]
    }, 
    {
      "op": "Activation", 
      "name": "activation18240", 
      "attr": {"act_type": "sigmoid"}, 
      "inputs": [[500, 0, 0]]
    }, 
    {
      "op": "Activation", 
      "name": "activation18243", 
      "attr": {"act_type": "tanh"}, 
      "inputs": [[500, 3, 0]]
    }, 
    {
      "op": "_mul", 
      "name": "_mul10945", 
      "inputs": [[504, 0, 0], [505, 0, 0]]
    }, 
    {
      "op": "elemwise_add", 
      "name": "_plus7297", 
      "inputs": [[503, 0, 0], [506, 0, 0]]
    }, 
    {
      "op": "Activation", 
      "name": "activation18244", 
      "attr": {"act_type": "tanh"}, 
      "inputs": [[507, 0, 0]]
    }, 
    {
      "op": "_mul", 
      "name": "_mul10946", 
      "inputs": [[501, 0, 0], [508, 0, 0]]
    }, 
    {
      "op": "FullyConnected", 
      "name": "t25_l0_h2h", 
      "attr": {"num_hidden": "200"}, 
      "inputs": [[509, 0, 0], [207, 0, 0], [208, 0, 0]]
    }, 
    {
      "op": "elemwise_add", 
      "name": "_plus7300", 
      "inputs": [[180, 0, 0], [510, 0, 0]]
    }, 
    {
      "op": "SliceChannel", 
      "name": "t25_l0_slice", 
      "attr": {"num_outputs": "4"}, 
      "inputs": [[511, 0, 0]]
    }, 
    {
      "op": "Activation", 
      "name": "activation18252", 
      "attr": {"act_type": "sigmoid"}, 
      "inputs": [[512, 2, 0]]
    }, 
    {
      "op": "Activation", 
      "name": "activation18251", 
      "attr": {"act_type": "sigmoid"}, 
      "inputs": [[512, 1, 0]]
    }, 
    {
      "op": "_mul", 
      "name": "_mul10950", 
      "inputs": [[514, 0, 0], [507, 0, 0]]
    }, 
    {
      "op": "Activation", 
      "name": "activation18250", 
      "attr": {"act_type": "sigmoid"}, 
      "inputs": [[512, 0, 0]]
    }, 
    {
      "op": "Activation", 
      "name": "activation18253", 
      "attr": {"act_type": "tanh"}, 
      "inputs": [[512, 3, 0]]
    }, 
    {
      "op": "_mul", 
      "name": "_mul10951", 
      "inputs": [[516, 0, 0], [517, 0, 0]]
    }, 
    {
      "op": "elemwise_add", 
      "name": "_plus7301", 
      "inputs": [[515, 0, 0], [518, 0, 0]]
    }, 
    {
      "op": "Activation", 
      "name": "activation18254", 
      "attr": {"act_type": "tanh"}, 
      "inputs": [[519, 0, 0]]
    }, 
    {
      "op": "_mul", 
      "name": "_mul10952", 
      "inputs": [[513, 0, 0], [520, 0, 0]]
    }, 
    {
      "op": "FullyConnected", 
      "name": "t26_l0_h2h", 
      "attr": {"num_hidden": "200"}, 
      "inputs": [[521, 0, 0], [207, 0, 0], [208, 0, 0]]
    }, 
    {
      "op": "elemwise_add", 
      "name": "_plus7304", 
      "inputs": [[179, 0, 0], [522, 0, 0]]
    }, 
    {
      "op": "SliceChannel", 
      "name": "t26_l0_slice", 
      "attr": {"num_outputs": "4"}, 
      "inputs": [[523, 0, 0]]
    }, 
    {
      "op": "Activation", 
      "name": "activation18262", 
      "attr": {"act_type": "sigmoid"}, 
      "inputs": [[524, 2, 0]]
    }, 
    {
      "op": "Activation", 
      "name": "activation18261", 
      "attr": {"act_type": "sigmoid"}, 
      "inputs": [[524, 1, 0]]
    }, 
    {
      "op": "_mul", 
      "name": "_mul10956", 
      "inputs": [[526, 0, 0], [519, 0, 0]]
    }, 
    {
      "op": "Activation", 
      "name": "activation18260", 
      "attr": {"act_type": "sigmoid"}, 
      "inputs": [[524, 0, 0]]
    }, 
    {
      "op": "Activation", 
      "name": "activation18263", 
      "attr": {"act_type": "tanh"}, 
      "inputs": [[524, 3, 0]]
    }, 
    {
      "op": "_mul", 
      "name": "_mul10957", 
      "inputs": [[528, 0, 0], [529, 0, 0]]
    }, 
    {
      "op": "elemwise_add", 
      "name": "_plus7305", 
      "inputs": [[527, 0, 0], [530, 0, 0]]
    }, 
    {
      "op": "Activation", 
      "name": "activation18264", 
      "attr": {"act_type": "tanh"}, 
      "inputs": [[531, 0, 0]]
    }, 
    {
      "op": "_mul", 
      "name": "_mul10958", 
      "inputs": [[525, 0, 0], [532, 0, 0]]
    }, 
    {
      "op": "FullyConnected", 
      "name": "t27_l0_h2h", 
      "attr": {"num_hidden": "200"}, 
      "inputs": [[533, 0, 0], [207, 0, 0], [208, 0, 0]]
    }, 
    {
      "op": "elemwise_add", 
      "name": "_plus7308", 
      "inputs": [[178, 0, 0], [534, 0, 0]]
    }, 
    {
      "op": "SliceChannel", 
      "name": "t27_l0_slice", 
      "attr": {"num_outputs": "4"}, 
      "inputs": [[535, 0, 0]]
    }, 
    {
      "op": "Activation", 
      "name": "activation18272", 
      "attr": {"act_type": "sigmoid"}, 
      "inputs": [[536, 2, 0]]
    }, 
    {
      "op": "Activation", 
      "name": "activation18271", 
      "attr": {"act_type": "sigmoid"}, 
      "inputs": [[536, 1, 0]]
    }, 
    {
      "op": "_mul", 
      "name": "_mul10962", 
      "inputs": [[538, 0, 0], [531, 0, 0]]
    }, 
    {
      "op": "Activation", 
      "name": "activation18270", 
      "attr": {"act_type": "sigmoid"}, 
      "inputs": [[536, 0, 0]]
    }, 
    {
      "op": "Activation", 
      "name": "activation18273", 
      "attr": {"act_type": "tanh"}, 
      "inputs": [[536, 3, 0]]
    }, 
    {
      "op": "_mul", 
      "name": "_mul10963", 
      "inputs": [[540, 0, 0], [541, 0, 0]]
    }, 
    {
      "op": "elemwise_add", 
      "name": "_plus7309", 
      "inputs": [[539, 0, 0], [542, 0, 0]]
    }, 
    {
      "op": "Activation", 
      "name": "activation18274", 
      "attr": {"act_type": "tanh"}, 
      "inputs": [[543, 0, 0]]
    }, 
    {
      "op": "_mul", 
      "name": "_mul10964", 
      "inputs": [[537, 0, 0], [544, 0, 0]]
    }, 
    {
      "op": "FullyConnected", 
      "name": "t28_l0_h2h", 
      "attr": {"num_hidden": "200"}, 
      "inputs": [[545, 0, 0], [207, 0, 0], [208, 0, 0]]
    }, 
    {
      "op": "elemwise_add", 
      "name": "_plus7312", 
      "inputs": [[177, 0, 0], [546, 0, 0]]
    }, 
    {
      "op": "SliceChannel", 
      "name": "t28_l0_slice", 
      "attr": {"num_outputs": "4"}, 
      "inputs": [[547, 0, 0]]
    }, 
    {
      "op": "Activation", 
      "name": "activation18282", 
      "attr": {"act_type": "sigmoid"}, 
      "inputs": [[548, 2, 0]]
    }, 
    {
      "op": "Activation", 
      "name": "activation18281", 
      "attr": {"act_type": "sigmoid"}, 
      "inputs": [[548, 1, 0]]
    }, 
    {
      "op": "_mul", 
      "name": "_mul10968", 
      "inputs": [[550, 0, 0], [543, 0, 0]]
    }, 
    {
      "op": "Activation", 
      "name": "activation18280", 
      "attr": {"act_type": "sigmoid"}, 
      "inputs": [[548, 0, 0]]
    }, 
    {
      "op": "Activation", 
      "name": "activation18283", 
      "attr": {"act_type": "tanh"}, 
      "inputs": [[548, 3, 0]]
    }, 
    {
      "op": "_mul", 
      "name": "_mul10969", 
      "inputs": [[552, 0, 0], [553, 0, 0]]
    }, 
    {
      "op": "elemwise_add", 
      "name": "_plus7313", 
      "inputs": [[551, 0, 0], [554, 0, 0]]
    }, 
    {
      "op": "Activation", 
      "name": "activation18284", 
      "attr": {"act_type": "tanh"}, 
      "inputs": [[555, 0, 0]]
    }, 
    {
      "op": "_mul", 
      "name": "_mul10970", 
      "inputs": [[549, 0, 0], [556, 0, 0]]
    }, 
    {
      "op": "FullyConnected", 
      "name": "t29_l0_h2h", 
      "attr": {"num_hidden": "200"}, 
      "inputs": [[557, 0, 0], [207, 0, 0], [208, 0, 0]]
    }, 
    {
      "op": "elemwise_add", 
      "name": "_plus7316", 
      "inputs": [[176, 0, 0], [558, 0, 0]]
    }, 
    {
      "op": "SliceChannel", 
      "name": "t29_l0_slice", 
      "attr": {"num_outputs": "4"}, 
      "inputs": [[559, 0, 0]]
    }, 
    {
      "op": "Activation", 
      "name": "activation18292", 
      "attr": {"act_type": "sigmoid"}, 
      "inputs": [[560, 2, 0]]
    }, 
    {
      "op": "Activation", 
      "name": "activation18291", 
      "attr": {"act_type": "sigmoid"}, 
      "inputs": [[560, 1, 0]]
    }, 
    {
      "op": "_mul", 
      "name": "_mul10974", 
      "inputs": [[562, 0, 0], [555, 0, 0]]
    }, 
    {
      "op": "Activation", 
      "name": "activation18290", 
      "attr": {"act_type": "sigmoid"}, 
      "inputs": [[560, 0, 0]]
    }, 
    {
      "op": "Activation", 
      "name": "activation18293", 
      "attr": {"act_type": "tanh"}, 
      "inputs": [[560, 3, 0]]
    }, 
    {
      "op": "_mul", 
      "name": "_mul10975", 
      "inputs": [[564, 0, 0], [565, 0, 0]]
    }, 
    {
      "op": "elemwise_add", 
      "name": "_plus7317", 
      "inputs": [[563, 0, 0], [566, 0, 0]]
    }, 
    {
      "op": "Activation", 
      "name": "activation18294", 
      "attr": {"act_type": "tanh"}, 
      "inputs": [[567, 0, 0]]
    }, 
    {
      "op": "_mul", 
      "name": "_mul10976", 
      "inputs": [[561, 0, 0], [568, 0, 0]]
    }, 
    {
      "op": "FullyConnected", 
      "name": "t30_l0_h2h", 
      "attr": {"num_hidden": "200"}, 
      "inputs": [[569, 0, 0], [207, 0, 0], [208, 0, 0]]
    }, 
    {
      "op": "elemwise_add", 
      "name": "_plus7320", 
      "inputs": [[175, 0, 0], [570, 0, 0]]
    }, 
    {
      "op": "SliceChannel", 
      "name": "t30_l0_slice", 
      "attr": {"num_outputs": "4"}, 
      "inputs": [[571, 0, 0]]
    }, 
    {
      "op": "Activation", 
      "name": "activation18302", 
      "attr": {"act_type": "sigmoid"}, 
      "inputs": [[572, 2, 0]]
    }, 
    {
      "op": "Activation", 
      "name": "activation18301", 
      "attr": {"act_type": "sigmoid"}, 
      "inputs": [[572, 1, 0]]
    }, 
    {
      "op": "_mul", 
      "name": "_mul10980", 
      "inputs": [[574, 0, 0], [567, 0, 0]]
    }, 
    {
      "op": "Activation", 
      "name": "activation18300", 
      "attr": {"act_type": "sigmoid"}, 
      "inputs": [[572, 0, 0]]
    }, 
    {
      "op": "Activation", 
      "name": "activation18303", 
      "attr": {"act_type": "tanh"}, 
      "inputs": [[572, 3, 0]]
    }, 
    {
      "op": "_mul", 
      "name": "_mul10981", 
      "inputs": [[576, 0, 0], [577, 0, 0]]
    }, 
    {
      "op": "elemwise_add", 
      "name": "_plus7321", 
      "inputs": [[575, 0, 0], [578, 0, 0]]
    }, 
    {
      "op": "Activation", 
      "name": "activation18304", 
      "attr": {"act_type": "tanh"}, 
      "inputs": [[579, 0, 0]]
    }, 
    {
      "op": "_mul", 
      "name": "_mul10982", 
      "inputs": [[573, 0, 0], [580, 0, 0]]
    }, 
    {
      "op": "FullyConnected", 
      "name": "t31_l0_h2h", 
      "attr": {"num_hidden": "200"}, 
      "inputs": [[581, 0, 0], [207, 0, 0], [208, 0, 0]]
    }, 
    {
      "op": "elemwise_add", 
      "name": "_plus7324", 
      "inputs": [[174, 0, 0], [582, 0, 0]]
    }, 
    {
      "op": "SliceChannel", 
      "name": "t31_l0_slice", 
      "attr": {"num_outputs": "4"}, 
      "inputs": [[583, 0, 0]]
    }, 
    {
      "op": "Activation", 
      "name": "activation18312", 
      "attr": {"act_type": "sigmoid"}, 
      "inputs": [[584, 2, 0]]
    }, 
    {
      "op": "Activation", 
      "name": "activation18311", 
      "attr": {"act_type": "sigmoid"}, 
      "inputs": [[584, 1, 0]]
    }, 
    {
      "op": "_mul", 
      "name": "_mul10986", 
      "inputs": [[586, 0, 0], [579, 0, 0]]
    }, 
    {
      "op": "Activation", 
      "name": "activation18310", 
      "attr": {"act_type": "sigmoid"}, 
      "inputs": [[584, 0, 0]]
    }, 
    {
      "op": "Activation", 
      "name": "activation18313", 
      "attr": {"act_type": "tanh"}, 
      "inputs": [[584, 3, 0]]
    }, 
    {
      "op": "_mul", 
      "name": "_mul10987", 
      "inputs": [[588, 0, 0], [589, 0, 0]]
    }, 
    {
      "op": "elemwise_add", 
      "name": "_plus7325", 
      "inputs": [[587, 0, 0], [590, 0, 0]]
    }, 
    {
      "op": "Activation", 
      "name": "activation18314", 
      "attr": {"act_type": "tanh"}, 
      "inputs": [[591, 0, 0]]
    }, 
    {
      "op": "_mul", 
      "name": "_mul10988", 
      "inputs": [[585, 0, 0], [592, 0, 0]]
    }, 
    {
      "op": "FullyConnected", 
      "name": "t32_l0_h2h", 
      "attr": {"num_hidden": "200"}, 
      "inputs": [[593, 0, 0], [207, 0, 0], [208, 0, 0]]
    }, 
    {
      "op": "elemwise_add", 
      "name": "_plus7328", 
      "inputs": [[173, 0, 0], [594, 0, 0]]
    }, 
    {
      "op": "SliceChannel", 
      "name": "t32_l0_slice", 
      "attr": {"num_outputs": "4"}, 
      "inputs": [[595, 0, 0]]
    }, 
    {
      "op": "Activation", 
      "name": "activation18322", 
      "attr": {"act_type": "sigmoid"}, 
      "inputs": [[596, 2, 0]]
    }, 
    {
      "op": "Activation", 
      "name": "activation18321", 
      "attr": {"act_type": "sigmoid"}, 
      "inputs": [[596, 1, 0]]
    }, 
    {
      "op": "_mul", 
      "name": "_mul10992", 
      "inputs": [[598, 0, 0], [591, 0, 0]]
    }, 
    {
      "op": "Activation", 
      "name": "activation18320", 
      "attr": {"act_type": "sigmoid"}, 
      "inputs": [[596, 0, 0]]
    }, 
    {
      "op": "Activation", 
      "name": "activation18323", 
      "attr": {"act_type": "tanh"}, 
      "inputs": [[596, 3, 0]]
    }, 
    {
      "op": "_mul", 
      "name": "_mul10993", 
      "inputs": [[600, 0, 0], [601, 0, 0]]
    }, 
    {
      "op": "elemwise_add", 
      "name": "_plus7329", 
      "inputs": [[599, 0, 0], [602, 0, 0]]
    }, 
    {
      "op": "Activation", 
      "name": "activation18324", 
      "attr": {"act_type": "tanh"}, 
      "inputs": [[603, 0, 0]]
    }, 
    {
      "op": "_mul", 
      "name": "_mul10994", 
      "inputs": [[597, 0, 0], [604, 0, 0]]
    }, 
    {
      "op": "FullyConnected", 
      "name": "t33_l0_h2h", 
      "attr": {"num_hidden": "200"}, 
      "inputs": [[605, 0, 0], [207, 0, 0], [208, 0, 0]]
    }, 
    {
      "op": "elemwise_add", 
      "name": "_plus7332", 
      "inputs": [[172, 0, 0], [606, 0, 0]]
    }, 
    {
      "op": "SliceChannel", 
      "name": "t33_l0_slice", 
      "attr": {"num_outputs": "4"}, 
      "inputs": [[607, 0, 0]]
    }, 
    {
      "op": "Activation", 
      "name": "activation18332", 
      "attr": {"act_type": "sigmoid"}, 
      "inputs": [[608, 2, 0]]
    }, 
    {
      "op": "Activation", 
      "name": "activation18331", 
      "attr": {"act_type": "sigmoid"}, 
      "inputs": [[608, 1, 0]]
    }, 
    {
      "op": "_mul", 
      "name": "_mul10998", 
      "inputs": [[610, 0, 0], [603, 0, 0]]
    }, 
    {
      "op": "Activation", 
      "name": "activation18330", 
      "attr": {"act_type": "sigmoid"}, 
      "inputs": [[608, 0, 0]]
    }, 
    {
      "op": "Activation", 
      "name": "activation18333", 
      "attr": {"act_type": "tanh"}, 
      "inputs": [[608, 3, 0]]
    }, 
    {
      "op": "_mul", 
      "name": "_mul10999", 
      "inputs": [[612, 0, 0], [613, 0, 0]]
    }, 
    {
      "op": "elemwise_add", 
      "name": "_plus7333", 
      "inputs": [[611, 0, 0], [614, 0, 0]]
    }, 
    {
      "op": "Activation", 
      "name": "activation18334", 
      "attr": {"act_type": "tanh"}, 
      "inputs": [[615, 0, 0]]
    }, 
    {
      "op": "_mul", 
      "name": "_mul11000", 
      "inputs": [[609, 0, 0], [616, 0, 0]]
    }, 
    {
      "op": "FullyConnected", 
      "name": "t34_l0_h2h", 
      "attr": {"num_hidden": "200"}, 
      "inputs": [[617, 0, 0], [207, 0, 0], [208, 0, 0]]
    }, 
    {
      "op": "elemwise_add", 
      "name": "_plus7336", 
      "inputs": [[171, 0, 0], [618, 0, 0]]
    }, 
    {
      "op": "SliceChannel", 
      "name": "t34_l0_slice", 
      "attr": {"num_outputs": "4"}, 
      "inputs": [[619, 0, 0]]
    }, 
    {
      "op": "Activation", 
      "name": "activation18342", 
      "attr": {"act_type": "sigmoid"}, 
      "inputs": [[620, 2, 0]]
    }, 
    {
      "op": "Activation", 
      "name": "activation18341", 
      "attr": {"act_type": "sigmoid"}, 
      "inputs": [[620, 1, 0]]
    }, 
    {
      "op": "_mul", 
      "name": "_mul11004", 
      "inputs": [[622, 0, 0], [615, 0, 0]]
    }, 
    {
      "op": "Activation", 
      "name": "activation18340", 
      "attr": {"act_type": "sigmoid"}, 
      "inputs": [[620, 0, 0]]
    }, 
    {
      "op": "Activation", 
      "name": "activation18343", 
      "attr": {"act_type": "tanh"}, 
      "inputs": [[620, 3, 0]]
    }, 
    {
      "op": "_mul", 
      "name": "_mul11005", 
      "inputs": [[624, 0, 0], [625, 0, 0]]
    }, 
    {
      "op": "elemwise_add", 
      "name": "_plus7337", 
      "inputs": [[623, 0, 0], [626, 0, 0]]
    }, 
    {
      "op": "Activation", 
      "name": "activation18344", 
      "attr": {"act_type": "tanh"}, 
      "inputs": [[627, 0, 0]]
    }, 
    {
      "op": "_mul", 
      "name": "_mul11006", 
      "inputs": [[621, 0, 0], [628, 0, 0]]
    }, 
    {
      "op": "FullyConnected", 
      "name": "t35_l0_h2h", 
      "attr": {"num_hidden": "200"}, 
      "inputs": [[629, 0, 0], [207, 0, 0], [208, 0, 0]]
    }, 
    {
      "op": "elemwise_add", 
      "name": "_plus7340", 
      "inputs": [[170, 0, 0], [630, 0, 0]]
    }, 
    {
      "op": "SliceChannel", 
      "name": "t35_l0_slice", 
      "attr": {"num_outputs": "4"}, 
      "inputs": [[631, 0, 0]]
    }, 
    {
      "op": "Activation", 
      "name": "activation18352", 
      "attr": {"act_type": "sigmoid"}, 
      "inputs": [[632, 2, 0]]
    }, 
    {
      "op": "Activation", 
      "name": "activation18351", 
      "attr": {"act_type": "sigmoid"}, 
      "inputs": [[632, 1, 0]]
    }, 
    {
      "op": "_mul", 
      "name": "_mul11010", 
      "inputs": [[634, 0, 0], [627, 0, 0]]
    }, 
    {
      "op": "Activation", 
      "name": "activation18350", 
      "attr": {"act_type": "sigmoid"}, 
      "inputs": [[632, 0, 0]]
    }, 
    {
      "op": "Activation", 
      "name": "activation18353", 
      "attr": {"act_type": "tanh"}, 
      "inputs": [[632, 3, 0]]
    }, 
    {
      "op": "_mul", 
      "name": "_mul11011", 
      "inputs": [[636, 0, 0], [637, 0, 0]]
    }, 
    {
      "op": "elemwise_add", 
      "name": "_plus7341", 
      "inputs": [[635, 0, 0], [638, 0, 0]]
    }, 
    {
      "op": "Activation", 
      "name": "activation18354", 
      "attr": {"act_type": "tanh"}, 
      "inputs": [[639, 0, 0]]
    }, 
    {
      "op": "_mul", 
      "name": "_mul11012", 
      "inputs": [[633, 0, 0], [640, 0, 0]]
    }, 
    {
      "op": "FullyConnected", 
      "name": "t36_l0_h2h", 
      "attr": {"num_hidden": "200"}, 
      "inputs": [[641, 0, 0], [207, 0, 0], [208, 0, 0]]
    }, 
    {
      "op": "elemwise_add", 
      "name": "_plus7344", 
      "inputs": [[169, 0, 0], [642, 0, 0]]
    }, 
    {
      "op": "SliceChannel", 
      "name": "t36_l0_slice", 
      "attr": {"num_outputs": "4"}, 
      "inputs": [[643, 0, 0]]
    }, 
    {
      "op": "Activation", 
      "name": "activation18362", 
      "attr": {"act_type": "sigmoid"}, 
      "inputs": [[644, 2, 0]]
    }, 
    {
      "op": "Activation", 
      "name": "activation18361", 
      "attr": {"act_type": "sigmoid"}, 
      "inputs": [[644, 1, 0]]
    }, 
    {
      "op": "_mul", 
      "name": "_mul11016", 
      "inputs": [[646, 0, 0], [639, 0, 0]]
    }, 
    {
      "op": "Activation", 
      "name": "activation18360", 
      "attr": {"act_type": "sigmoid"}, 
      "inputs": [[644, 0, 0]]
    }, 
    {
      "op": "Activation", 
      "name": "activation18363", 
      "attr": {"act_type": "tanh"}, 
      "inputs": [[644, 3, 0]]
    }, 
    {
      "op": "_mul", 
      "name": "_mul11017", 
      "inputs": [[648, 0, 0], [649, 0, 0]]
    }, 
    {
      "op": "elemwise_add", 
      "name": "_plus7345", 
      "inputs": [[647, 0, 0], [650, 0, 0]]
    }, 
    {
      "op": "Activation", 
      "name": "activation18364", 
      "attr": {"act_type": "tanh"}, 
      "inputs": [[651, 0, 0]]
    }, 
    {
      "op": "_mul", 
      "name": "_mul11018", 
      "inputs": [[645, 0, 0], [652, 0, 0]]
    }, 
    {
      "op": "FullyConnected", 
      "name": "t37_l0_h2h", 
      "attr": {"num_hidden": "200"}, 
      "inputs": [[653, 0, 0], [207, 0, 0], [208, 0, 0]]
    }, 
    {
      "op": "elemwise_add", 
      "name": "_plus7348", 
      "inputs": [[168, 0, 0], [654, 0, 0]]
    }, 
    {
      "op": "SliceChannel", 
      "name": "t37_l0_slice", 
      "attr": {"num_outputs": "4"}, 
      "inputs": [[655, 0, 0]]
    }, 
    {
      "op": "Activation", 
      "name": "activation18372", 
      "attr": {"act_type": "sigmoid"}, 
      "inputs": [[656, 2, 0]]
    }, 
    {
      "op": "Activation", 
      "name": "activation18371", 
      "attr": {"act_type": "sigmoid"}, 
      "inputs": [[656, 1, 0]]
    }, 
    {
      "op": "_mul", 
      "name": "_mul11022", 
      "inputs": [[658, 0, 0], [651, 0, 0]]
    }, 
    {
      "op": "Activation", 
      "name": "activation18370", 
      "attr": {"act_type": "sigmoid"}, 
      "inputs": [[656, 0, 0]]
    }, 
    {
      "op": "Activation", 
      "name": "activation18373", 
      "attr": {"act_type": "tanh"}, 
      "inputs": [[656, 3, 0]]
    }, 
    {
      "op": "_mul", 
      "name": "_mul11023", 
      "inputs": [[660, 0, 0], [661, 0, 0]]
    }, 
    {
      "op": "elemwise_add", 
      "name": "_plus7349", 
      "inputs": [[659, 0, 0], [662, 0, 0]]
    }, 
    {
      "op": "Activation", 
      "name": "activation18374", 
      "attr": {"act_type": "tanh"}, 
      "inputs": [[663, 0, 0]]
    }, 
    {
      "op": "_mul", 
      "name": "_mul11024", 
      "inputs": [[657, 0, 0], [664, 0, 0]]
    }, 
    {
      "op": "FullyConnected", 
      "name": "t38_l0_h2h", 
      "attr": {"num_hidden": "200"}, 
      "inputs": [[665, 0, 0], [207, 0, 0], [208, 0, 0]]
    }, 
    {
      "op": "elemwise_add", 
      "name": "_plus7352", 
      "inputs": [[167, 0, 0], [666, 0, 0]]
    }, 
    {
      "op": "SliceChannel", 
      "name": "t38_l0_slice", 
      "attr": {"num_outputs": "4"}, 
      "inputs": [[667, 0, 0]]
    }, 
    {
      "op": "Activation", 
      "name": "activation18382", 
      "attr": {"act_type": "sigmoid"}, 
      "inputs": [[668, 2, 0]]
    }, 
    {
      "op": "Activation", 
      "name": "activation18381", 
      "attr": {"act_type": "sigmoid"}, 
      "inputs": [[668, 1, 0]]
    }, 
    {
      "op": "_mul", 
      "name": "_mul11028", 
      "inputs": [[670, 0, 0], [663, 0, 0]]
    }, 
    {
      "op": "Activation", 
      "name": "activation18380", 
      "attr": {"act_type": "sigmoid"}, 
      "inputs": [[668, 0, 0]]
    }, 
    {
      "op": "Activation", 
      "name": "activation18383", 
      "attr": {"act_type": "tanh"}, 
      "inputs": [[668, 3, 0]]
    }, 
    {
      "op": "_mul", 
      "name": "_mul11029", 
      "inputs": [[672, 0, 0], [673, 0, 0]]
    }, 
    {
      "op": "elemwise_add", 
      "name": "_plus7353", 
      "inputs": [[671, 0, 0], [674, 0, 0]]
    }, 
    {
      "op": "Activation", 
      "name": "activation18384", 
      "attr": {"act_type": "tanh"}, 
      "inputs": [[675, 0, 0]]
    }, 
    {
      "op": "_mul", 
      "name": "_mul11030", 
      "inputs": [[669, 0, 0], [676, 0, 0]]
    }, 
    {
      "op": "FullyConnected", 
      "name": "t39_l0_h2h", 
      "attr": {"num_hidden": "200"}, 
      "inputs": [[677, 0, 0], [207, 0, 0], [208, 0, 0]]
    }, 
    {
      "op": "elemwise_add", 
      "name": "_plus7356", 
      "inputs": [[166, 0, 0], [678, 0, 0]]
    }, 
    {
      "op": "SliceChannel", 
      "name": "t39_l0_slice", 
      "attr": {"num_outputs": "4"}, 
      "inputs": [[679, 0, 0]]
    }, 
    {
      "op": "Activation", 
      "name": "activation18392", 
      "attr": {"act_type": "sigmoid"}, 
      "inputs": [[680, 2, 0]]
    }, 
    {
      "op": "Activation", 
      "name": "activation18391", 
      "attr": {"act_type": "sigmoid"}, 
      "inputs": [[680, 1, 0]]
    }, 
    {
      "op": "_mul", 
      "name": "_mul11034", 
      "inputs": [[682, 0, 0], [675, 0, 0]]
    }, 
    {
      "op": "Activation", 
      "name": "activation18390", 
      "attr": {"act_type": "sigmoid"}, 
      "inputs": [[680, 0, 0]]
    }, 
    {
      "op": "Activation", 
      "name": "activation18393", 
      "attr": {"act_type": "tanh"}, 
      "inputs": [[680, 3, 0]]
    }, 
    {
      "op": "_mul", 
      "name": "_mul11035", 
      "inputs": [[684, 0, 0], [685, 0, 0]]
    }, 
    {
      "op": "elemwise_add", 
      "name": "_plus7357", 
      "inputs": [[683, 0, 0], [686, 0, 0]]
    }, 
    {
      "op": "Activation", 
      "name": "activation18394", 
      "attr": {"act_type": "tanh"}, 
      "inputs": [[687, 0, 0]]
    }, 
    {
      "op": "_mul", 
      "name": "_mul11036", 
      "inputs": [[681, 0, 0], [688, 0, 0]]
    }, 
    {
      "op": "FullyConnected", 
      "name": "t40_l0_h2h", 
      "attr": {"num_hidden": "200"}, 
      "inputs": [[689, 0, 0], [207, 0, 0], [208, 0, 0]]
    }, 
    {
      "op": "elemwise_add", 
      "name": "_plus7360", 
      "inputs": [[165, 0, 0], [690, 0, 0]]
    }, 
    {
      "op": "SliceChannel", 
      "name": "t40_l0_slice", 
      "attr": {"num_outputs": "4"}, 
      "inputs": [[691, 0, 0]]
    }, 
    {
      "op": "Activation", 
      "name": "activation18402", 
      "attr": {"act_type": "sigmoid"}, 
      "inputs": [[692, 2, 0]]
    }, 
    {
      "op": "Activation", 
      "name": "activation18401", 
      "attr": {"act_type": "sigmoid"}, 
      "inputs": [[692, 1, 0]]
    }, 
    {
      "op": "_mul", 
      "name": "_mul11040", 
      "inputs": [[694, 0, 0], [687, 0, 0]]
    }, 
    {
      "op": "Activation", 
      "name": "activation18400", 
      "attr": {"act_type": "sigmoid"}, 
      "inputs": [[692, 0, 0]]
    }, 
    {
      "op": "Activation", 
      "name": "activation18403", 
      "attr": {"act_type": "tanh"}, 
      "inputs": [[692, 3, 0]]
    }, 
    {
      "op": "_mul", 
      "name": "_mul11041", 
      "inputs": [[696, 0, 0], [697, 0, 0]]
    }, 
    {
      "op": "elemwise_add", 
      "name": "_plus7361", 
      "inputs": [[695, 0, 0], [698, 0, 0]]
    }, 
    {
      "op": "Activation", 
      "name": "activation18404", 
      "attr": {"act_type": "tanh"}, 
      "inputs": [[699, 0, 0]]
    }, 
    {
      "op": "_mul", 
      "name": "_mul11042", 
      "inputs": [[693, 0, 0], [700, 0, 0]]
    }, 
    {
      "op": "FullyConnected", 
      "name": "t41_l0_h2h", 
      "attr": {"num_hidden": "200"}, 
      "inputs": [[701, 0, 0], [207, 0, 0], [208, 0, 0]]
    }, 
    {
      "op": "elemwise_add", 
      "name": "_plus7364", 
      "inputs": [[164, 0, 0], [702, 0, 0]]
    }, 
    {
      "op": "SliceChannel", 
      "name": "t41_l0_slice", 
      "attr": {"num_outputs": "4"}, 
      "inputs": [[703, 0, 0]]
    }, 
    {
      "op": "Activation", 
      "name": "activation18412", 
      "attr": {"act_type": "sigmoid"}, 
      "inputs": [[704, 2, 0]]
    }, 
    {
      "op": "Activation", 
      "name": "activation18411", 
      "attr": {"act_type": "sigmoid"}, 
      "inputs": [[704, 1, 0]]
    }, 
    {
      "op": "_mul", 
      "name": "_mul11046", 
      "inputs": [[706, 0, 0], [699, 0, 0]]
    }, 
    {
      "op": "Activation", 
      "name": "activation18410", 
      "attr": {"act_type": "sigmoid"}, 
      "inputs": [[704, 0, 0]]
    }, 
    {
      "op": "Activation", 
      "name": "activation18413", 
      "attr": {"act_type": "tanh"}, 
      "inputs": [[704, 3, 0]]
    }, 
    {
      "op": "_mul", 
      "name": "_mul11047", 
      "inputs": [[708, 0, 0], [709, 0, 0]]
    }, 
    {
      "op": "elemwise_add", 
      "name": "_plus7365", 
      "inputs": [[707, 0, 0], [710, 0, 0]]
    }, 
    {
      "op": "Activation", 
      "name": "activation18414", 
      "attr": {"act_type": "tanh"}, 
      "inputs": [[711, 0, 0]]
    }, 
    {
      "op": "_mul", 
      "name": "_mul11048", 
      "inputs": [[705, 0, 0], [712, 0, 0]]
    }, 
    {
      "op": "FullyConnected", 
      "name": "t42_l0_h2h", 
      "attr": {"num_hidden": "200"}, 
      "inputs": [[713, 0, 0], [207, 0, 0], [208, 0, 0]]
    }, 
    {
      "op": "elemwise_add", 
      "name": "_plus7368", 
      "inputs": [[163, 0, 0], [714, 0, 0]]
    }, 
    {
      "op": "SliceChannel", 
      "name": "t42_l0_slice", 
      "attr": {"num_outputs": "4"}, 
      "inputs": [[715, 0, 0]]
    }, 
    {
      "op": "Activation", 
      "name": "activation18422", 
      "attr": {"act_type": "sigmoid"}, 
      "inputs": [[716, 2, 0]]
    }, 
    {
      "op": "Activation", 
      "name": "activation18421", 
      "attr": {"act_type": "sigmoid"}, 
      "inputs": [[716, 1, 0]]
    }, 
    {
      "op": "_mul", 
      "name": "_mul11052", 
      "inputs": [[718, 0, 0], [711, 0, 0]]
    }, 
    {
      "op": "Activation", 
      "name": "activation18420", 
      "attr": {"act_type": "sigmoid"}, 
      "inputs": [[716, 0, 0]]
    }, 
    {
      "op": "Activation", 
      "name": "activation18423", 
      "attr": {"act_type": "tanh"}, 
      "inputs": [[716, 3, 0]]
    }, 
    {
      "op": "_mul", 
      "name": "_mul11053", 
      "inputs": [[720, 0, 0], [721, 0, 0]]
    }, 
    {
      "op": "elemwise_add", 
      "name": "_plus7369", 
      "inputs": [[719, 0, 0], [722, 0, 0]]
    }, 
    {
      "op": "Activation", 
      "name": "activation18424", 
      "attr": {"act_type": "tanh"}, 
      "inputs": [[723, 0, 0]]
    }, 
    {
      "op": "_mul", 
      "name": "_mul11054", 
      "inputs": [[717, 0, 0], [724, 0, 0]]
    }, 
    {
      "op": "FullyConnected", 
      "name": "t43_l0_h2h", 
      "attr": {"num_hidden": "200"}, 
      "inputs": [[725, 0, 0], [207, 0, 0], [208, 0, 0]]
    }, 
    {
      "op": "elemwise_add", 
      "name": "_plus7372", 
      "inputs": [[162, 0, 0], [726, 0, 0]]
    }, 
    {
      "op": "SliceChannel", 
      "name": "t43_l0_slice", 
      "attr": {"num_outputs": "4"}, 
      "inputs": [[727, 0, 0]]
    }, 
    {
      "op": "Activation", 
      "name": "activation18432", 
      "attr": {"act_type": "sigmoid"}, 
      "inputs": [[728, 2, 0]]
    }, 
    {
      "op": "Activation", 
      "name": "activation18431", 
      "attr": {"act_type": "sigmoid"}, 
      "inputs": [[728, 1, 0]]
    }, 
    {
      "op": "_mul", 
      "name": "_mul11058", 
      "inputs": [[730, 0, 0], [723, 0, 0]]
    }, 
    {
      "op": "Activation", 
      "name": "activation18430", 
      "attr": {"act_type": "sigmoid"}, 
      "inputs": [[728, 0, 0]]
    }, 
    {
      "op": "Activation", 
      "name": "activation18433", 
      "attr": {"act_type": "tanh"}, 
      "inputs": [[728, 3, 0]]
    }, 
    {
      "op": "_mul", 
      "name": "_mul11059", 
      "inputs": [[732, 0, 0], [733, 0, 0]]
    }, 
    {
      "op": "elemwise_add", 
      "name": "_plus7373", 
      "inputs": [[731, 0, 0], [734, 0, 0]]
    }, 
    {
      "op": "Activation", 
      "name": "activation18434", 
      "attr": {"act_type": "tanh"}, 
      "inputs": [[735, 0, 0]]
    }, 
    {
      "op": "_mul", 
      "name": "_mul11060", 
      "inputs": [[729, 0, 0], [736, 0, 0]]
    }, 
    {
      "op": "FullyConnected", 
      "name": "t44_l0_h2h", 
      "attr": {"num_hidden": "200"}, 
      "inputs": [[737, 0, 0], [207, 0, 0], [208, 0, 0]]
    }, 
    {
      "op": "elemwise_add", 
      "name": "_plus7376", 
      "inputs": [[161, 0, 0], [738, 0, 0]]
    }, 
    {
      "op": "SliceChannel", 
      "name": "t44_l0_slice", 
      "attr": {"num_outputs": "4"}, 
      "inputs": [[739, 0, 0]]
    }, 
    {
      "op": "Activation", 
      "name": "activation18442", 
      "attr": {"act_type": "sigmoid"}, 
      "inputs": [[740, 2, 0]]
    }, 
    {
      "op": "Activation", 
      "name": "activation18441", 
      "attr": {"act_type": "sigmoid"}, 
      "inputs": [[740, 1, 0]]
    }, 
    {
      "op": "_mul", 
      "name": "_mul11064", 
      "inputs": [[742, 0, 0], [735, 0, 0]]
    }, 
    {
      "op": "Activation", 
      "name": "activation18440", 
      "attr": {"act_type": "sigmoid"}, 
      "inputs": [[740, 0, 0]]
    }, 
    {
      "op": "Activation", 
      "name": "activation18443", 
      "attr": {"act_type": "tanh"}, 
      "inputs": [[740, 3, 0]]
    }, 
    {
      "op": "_mul", 
      "name": "_mul11065", 
      "inputs": [[744, 0, 0], [745, 0, 0]]
    }, 
    {
      "op": "elemwise_add", 
      "name": "_plus7377", 
      "inputs": [[743, 0, 0], [746, 0, 0]]
    }, 
    {
      "op": "Activation", 
      "name": "activation18444", 
      "attr": {"act_type": "tanh"}, 
      "inputs": [[747, 0, 0]]
    }, 
    {
      "op": "_mul", 
      "name": "_mul11066", 
      "inputs": [[741, 0, 0], [748, 0, 0]]
    }, 
    {
      "op": "FullyConnected", 
      "name": "t45_l0_h2h", 
      "attr": {"num_hidden": "200"}, 
      "inputs": [[749, 0, 0], [207, 0, 0], [208, 0, 0]]
    }, 
    {
      "op": "elemwise_add", 
      "name": "_plus7380", 
      "inputs": [[160, 0, 0], [750, 0, 0]]
    }, 
    {
      "op": "SliceChannel", 
      "name": "t45_l0_slice", 
      "attr": {"num_outputs": "4"}, 
      "inputs": [[751, 0, 0]]
    }, 
    {
      "op": "Activation", 
      "name": "activation18452", 
      "attr": {"act_type": "sigmoid"}, 
      "inputs": [[752, 2, 0]]
    }, 
    {
      "op": "Activation", 
      "name": "activation18451", 
      "attr": {"act_type": "sigmoid"}, 
      "inputs": [[752, 1, 0]]
    }, 
    {
      "op": "_mul", 
      "name": "_mul11070", 
      "inputs": [[754, 0, 0], [747, 0, 0]]
    }, 
    {
      "op": "Activation", 
      "name": "activation18450", 
      "attr": {"act_type": "sigmoid"}, 
      "inputs": [[752, 0, 0]]
    }, 
    {
      "op": "Activation", 
      "name": "activation18453", 
      "attr": {"act_type": "tanh"}, 
      "inputs": [[752, 3, 0]]
    }, 
    {
      "op": "_mul", 
      "name": "_mul11071", 
      "inputs": [[756, 0, 0], [757, 0, 0]]
    }, 
    {
      "op": "elemwise_add", 
      "name": "_plus7381", 
      "inputs": [[755, 0, 0], [758, 0, 0]]
    }, 
    {
      "op": "Activation", 
      "name": "activation18454", 
      "attr": {"act_type": "tanh"}, 
      "inputs": [[759, 0, 0]]
    }, 
    {
      "op": "_mul", 
      "name": "_mul11072", 
      "inputs": [[753, 0, 0], [760, 0, 0]]
    }, 
    {
      "op": "FullyConnected", 
      "name": "t46_l0_h2h", 
      "attr": {"num_hidden": "200"}, 
      "inputs": [[761, 0, 0], [207, 0, 0], [208, 0, 0]]
    }, 
    {
      "op": "elemwise_add", 
      "name": "_plus7384", 
      "inputs": [[159, 0, 0], [762, 0, 0]]
    }, 
    {
      "op": "SliceChannel", 
      "name": "t46_l0_slice", 
      "attr": {"num_outputs": "4"}, 
      "inputs": [[763, 0, 0]]
    }, 
    {
      "op": "Activation", 
      "name": "activation18462", 
      "attr": {"act_type": "sigmoid"}, 
      "inputs": [[764, 2, 0]]
    }, 
    {
      "op": "Activation", 
      "name": "activation18461", 
      "attr": {"act_type": "sigmoid"}, 
      "inputs": [[764, 1, 0]]
    }, 
    {
      "op": "_mul", 
      "name": "_mul11076", 
      "inputs": [[766, 0, 0], [759, 0, 0]]
    }, 
    {
      "op": "Activation", 
      "name": "activation18460", 
      "attr": {"act_type": "sigmoid"}, 
      "inputs": [[764, 0, 0]]
    }, 
    {
      "op": "Activation", 
      "name": "activation18463", 
      "attr": {"act_type": "tanh"}, 
      "inputs": [[764, 3, 0]]
    }, 
    {
      "op": "_mul", 
      "name": "_mul11077", 
      "inputs": [[768, 0, 0], [769, 0, 0]]
    }, 
    {
      "op": "elemwise_add", 
      "name": "_plus7385", 
      "inputs": [[767, 0, 0], [770, 0, 0]]
    }, 
    {
      "op": "Activation", 
      "name": "activation18464", 
      "attr": {"act_type": "tanh"}, 
      "inputs": [[771, 0, 0]]
    }, 
    {
      "op": "_mul", 
      "name": "_mul11078", 
      "inputs": [[765, 0, 0], [772, 0, 0]]
    }, 
    {
      "op": "FullyConnected", 
      "name": "t47_l0_h2h", 
      "attr": {"num_hidden": "200"}, 
      "inputs": [[773, 0, 0], [207, 0, 0], [208, 0, 0]]
    }, 
    {
      "op": "elemwise_add", 
      "name": "_plus7388", 
      "inputs": [[158, 0, 0], [774, 0, 0]]
    }, 
    {
      "op": "SliceChannel", 
      "name": "t47_l0_slice", 
      "attr": {"num_outputs": "4"}, 
      "inputs": [[775, 0, 0]]
    }, 
    {
      "op": "Activation", 
      "name": "activation18472", 
      "attr": {"act_type": "sigmoid"}, 
      "inputs": [[776, 2, 0]]
    }, 
    {
      "op": "Activation", 
      "name": "activation18471", 
      "attr": {"act_type": "sigmoid"}, 
      "inputs": [[776, 1, 0]]
    }, 
    {
      "op": "_mul", 
      "name": "_mul11082", 
      "inputs": [[778, 0, 0], [771, 0, 0]]
    }, 
    {
      "op": "Activation", 
      "name": "activation18470", 
      "attr": {"act_type": "sigmoid"}, 
      "inputs": [[776, 0, 0]]
    }, 
    {
      "op": "Activation", 
      "name": "activation18473", 
      "attr": {"act_type": "tanh"}, 
      "inputs": [[776, 3, 0]]
    }, 
    {
      "op": "_mul", 
      "name": "_mul11083", 
      "inputs": [[780, 0, 0], [781, 0, 0]]
    }, 
    {
      "op": "elemwise_add", 
      "name": "_plus7389", 
      "inputs": [[779, 0, 0], [782, 0, 0]]
    }, 
    {
      "op": "Activation", 
      "name": "activation18474", 
      "attr": {"act_type": "tanh"}, 
      "inputs": [[783, 0, 0]]
    }, 
    {
      "op": "_mul", 
      "name": "_mul11084", 
      "inputs": [[777, 0, 0], [784, 0, 0]]
    }, 
    {
      "op": "FullyConnected", 
      "name": "t48_l0_h2h", 
      "attr": {"num_hidden": "200"}, 
      "inputs": [[785, 0, 0], [207, 0, 0], [208, 0, 0]]
    }, 
    {
      "op": "elemwise_add", 
      "name": "_plus7392", 
      "inputs": [[157, 0, 0], [786, 0, 0]]
    }, 
    {
      "op": "SliceChannel", 
      "name": "t48_l0_slice", 
      "attr": {"num_outputs": "4"}, 
      "inputs": [[787, 0, 0]]
    }, 
    {
      "op": "Activation", 
      "name": "activation18482", 
      "attr": {"act_type": "sigmoid"}, 
      "inputs": [[788, 2, 0]]
    }, 
    {
      "op": "Activation", 
      "name": "activation18481", 
      "attr": {"act_type": "sigmoid"}, 
      "inputs": [[788, 1, 0]]
    }, 
    {
      "op": "_mul", 
      "name": "_mul11088", 
      "inputs": [[790, 0, 0], [783, 0, 0]]
    }, 
    {
      "op": "Activation", 
      "name": "activation18480", 
      "attr": {"act_type": "sigmoid"}, 
      "inputs": [[788, 0, 0]]
    }, 
    {
      "op": "Activation", 
      "name": "activation18483", 
      "attr": {"act_type": "tanh"}, 
      "inputs": [[788, 3, 0]]
    }, 
    {
      "op": "_mul", 
      "name": "_mul11089", 
      "inputs": [[792, 0, 0], [793, 0, 0]]
    }, 
    {
      "op": "elemwise_add", 
      "name": "_plus7393", 
      "inputs": [[791, 0, 0], [794, 0, 0]]
    }, 
    {
      "op": "Activation", 
      "name": "activation18484", 
      "attr": {"act_type": "tanh"}, 
      "inputs": [[795, 0, 0]]
    }, 
    {
      "op": "_mul", 
      "name": "_mul11090", 
      "inputs": [[789, 0, 0], [796, 0, 0]]
    }, 
    {
      "op": "FullyConnected", 
      "name": "t49_l0_h2h", 
      "attr": {"num_hidden": "200"}, 
      "inputs": [[797, 0, 0], [207, 0, 0], [208, 0, 0]]
    }, 
    {
      "op": "elemwise_add", 
      "name": "_plus7396", 
      "inputs": [[156, 0, 0], [798, 0, 0]]
    }, 
    {
      "op": "SliceChannel", 
      "name": "t49_l0_slice", 
      "attr": {"num_outputs": "4"}, 
      "inputs": [[799, 0, 0]]
    }, 
    {
      "op": "Activation", 
      "name": "activation18492", 
      "attr": {"act_type": "sigmoid"}, 
      "inputs": [[800, 2, 0]]
    }, 
    {
      "op": "Activation", 
      "name": "activation18491", 
      "attr": {"act_type": "sigmoid"}, 
      "inputs": [[800, 1, 0]]
    }, 
    {
      "op": "_mul", 
      "name": "_mul11094", 
      "inputs": [[802, 0, 0], [795, 0, 0]]
    }, 
    {
      "op": "Activation", 
      "name": "activation18490", 
      "attr": {"act_type": "sigmoid"}, 
      "inputs": [[800, 0, 0]]
    }, 
    {
      "op": "Activation", 
      "name": "activation18493", 
      "attr": {"act_type": "tanh"}, 
      "inputs": [[800, 3, 0]]
    }, 
    {
      "op": "_mul", 
      "name": "_mul11095", 
      "inputs": [[804, 0, 0], [805, 0, 0]]
    }, 
    {
      "op": "elemwise_add", 
      "name": "_plus7397", 
      "inputs": [[803, 0, 0], [806, 0, 0]]
    }, 
    {
      "op": "Activation", 
      "name": "activation18494", 
      "attr": {"act_type": "tanh"}, 
      "inputs": [[807, 0, 0]]
    }, 
    {
      "op": "_mul", 
      "name": "_mul11096", 
      "inputs": [[801, 0, 0], [808, 0, 0]]
    }, 
    {
      "op": "FullyConnected", 
      "name": "t50_l0_h2h", 
      "attr": {"num_hidden": "200"}, 
      "inputs": [[809, 0, 0], [207, 0, 0], [208, 0, 0]]
    }, 
    {
      "op": "elemwise_add", 
      "name": "_plus7400", 
      "inputs": [[155, 0, 0], [810, 0, 0]]
    }, 
    {
      "op": "SliceChannel", 
      "name": "t50_l0_slice", 
      "attr": {"num_outputs": "4"}, 
      "inputs": [[811, 0, 0]]
    }, 
    {
      "op": "Activation", 
      "name": "activation18502", 
      "attr": {"act_type": "sigmoid"}, 
      "inputs": [[812, 2, 0]]
    }, 
    {
      "op": "Activation", 
      "name": "activation18501", 
      "attr": {"act_type": "sigmoid"}, 
      "inputs": [[812, 1, 0]]
    }, 
    {
      "op": "_mul", 
      "name": "_mul11100", 
      "inputs": [[814, 0, 0], [807, 0, 0]]
    }, 
    {
      "op": "Activation", 
      "name": "activation18500", 
      "attr": {"act_type": "sigmoid"}, 
      "inputs": [[812, 0, 0]]
    }, 
    {
      "op": "Activation", 
      "name": "activation18503", 
      "attr": {"act_type": "tanh"}, 
      "inputs": [[812, 3, 0]]
    }, 
    {
      "op": "_mul", 
      "name": "_mul11101", 
      "inputs": [[816, 0, 0], [817, 0, 0]]
    }, 
    {
      "op": "elemwise_add", 
      "name": "_plus7401", 
      "inputs": [[815, 0, 0], [818, 0, 0]]
    }, 
    {
      "op": "Activation", 
      "name": "activation18504", 
      "attr": {"act_type": "tanh"}, 
      "inputs": [[819, 0, 0]]
    }, 
    {
      "op": "_mul", 
      "name": "_mul11102", 
      "inputs": [[813, 0, 0], [820, 0, 0]]
    }, 
    {
      "op": "FullyConnected", 
      "name": "t51_l0_h2h", 
      "attr": {"num_hidden": "200"}, 
      "inputs": [[821, 0, 0], [207, 0, 0], [208, 0, 0]]
    }, 
    {
      "op": "elemwise_add", 
      "name": "_plus7404", 
      "inputs": [[154, 0, 0], [822, 0, 0]]
    }, 
    {
      "op": "SliceChannel", 
      "name": "t51_l0_slice", 
      "attr": {"num_outputs": "4"}, 
      "inputs": [[823, 0, 0]]
    }, 
    {
      "op": "Activation", 
      "name": "activation18512", 
      "attr": {"act_type": "sigmoid"}, 
      "inputs": [[824, 2, 0]]
    }, 
    {
      "op": "Activation", 
      "name": "activation18511", 
      "attr": {"act_type": "sigmoid"}, 
      "inputs": [[824, 1, 0]]
    }, 
    {
      "op": "_mul", 
      "name": "_mul11106", 
      "inputs": [[826, 0, 0], [819, 0, 0]]
    }, 
    {
      "op": "Activation", 
      "name": "activation18510", 
      "attr": {"act_type": "sigmoid"}, 
      "inputs": [[824, 0, 0]]
    }, 
    {
      "op": "Activation", 
      "name": "activation18513", 
      "attr": {"act_type": "tanh"}, 
      "inputs": [[824, 3, 0]]
    }, 
    {
      "op": "_mul", 
      "name": "_mul11107", 
      "inputs": [[828, 0, 0], [829, 0, 0]]
    }, 
    {
      "op": "elemwise_add", 
      "name": "_plus7405", 
      "inputs": [[827, 0, 0], [830, 0, 0]]
    }, 
    {
      "op": "Activation", 
      "name": "activation18514", 
      "attr": {"act_type": "tanh"}, 
      "inputs": [[831, 0, 0]]
    }, 
    {
      "op": "_mul", 
      "name": "_mul11108", 
      "inputs": [[825, 0, 0], [832, 0, 0]]
    }, 
    {
      "op": "FullyConnected", 
      "name": "t52_l0_h2h", 
      "attr": {"num_hidden": "200"}, 
      "inputs": [[833, 0, 0], [207, 0, 0], [208, 0, 0]]
    }, 
    {
      "op": "elemwise_add", 
      "name": "_plus7408", 
      "inputs": [[153, 0, 0], [834, 0, 0]]
    }, 
    {
      "op": "SliceChannel", 
      "name": "t52_l0_slice", 
      "attr": {"num_outputs": "4"}, 
      "inputs": [[835, 0, 0]]
    }, 
    {
      "op": "Activation", 
      "name": "activation18522", 
      "attr": {"act_type": "sigmoid"}, 
      "inputs": [[836, 2, 0]]
    }, 
    {
      "op": "Activation", 
      "name": "activation18521", 
      "attr": {"act_type": "sigmoid"}, 
      "inputs": [[836, 1, 0]]
    }, 
    {
      "op": "_mul", 
      "name": "_mul11112", 
      "inputs": [[838, 0, 0], [831, 0, 0]]
    }, 
    {
      "op": "Activation", 
      "name": "activation18520", 
      "attr": {"act_type": "sigmoid"}, 
      "inputs": [[836, 0, 0]]
    }, 
    {
      "op": "Activation", 
      "name": "activation18523", 
      "attr": {"act_type": "tanh"}, 
      "inputs": [[836, 3, 0]]
    }, 
    {
      "op": "_mul", 
      "name": "_mul11113", 
      "inputs": [[840, 0, 0], [841, 0, 0]]
    }, 
    {
      "op": "elemwise_add", 
      "name": "_plus7409", 
      "inputs": [[839, 0, 0], [842, 0, 0]]
    }, 
    {
      "op": "Activation", 
      "name": "activation18524", 
      "attr": {"act_type": "tanh"}, 
      "inputs": [[843, 0, 0]]
    }, 
    {
      "op": "_mul", 
      "name": "_mul11114", 
      "inputs": [[837, 0, 0], [844, 0, 0]]
    }, 
    {
      "op": "FullyConnected", 
      "name": "t53_l0_h2h", 
      "attr": {"num_hidden": "200"}, 
      "inputs": [[845, 0, 0], [207, 0, 0], [208, 0, 0]]
    }, 
    {
      "op": "elemwise_add", 
      "name": "_plus7412", 
      "inputs": [[152, 0, 0], [846, 0, 0]]
    }, 
    {
      "op": "SliceChannel", 
      "name": "t53_l0_slice", 
      "attr": {"num_outputs": "4"}, 
      "inputs": [[847, 0, 0]]
    }, 
    {
      "op": "Activation", 
      "name": "activation18532", 
      "attr": {"act_type": "sigmoid"}, 
      "inputs": [[848, 2, 0]]
    }, 
    {
      "op": "Activation", 
      "name": "activation18531", 
      "attr": {"act_type": "sigmoid"}, 
      "inputs": [[848, 1, 0]]
    }, 
    {
      "op": "_mul", 
      "name": "_mul11118", 
      "inputs": [[850, 0, 0], [843, 0, 0]]
    }, 
    {
      "op": "Activation", 
      "name": "activation18530", 
      "attr": {"act_type": "sigmoid"}, 
      "inputs": [[848, 0, 0]]
    }, 
    {
      "op": "Activation", 
      "name": "activation18533", 
      "attr": {"act_type": "tanh"}, 
      "inputs": [[848, 3, 0]]
    }, 
    {
      "op": "_mul", 
      "name": "_mul11119", 
      "inputs": [[852, 0, 0], [853, 0, 0]]
    }, 
    {
      "op": "elemwise_add", 
      "name": "_plus7413", 
      "inputs": [[851, 0, 0], [854, 0, 0]]
    }, 
    {
      "op": "Activation", 
      "name": "activation18534", 
      "attr": {"act_type": "tanh"}, 
      "inputs": [[855, 0, 0]]
    }, 
    {
      "op": "_mul", 
      "name": "_mul11120", 
      "inputs": [[849, 0, 0], [856, 0, 0]]
    }, 
    {
      "op": "FullyConnected", 
      "name": "t54_l0_h2h", 
      "attr": {"num_hidden": "200"}, 
      "inputs": [[857, 0, 0], [207, 0, 0], [208, 0, 0]]
    }, 
    {
      "op": "elemwise_add", 
      "name": "_plus7416", 
      "inputs": [[151, 0, 0], [858, 0, 0]]
    }, 
    {
      "op": "SliceChannel", 
      "name": "t54_l0_slice", 
      "attr": {"num_outputs": "4"}, 
      "inputs": [[859, 0, 0]]
    }, 
    {
      "op": "Activation", 
      "name": "activation18542", 
      "attr": {"act_type": "sigmoid"}, 
      "inputs": [[860, 2, 0]]
    }, 
    {
      "op": "Activation", 
      "name": "activation18541", 
      "attr": {"act_type": "sigmoid"}, 
      "inputs": [[860, 1, 0]]
    }, 
    {
      "op": "_mul", 
      "name": "_mul11124", 
      "inputs": [[862, 0, 0], [855, 0, 0]]
    }, 
    {
      "op": "Activation", 
      "name": "activation18540", 
      "attr": {"act_type": "sigmoid"}, 
      "inputs": [[860, 0, 0]]
    }, 
    {
      "op": "Activation", 
      "name": "activation18543", 
      "attr": {"act_type": "tanh"}, 
      "inputs": [[860, 3, 0]]
    }, 
    {
      "op": "_mul", 
      "name": "_mul11125", 
      "inputs": [[864, 0, 0], [865, 0, 0]]
    }, 
    {
      "op": "elemwise_add", 
      "name": "_plus7417", 
      "inputs": [[863, 0, 0], [866, 0, 0]]
    }, 
    {
      "op": "Activation", 
      "name": "activation18544", 
      "attr": {"act_type": "tanh"}, 
      "inputs": [[867, 0, 0]]
    }, 
    {
      "op": "_mul", 
      "name": "_mul11126", 
      "inputs": [[861, 0, 0], [868, 0, 0]]
    }, 
    {
      "op": "FullyConnected", 
      "name": "t55_l0_h2h", 
      "attr": {"num_hidden": "200"}, 
      "inputs": [[869, 0, 0], [207, 0, 0], [208, 0, 0]]
    }, 
    {
      "op": "elemwise_add", 
      "name": "_plus7420", 
      "inputs": [[150, 0, 0], [870, 0, 0]]
    }, 
    {
      "op": "SliceChannel", 
      "name": "t55_l0_slice", 
      "attr": {"num_outputs": "4"}, 
      "inputs": [[871, 0, 0]]
    }, 
    {
      "op": "Activation", 
      "name": "activation18552", 
      "attr": {"act_type": "sigmoid"}, 
      "inputs": [[872, 2, 0]]
    }, 
    {
      "op": "Activation", 
      "name": "activation18551", 
      "attr": {"act_type": "sigmoid"}, 
      "inputs": [[872, 1, 0]]
    }, 
    {
      "op": "_mul", 
      "name": "_mul11130", 
      "inputs": [[874, 0, 0], [867, 0, 0]]
    }, 
    {
      "op": "Activation", 
      "name": "activation18550", 
      "attr": {"act_type": "sigmoid"}, 
      "inputs": [[872, 0, 0]]
    }, 
    {
      "op": "Activation", 
      "name": "activation18553", 
      "attr": {"act_type": "tanh"}, 
      "inputs": [[872, 3, 0]]
    }, 
    {
      "op": "_mul", 
      "name": "_mul11131", 
      "inputs": [[876, 0, 0], [877, 0, 0]]
    }, 
    {
      "op": "elemwise_add", 
      "name": "_plus7421", 
      "inputs": [[875, 0, 0], [878, 0, 0]]
    }, 
    {
      "op": "Activation", 
      "name": "activation18554", 
      "attr": {"act_type": "tanh"}, 
      "inputs": [[879, 0, 0]]
    }, 
    {
      "op": "_mul", 
      "name": "_mul11132", 
      "inputs": [[873, 0, 0], [880, 0, 0]]
    }, 
    {
      "op": "FullyConnected", 
      "name": "t56_l0_h2h", 
      "attr": {"num_hidden": "200"}, 
      "inputs": [[881, 0, 0], [207, 0, 0], [208, 0, 0]]
    }, 
    {
      "op": "elemwise_add", 
      "name": "_plus7424", 
      "inputs": [[149, 0, 0], [882, 0, 0]]
    }, 
    {
      "op": "SliceChannel", 
      "name": "t56_l0_slice", 
      "attr": {"num_outputs": "4"}, 
      "inputs": [[883, 0, 0]]
    }, 
    {
      "op": "Activation", 
      "name": "activation18562", 
      "attr": {"act_type": "sigmoid"}, 
      "inputs": [[884, 2, 0]]
    }, 
    {
      "op": "Activation", 
      "name": "activation18561", 
      "attr": {"act_type": "sigmoid"}, 
      "inputs": [[884, 1, 0]]
    }, 
    {
      "op": "_mul", 
      "name": "_mul11136", 
      "inputs": [[886, 0, 0], [879, 0, 0]]
    }, 
    {
      "op": "Activation", 
      "name": "activation18560", 
      "attr": {"act_type": "sigmoid"}, 
      "inputs": [[884, 0, 0]]
    }, 
    {
      "op": "Activation", 
      "name": "activation18563", 
      "attr": {"act_type": "tanh"}, 
      "inputs": [[884, 3, 0]]
    }, 
    {
      "op": "_mul", 
      "name": "_mul11137", 
      "inputs": [[888, 0, 0], [889, 0, 0]]
    }, 
    {
      "op": "elemwise_add", 
      "name": "_plus7425", 
      "inputs": [[887, 0, 0], [890, 0, 0]]
    }, 
    {
      "op": "Activation", 
      "name": "activation18564", 
      "attr": {"act_type": "tanh"}, 
      "inputs": [[891, 0, 0]]
    }, 
    {
      "op": "_mul", 
      "name": "_mul11138", 
      "inputs": [[885, 0, 0], [892, 0, 0]]
    }, 
    {
      "op": "FullyConnected", 
      "name": "t57_l0_h2h", 
      "attr": {"num_hidden": "200"}, 
      "inputs": [[893, 0, 0], [207, 0, 0], [208, 0, 0]]
    }, 
    {
      "op": "elemwise_add", 
      "name": "_plus7428", 
      "inputs": [[148, 0, 0], [894, 0, 0]]
    }, 
    {
      "op": "SliceChannel", 
      "name": "t57_l0_slice", 
      "attr": {"num_outputs": "4"}, 
      "inputs": [[895, 0, 0]]
    }, 
    {
      "op": "Activation", 
      "name": "activation18572", 
      "attr": {"act_type": "sigmoid"}, 
      "inputs": [[896, 2, 0]]
    }, 
    {
      "op": "Activation", 
      "name": "activation18571", 
      "attr": {"act_type": "sigmoid"}, 
      "inputs": [[896, 1, 0]]
    }, 
    {
      "op": "_mul", 
      "name": "_mul11142", 
      "inputs": [[898, 0, 0], [891, 0, 0]]
    }, 
    {
      "op": "Activation", 
      "name": "activation18570", 
      "attr": {"act_type": "sigmoid"}, 
      "inputs": [[896, 0, 0]]
    }, 
    {
      "op": "Activation", 
      "name": "activation18573", 
      "attr": {"act_type": "tanh"}, 
      "inputs": [[896, 3, 0]]
    }, 
    {
      "op": "_mul", 
      "name": "_mul11143", 
      "inputs": [[900, 0, 0], [901, 0, 0]]
    }, 
    {
      "op": "elemwise_add", 
      "name": "_plus7429", 
      "inputs": [[899, 0, 0], [902, 0, 0]]
    }, 
    {
      "op": "Activation", 
      "name": "activation18574", 
      "attr": {"act_type": "tanh"}, 
      "inputs": [[903, 0, 0]]
    }, 
    {
      "op": "_mul", 
      "name": "_mul11144", 
      "inputs": [[897, 0, 0], [904, 0, 0]]
    }, 
    {
      "op": "FullyConnected", 
      "name": "t58_l0_h2h", 
      "attr": {"num_hidden": "200"}, 
      "inputs": [[905, 0, 0], [207, 0, 0], [208, 0, 0]]
    }, 
    {
      "op": "elemwise_add", 
      "name": "_plus7432", 
      "inputs": [[147, 0, 0], [906, 0, 0]]
    }, 
    {
      "op": "SliceChannel", 
      "name": "t58_l0_slice", 
      "attr": {"num_outputs": "4"}, 
      "inputs": [[907, 0, 0]]
    }, 
    {
      "op": "Activation", 
      "name": "activation18582", 
      "attr": {"act_type": "sigmoid"}, 
      "inputs": [[908, 2, 0]]
    }, 
    {
      "op": "Activation", 
      "name": "activation18581", 
      "attr": {"act_type": "sigmoid"}, 
      "inputs": [[908, 1, 0]]
    }, 
    {
      "op": "_mul", 
      "name": "_mul11148", 
      "inputs": [[910, 0, 0], [903, 0, 0]]
    }, 
    {
      "op": "Activation", 
      "name": "activation18580", 
      "attr": {"act_type": "sigmoid"}, 
      "inputs": [[908, 0, 0]]
    }, 
    {
      "op": "Activation", 
      "name": "activation18583", 
      "attr": {"act_type": "tanh"}, 
      "inputs": [[908, 3, 0]]
    }, 
    {
      "op": "_mul", 
      "name": "_mul11149", 
      "inputs": [[912, 0, 0], [913, 0, 0]]
    }, 
    {
      "op": "elemwise_add", 
      "name": "_plus7433", 
      "inputs": [[911, 0, 0], [914, 0, 0]]
    }, 
    {
      "op": "Activation", 
      "name": "activation18584", 
      "attr": {"act_type": "tanh"}, 
      "inputs": [[915, 0, 0]]
    }, 
    {
      "op": "_mul", 
      "name": "_mul11150", 
      "inputs": [[909, 0, 0], [916, 0, 0]]
    }, 
    {
      "op": "FullyConnected", 
      "name": "t59_l0_h2h", 
      "attr": {"num_hidden": "200"}, 
      "inputs": [[917, 0, 0], [207, 0, 0], [208, 0, 0]]
    }, 
    {
      "op": "elemwise_add", 
      "name": "_plus7436", 
      "inputs": [[146, 0, 0], [918, 0, 0]]
    }, 
    {
      "op": "SliceChannel", 
      "name": "t59_l0_slice", 
      "attr": {"num_outputs": "4"}, 
      "inputs": [[919, 0, 0]]
    }, 
    {
      "op": "Activation", 
      "name": "activation18592", 
      "attr": {"act_type": "sigmoid"}, 
      "inputs": [[920, 2, 0]]
    }, 
    {
      "op": "Activation", 
      "name": "activation18591", 
      "attr": {"act_type": "sigmoid"}, 
      "inputs": [[920, 1, 0]]
    }, 
    {
      "op": "_mul", 
      "name": "_mul11154", 
      "inputs": [[922, 0, 0], [915, 0, 0]]
    }, 
    {
      "op": "Activation", 
      "name": "activation18590", 
      "attr": {"act_type": "sigmoid"}, 
      "inputs": [[920, 0, 0]]
    }, 
    {
      "op": "Activation", 
      "name": "activation18593", 
      "attr": {"act_type": "tanh"}, 
      "inputs": [[920, 3, 0]]
    }, 
    {
      "op": "_mul", 
      "name": "_mul11155", 
      "inputs": [[924, 0, 0], [925, 0, 0]]
    }, 
    {
      "op": "elemwise_add", 
      "name": "_plus7437", 
      "inputs": [[923, 0, 0], [926, 0, 0]]
    }, 
    {
      "op": "Activation", 
      "name": "activation18594", 
      "attr": {"act_type": "tanh"}, 
      "inputs": [[927, 0, 0]]
    }, 
    {
      "op": "_mul", 
      "name": "_mul11156", 
      "inputs": [[921, 0, 0], [928, 0, 0]]
    }, 
    {
      "op": "FullyConnected", 
      "name": "t60_l0_h2h", 
      "attr": {"num_hidden": "200"}, 
      "inputs": [[929, 0, 0], [207, 0, 0], [208, 0, 0]]
    }, 
    {
      "op": "elemwise_add", 
      "name": "_plus7440", 
      "inputs": [[145, 0, 0], [930, 0, 0]]
    }, 
    {
      "op": "SliceChannel", 
      "name": "t60_l0_slice", 
      "attr": {"num_outputs": "4"}, 
      "inputs": [[931, 0, 0]]
    }, 
    {
      "op": "Activation", 
      "name": "activation18602", 
      "attr": {"act_type": "sigmoid"}, 
      "inputs": [[932, 2, 0]]
    }, 
    {
      "op": "Activation", 
      "name": "activation18601", 
      "attr": {"act_type": "sigmoid"}, 
      "inputs": [[932, 1, 0]]
    }, 
    {
      "op": "_mul", 
      "name": "_mul11160", 
      "inputs": [[934, 0, 0], [927, 0, 0]]
    }, 
    {
      "op": "Activation", 
      "name": "activation18600", 
      "attr": {"act_type": "sigmoid"}, 
      "inputs": [[932, 0, 0]]
    }, 
    {
      "op": "Activation", 
      "name": "activation18603", 
      "attr": {"act_type": "tanh"}, 
      "inputs": [[932, 3, 0]]
    }, 
    {
      "op": "_mul", 
      "name": "_mul11161", 
      "inputs": [[936, 0, 0], [937, 0, 0]]
    }, 
    {
      "op": "elemwise_add", 
      "name": "_plus7441", 
      "inputs": [[935, 0, 0], [938, 0, 0]]
    }, 
    {
      "op": "Activation", 
      "name": "activation18604", 
      "attr": {"act_type": "tanh"}, 
      "inputs": [[939, 0, 0]]
    }, 
    {
      "op": "_mul", 
      "name": "_mul11162", 
      "inputs": [[933, 0, 0], [940, 0, 0]]
    }, 
    {
      "op": "FullyConnected", 
      "name": "t61_l0_h2h", 
      "attr": {"num_hidden": "200"}, 
      "inputs": [[941, 0, 0], [207, 0, 0], [208, 0, 0]]
    }, 
    {
      "op": "elemwise_add", 
      "name": "_plus7444", 
      "inputs": [[144, 0, 0], [942, 0, 0]]
    }, 
    {
      "op": "SliceChannel", 
      "name": "t61_l0_slice", 
      "attr": {"num_outputs": "4"}, 
      "inputs": [[943, 0, 0]]
    }, 
    {
      "op": "Activation", 
      "name": "activation18612", 
      "attr": {"act_type": "sigmoid"}, 
      "inputs": [[944, 2, 0]]
    }, 
    {
      "op": "Activation", 
      "name": "activation18611", 
      "attr": {"act_type": "sigmoid"}, 
      "inputs": [[944, 1, 0]]
    }, 
    {
      "op": "_mul", 
      "name": "_mul11166", 
      "inputs": [[946, 0, 0], [939, 0, 0]]
    }, 
    {
      "op": "Activation", 
      "name": "activation18610", 
      "attr": {"act_type": "sigmoid"}, 
      "inputs": [[944, 0, 0]]
    }, 
    {
      "op": "Activation", 
      "name": "activation18613", 
      "attr": {"act_type": "tanh"}, 
      "inputs": [[944, 3, 0]]
    }, 
    {
      "op": "_mul", 
      "name": "_mul11167", 
      "inputs": [[948, 0, 0], [949, 0, 0]]
    }, 
    {
      "op": "elemwise_add", 
      "name": "_plus7445", 
      "inputs": [[947, 0, 0], [950, 0, 0]]
    }, 
    {
      "op": "Activation", 
      "name": "activation18614", 
      "attr": {"act_type": "tanh"}, 
      "inputs": [[951, 0, 0]]
    }, 
    {
      "op": "_mul", 
      "name": "_mul11168", 
      "inputs": [[945, 0, 0], [952, 0, 0]]
    }, 
    {
      "op": "FullyConnected", 
      "name": "t62_l0_h2h", 
      "attr": {"num_hidden": "200"}, 
      "inputs": [[953, 0, 0], [207, 0, 0], [208, 0, 0]]
    }, 
    {
      "op": "elemwise_add", 
      "name": "_plus7448", 
      "inputs": [[143, 0, 0], [954, 0, 0]]
    }, 
    {
      "op": "SliceChannel", 
      "name": "t62_l0_slice", 
      "attr": {"num_outputs": "4"}, 
      "inputs": [[955, 0, 0]]
    }, 
    {
      "op": "Activation", 
      "name": "activation18622", 
      "attr": {"act_type": "sigmoid"}, 
      "inputs": [[956, 2, 0]]
    }, 
    {
      "op": "Activation", 
      "name": "activation18621", 
      "attr": {"act_type": "sigmoid"}, 
      "inputs": [[956, 1, 0]]
    }, 
    {
      "op": "_mul", 
      "name": "_mul11172", 
      "inputs": [[958, 0, 0], [951, 0, 0]]
    }, 
    {
      "op": "Activation", 
      "name": "activation18620", 
      "attr": {"act_type": "sigmoid"}, 
      "inputs": [[956, 0, 0]]
    }, 
    {
      "op": "Activation", 
      "name": "activation18623", 
      "attr": {"act_type": "tanh"}, 
      "inputs": [[956, 3, 0]]
    }, 
    {
      "op": "_mul", 
      "name": "_mul11173", 
      "inputs": [[960, 0, 0], [961, 0, 0]]
    }, 
    {
      "op": "elemwise_add", 
      "name": "_plus7449", 
      "inputs": [[959, 0, 0], [962, 0, 0]]
    }, 
    {
      "op": "Activation", 
      "name": "activation18624", 
      "attr": {"act_type": "tanh"}, 
      "inputs": [[963, 0, 0]]
    }, 
    {
      "op": "_mul", 
      "name": "_mul11174", 
      "inputs": [[957, 0, 0], [964, 0, 0]]
    }, 
    {
      "op": "FullyConnected", 
      "name": "t63_l0_h2h", 
      "attr": {"num_hidden": "200"}, 
      "inputs": [[965, 0, 0], [207, 0, 0], [208, 0, 0]]
    }, 
    {
      "op": "elemwise_add", 
      "name": "_plus7452", 
      "inputs": [[142, 0, 0], [966, 0, 0]]
    }, 
    {
      "op": "SliceChannel", 
      "name": "t63_l0_slice", 
      "attr": {"num_outputs": "4"}, 
      "inputs": [[967, 0, 0]]
    }, 
    {
      "op": "Activation", 
      "name": "activation18632", 
      "attr": {"act_type": "sigmoid"}, 
      "inputs": [[968, 2, 0]]
    }, 
    {
      "op": "Activation", 
      "name": "activation18631", 
      "attr": {"act_type": "sigmoid"}, 
      "inputs": [[968, 1, 0]]
    }, 
    {
      "op": "_mul", 
      "name": "_mul11178", 
      "inputs": [[970, 0, 0], [963, 0, 0]]
    }, 
    {
      "op": "Activation", 
      "name": "activation18630", 
      "attr": {"act_type": "sigmoid"}, 
      "inputs": [[968, 0, 0]]
    }, 
    {
      "op": "Activation", 
      "name": "activation18633", 
      "attr": {"act_type": "tanh"}, 
      "inputs": [[968, 3, 0]]
    }, 
    {
      "op": "_mul", 
      "name": "_mul11179", 
      "inputs": [[972, 0, 0], [973, 0, 0]]
    }, 
    {
      "op": "elemwise_add", 
      "name": "_plus7453", 
      "inputs": [[971, 0, 0], [974, 0, 0]]
    }, 
    {
      "op": "Activation", 
      "name": "activation18634", 
      "attr": {"act_type": "tanh"}, 
      "inputs": [[975, 0, 0]]
    }, 
    {
      "op": "_mul", 
      "name": "_mul11180", 
      "inputs": [[969, 0, 0], [976, 0, 0]]
    }, 
    {
      "op": "FullyConnected", 
      "name": "t64_l0_h2h", 
      "attr": {"num_hidden": "200"}, 
      "inputs": [[977, 0, 0], [207, 0, 0], [208, 0, 0]]
    }, 
    {
      "op": "elemwise_add", 
      "name": "_plus7456", 
      "inputs": [[141, 0, 0], [978, 0, 0]]
    }, 
    {
      "op": "SliceChannel", 
      "name": "t64_l0_slice", 
      "attr": {"num_outputs": "4"}, 
      "inputs": [[979, 0, 0]]
    }, 
    {
      "op": "Activation", 
      "name": "activation18642", 
      "attr": {"act_type": "sigmoid"}, 
      "inputs": [[980, 2, 0]]
    }, 
    {
      "op": "Activation", 
      "name": "activation18641", 
      "attr": {"act_type": "sigmoid"}, 
      "inputs": [[980, 1, 0]]
    }, 
    {
      "op": "_mul", 
      "name": "_mul11184", 
      "inputs": [[982, 0, 0], [975, 0, 0]]
    }, 
    {
      "op": "Activation", 
      "name": "activation18640", 
      "attr": {"act_type": "sigmoid"}, 
      "inputs": [[980, 0, 0]]
    }, 
    {
      "op": "Activation", 
      "name": "activation18643", 
      "attr": {"act_type": "tanh"}, 
      "inputs": [[980, 3, 0]]
    }, 
    {
      "op": "_mul", 
      "name": "_mul11185", 
      "inputs": [[984, 0, 0], [985, 0, 0]]
    }, 
    {
      "op": "elemwise_add", 
      "name": "_plus7457", 
      "inputs": [[983, 0, 0], [986, 0, 0]]
    }, 
    {
      "op": "Activation", 
      "name": "activation18644", 
      "attr": {"act_type": "tanh"}, 
      "inputs": [[987, 0, 0]]
    }, 
    {
      "op": "_mul", 
      "name": "_mul11186", 
      "inputs": [[981, 0, 0], [988, 0, 0]]
    }, 
    {
      "op": "FullyConnected", 
      "name": "t65_l0_h2h", 
      "attr": {"num_hidden": "200"}, 
      "inputs": [[989, 0, 0], [207, 0, 0], [208, 0, 0]]
    }, 
    {
      "op": "elemwise_add", 
      "name": "_plus7460", 
      "inputs": [[140, 0, 0], [990, 0, 0]]
    }, 
    {
      "op": "SliceChannel", 
      "name": "t65_l0_slice", 
      "attr": {"num_outputs": "4"}, 
      "inputs": [[991, 0, 0]]
    }, 
    {
      "op": "Activation", 
      "name": "activation18652", 
      "attr": {"act_type": "sigmoid"}, 
      "inputs": [[992, 2, 0]]
    }, 
    {
      "op": "Activation", 
      "name": "activation18651", 
      "attr": {"act_type": "sigmoid"}, 
      "inputs": [[992, 1, 0]]
    }, 
    {
      "op": "_mul", 
      "name": "_mul11190", 
      "inputs": [[994, 0, 0], [987, 0, 0]]
    }, 
    {
      "op": "Activation", 
      "name": "activation18650", 
      "attr": {"act_type": "sigmoid"}, 
      "inputs": [[992, 0, 0]]
    }, 
    {
      "op": "Activation", 
      "name": "activation18653", 
      "attr": {"act_type": "tanh"}, 
      "inputs": [[992, 3, 0]]
    }, 
    {
      "op": "_mul", 
      "name": "_mul11191", 
      "inputs": [[996, 0, 0], [997, 0, 0]]
    }, 
    {
      "op": "elemwise_add", 
      "name": "_plus7461", 
      "inputs": [[995, 0, 0], [998, 0, 0]]
    }, 
    {
      "op": "Activation", 
      "name": "activation18654", 
      "attr": {"act_type": "tanh"}, 
      "inputs": [[999, 0, 0]]
    }, 
    {
      "op": "_mul", 
      "name": "_mul11192", 
      "inputs": [[993, 0, 0], [1000, 0, 0]]
    }, 
    {
      "op": "FullyConnected", 
      "name": "t66_l0_h2h", 
      "attr": {"num_hidden": "200"}, 
      "inputs": [[1001, 0, 0], [207, 0, 0], [208, 0, 0]]
    }, 
    {
      "op": "elemwise_add", 
      "name": "_plus7464", 
      "inputs": [[139, 0, 0], [1002, 0, 0]]
    }, 
    {
      "op": "SliceChannel", 
      "name": "t66_l0_slice", 
      "attr": {"num_outputs": "4"}, 
      "inputs": [[1003, 0, 0]]
    }, 
    {
      "op": "Activation", 
      "name": "activation18662", 
      "attr": {"act_type": "sigmoid"}, 
      "inputs": [[1004, 2, 0]]
    }, 
    {
      "op": "Activation", 
      "name": "activation18661", 
      "attr": {"act_type": "sigmoid"}, 
      "inputs": [[1004, 1, 0]]
    }, 
    {
      "op": "_mul", 
      "name": "_mul11196", 
      "inputs": [[1006, 0, 0], [999, 0, 0]]
    }, 
    {
      "op": "Activation", 
      "name": "activation18660", 
      "attr": {"act_type": "sigmoid"}, 
      "inputs": [[1004, 0, 0]]
    }, 
    {
      "op": "Activation", 
      "name": "activation18663", 
      "attr": {"act_type": "tanh"}, 
      "inputs": [[1004, 3, 0]]
    }, 
    {
      "op": "_mul", 
      "name": "_mul11197", 
      "inputs": [[1008, 0, 0], [1009, 0, 0]]
    }, 
    {
      "op": "elemwise_add", 
      "name": "_plus7465", 
      "inputs": [[1007, 0, 0], [1010, 0, 0]]
    }, 
    {
      "op": "Activation", 
      "name": "activation18664", 
      "attr": {"act_type": "tanh"}, 
      "inputs": [[1011, 0, 0]]
    }, 
    {
      "op": "_mul", 
      "name": "_mul11198", 
      "inputs": [[1005, 0, 0], [1012, 0, 0]]
    }, 
    {
      "op": "FullyConnected", 
      "name": "t67_l0_h2h", 
      "attr": {"num_hidden": "200"}, 
      "inputs": [[1013, 0, 0], [207, 0, 0], [208, 0, 0]]
    }, 
    {
      "op": "elemwise_add", 
      "name": "_plus7468", 
      "inputs": [[138, 0, 0], [1014, 0, 0]]
    }, 
    {
      "op": "SliceChannel", 
      "name": "t67_l0_slice", 
      "attr": {"num_outputs": "4"}, 
      "inputs": [[1015, 0, 0]]
    }, 
    {
      "op": "Activation", 
      "name": "activation18672", 
      "attr": {"act_type": "sigmoid"}, 
      "inputs": [[1016, 2, 0]]
    }, 
    {
      "op": "Activation", 
      "name": "activation18671", 
      "attr": {"act_type": "sigmoid"}, 
      "inputs": [[1016, 1, 0]]
    }, 
    {
      "op": "_mul", 
      "name": "_mul11202", 
      "inputs": [[1018, 0, 0], [1011, 0, 0]]
    }, 
    {
      "op": "Activation", 
      "name": "activation18670", 
      "attr": {"act_type": "sigmoid"}, 
      "inputs": [[1016, 0, 0]]
    }, 
    {
      "op": "Activation", 
      "name": "activation18673", 
      "attr": {"act_type": "tanh"}, 
      "inputs": [[1016, 3, 0]]
    }, 
    {
      "op": "_mul", 
      "name": "_mul11203", 
      "inputs": [[1020, 0, 0], [1021, 0, 0]]
    }, 
    {
      "op": "elemwise_add", 
      "name": "_plus7469", 
      "inputs": [[1019, 0, 0], [1022, 0, 0]]
    }, 
    {
      "op": "Activation", 
      "name": "activation18674", 
      "attr": {"act_type": "tanh"}, 
      "inputs": [[1023, 0, 0]]
    }, 
    {
      "op": "_mul", 
      "name": "_mul11204", 
      "inputs": [[1017, 0, 0], [1024, 0, 0]]
    }, 
    {
      "op": "FullyConnected", 
      "name": "t68_l0_h2h", 
      "attr": {"num_hidden": "200"}, 
      "inputs": [[1025, 0, 0], [207, 0, 0], [208, 0, 0]]
    }, 
    {
      "op": "elemwise_add", 
      "name": "_plus7472", 
      "inputs": [[137, 0, 0], [1026, 0, 0]]
    }, 
    {
      "op": "SliceChannel", 
      "name": "t68_l0_slice", 
      "attr": {"num_outputs": "4"}, 
      "inputs": [[1027, 0, 0]]
    }, 
    {
      "op": "Activation", 
      "name": "activation18682", 
      "attr": {"act_type": "sigmoid"}, 
      "inputs": [[1028, 2, 0]]
    }, 
    {
      "op": "Activation", 
      "name": "activation18681", 
      "attr": {"act_type": "sigmoid"}, 
      "inputs": [[1028, 1, 0]]
    }, 
    {
      "op": "_mul", 
      "name": "_mul11208", 
      "inputs": [[1030, 0, 0], [1023, 0, 0]]
    }, 
    {
      "op": "Activation", 
      "name": "activation18680", 
      "attr": {"act_type": "sigmoid"}, 
      "inputs": [[1028, 0, 0]]
    }, 
    {
      "op": "Activation", 
      "name": "activation18683", 
      "attr": {"act_type": "tanh"}, 
      "inputs": [[1028, 3, 0]]
    }, 
    {
      "op": "_mul", 
      "name": "_mul11209", 
      "inputs": [[1032, 0, 0], [1033, 0, 0]]
    }, 
    {
      "op": "elemwise_add", 
      "name": "_plus7473", 
      "inputs": [[1031, 0, 0], [1034, 0, 0]]
    }, 
    {
      "op": "Activation", 
      "name": "activation18684", 
      "attr": {"act_type": "tanh"}, 
      "inputs": [[1035, 0, 0]]
    }, 
    {
      "op": "_mul", 
      "name": "_mul11210", 
      "inputs": [[1029, 0, 0], [1036, 0, 0]]
    }, 
    {
      "op": "FullyConnected", 
      "name": "t69_l0_h2h", 
      "attr": {"num_hidden": "200"}, 
      "inputs": [[1037, 0, 0], [207, 0, 0], [208, 0, 0]]
    }, 
    {
      "op": "elemwise_add", 
      "name": "_plus7476", 
      "inputs": [[136, 0, 0], [1038, 0, 0]]
    }, 
    {
      "op": "SliceChannel", 
      "name": "t69_l0_slice", 
      "attr": {"num_outputs": "4"}, 
      "inputs": [[1039, 0, 0]]
    }, 
    {
      "op": "Activation", 
      "name": "activation18692", 
      "attr": {"act_type": "sigmoid"}, 
      "inputs": [[1040, 2, 0]]
    }, 
    {
      "op": "Activation", 
      "name": "activation18691", 
      "attr": {"act_type": "sigmoid"}, 
      "inputs": [[1040, 1, 0]]
    }, 
    {
      "op": "_mul", 
      "name": "_mul11214", 
      "inputs": [[1042, 0, 0], [1035, 0, 0]]
    }, 
    {
      "op": "Activation", 
      "name": "activation18690", 
      "attr": {"act_type": "sigmoid"}, 
      "inputs": [[1040, 0, 0]]
    }, 
    {
      "op": "Activation", 
      "name": "activation18693", 
      "attr": {"act_type": "tanh"}, 
      "inputs": [[1040, 3, 0]]
    }, 
    {
      "op": "_mul", 
      "name": "_mul11215", 
      "inputs": [[1044, 0, 0], [1045, 0, 0]]
    }, 
    {
      "op": "elemwise_add", 
      "name": "_plus7477", 
      "inputs": [[1043, 0, 0], [1046, 0, 0]]
    }, 
    {
      "op": "Activation", 
      "name": "activation18694", 
      "attr": {"act_type": "tanh"}, 
      "inputs": [[1047, 0, 0]]
    }, 
    {
      "op": "_mul", 
      "name": "_mul11216", 
      "inputs": [[1041, 0, 0], [1048, 0, 0]]
    }, 
    {
      "op": "FullyConnected", 
      "name": "t70_l0_h2h", 
      "attr": {"num_hidden": "200"}, 
      "inputs": [[1049, 0, 0], [207, 0, 0], [208, 0, 0]]
    }, 
    {
      "op": "elemwise_add", 
      "name": "_plus7480", 
      "inputs": [[135, 0, 0], [1050, 0, 0]]
    }, 
    {
      "op": "SliceChannel", 
      "name": "t70_l0_slice", 
      "attr": {"num_outputs": "4"}, 
      "inputs": [[1051, 0, 0]]
    }, 
    {
      "op": "Activation", 
      "name": "activation18702", 
      "attr": {"act_type": "sigmoid"}, 
      "inputs": [[1052, 2, 0]]
    }, 
    {
      "op": "Activation", 
      "name": "activation18701", 
      "attr": {"act_type": "sigmoid"}, 
      "inputs": [[1052, 1, 0]]
    }, 
    {
      "op": "_mul", 
      "name": "_mul11220", 
      "inputs": [[1054, 0, 0], [1047, 0, 0]]
    }, 
    {
      "op": "Activation", 
      "name": "activation18700", 
      "attr": {"act_type": "sigmoid"}, 
      "inputs": [[1052, 0, 0]]
    }, 
    {
      "op": "Activation", 
      "name": "activation18703", 
      "attr": {"act_type": "tanh"}, 
      "inputs": [[1052, 3, 0]]
    }, 
    {
      "op": "_mul", 
      "name": "_mul11221", 
      "inputs": [[1056, 0, 0], [1057, 0, 0]]
    }, 
    {
      "op": "elemwise_add", 
      "name": "_plus7481", 
      "inputs": [[1055, 0, 0], [1058, 0, 0]]
    }, 
    {
      "op": "Activation", 
      "name": "activation18704", 
      "attr": {"act_type": "tanh"}, 
      "inputs": [[1059, 0, 0]]
    }, 
    {
      "op": "_mul", 
      "name": "_mul11222", 
      "inputs": [[1053, 0, 0], [1060, 0, 0]]
    }, 
    {
      "op": "FullyConnected", 
      "name": "t71_l0_h2h", 
      "attr": {"num_hidden": "200"}, 
      "inputs": [[1061, 0, 0], [207, 0, 0], [208, 0, 0]]
    }, 
    {
      "op": "elemwise_add", 
      "name": "_plus7484", 
      "inputs": [[134, 0, 0], [1062, 0, 0]]
    }, 
    {
      "op": "SliceChannel", 
      "name": "t71_l0_slice", 
      "attr": {"num_outputs": "4"}, 
      "inputs": [[1063, 0, 0]]
    }, 
    {
      "op": "Activation", 
      "name": "activation18712", 
      "attr": {"act_type": "sigmoid"}, 
      "inputs": [[1064, 2, 0]]
    }, 
    {
      "op": "Activation", 
      "name": "activation18711", 
      "attr": {"act_type": "sigmoid"}, 
      "inputs": [[1064, 1, 0]]
    }, 
    {
      "op": "_mul", 
      "name": "_mul11226", 
      "inputs": [[1066, 0, 0], [1059, 0, 0]]
    }, 
    {
      "op": "Activation", 
      "name": "activation18710", 
      "attr": {"act_type": "sigmoid"}, 
      "inputs": [[1064, 0, 0]]
    }, 
    {
      "op": "Activation", 
      "name": "activation18713", 
      "attr": {"act_type": "tanh"}, 
      "inputs": [[1064, 3, 0]]
    }, 
    {
      "op": "_mul", 
      "name": "_mul11227", 
      "inputs": [[1068, 0, 0], [1069, 0, 0]]
    }, 
    {
      "op": "elemwise_add", 
      "name": "_plus7485", 
      "inputs": [[1067, 0, 0], [1070, 0, 0]]
    }, 
    {
      "op": "Activation", 
      "name": "activation18714", 
      "attr": {"act_type": "tanh"}, 
      "inputs": [[1071, 0, 0]]
    }, 
    {
      "op": "_mul", 
      "name": "_mul11228", 
      "inputs": [[1065, 0, 0], [1072, 0, 0]]
    }, 
    {
      "op": "FullyConnected", 
      "name": "t72_l0_h2h", 
      "attr": {"num_hidden": "200"}, 
      "inputs": [[1073, 0, 0], [207, 0, 0], [208, 0, 0]]
    }, 
    {
      "op": "elemwise_add", 
      "name": "_plus7488", 
      "inputs": [[133, 0, 0], [1074, 0, 0]]
    }, 
    {
      "op": "SliceChannel", 
      "name": "t72_l0_slice", 
      "attr": {"num_outputs": "4"}, 
      "inputs": [[1075, 0, 0]]
    }, 
    {
      "op": "Activation", 
      "name": "activation18722", 
      "attr": {"act_type": "sigmoid"}, 
      "inputs": [[1076, 2, 0]]
    }, 
    {
      "op": "Activation", 
      "name": "activation18721", 
      "attr": {"act_type": "sigmoid"}, 
      "inputs": [[1076, 1, 0]]
    }, 
    {
      "op": "_mul", 
      "name": "_mul11232", 
      "inputs": [[1078, 0, 0], [1071, 0, 0]]
    }, 
    {
      "op": "Activation", 
      "name": "activation18720", 
      "attr": {"act_type": "sigmoid"}, 
      "inputs": [[1076, 0, 0]]
    }, 
    {
      "op": "Activation", 
      "name": "activation18723", 
      "attr": {"act_type": "tanh"}, 
      "inputs": [[1076, 3, 0]]
    }, 
    {
      "op": "_mul", 
      "name": "_mul11233", 
      "inputs": [[1080, 0, 0], [1081, 0, 0]]
    }, 
    {
      "op": "elemwise_add", 
      "name": "_plus7489", 
      "inputs": [[1079, 0, 0], [1082, 0, 0]]
    }, 
    {
      "op": "Activation", 
      "name": "activation18724", 
      "attr": {"act_type": "tanh"}, 
      "inputs": [[1083, 0, 0]]
    }, 
    {
      "op": "_mul", 
      "name": "_mul11234", 
      "inputs": [[1077, 0, 0], [1084, 0, 0]]
    }, 
    {
      "op": "FullyConnected", 
      "name": "t73_l0_h2h", 
      "attr": {"num_hidden": "200"}, 
      "inputs": [[1085, 0, 0], [207, 0, 0], [208, 0, 0]]
    }, 
    {
      "op": "elemwise_add", 
      "name": "_plus7492", 
      "inputs": [[132, 0, 0], [1086, 0, 0]]
    }, 
    {
      "op": "SliceChannel", 
      "name": "t73_l0_slice", 
      "attr": {"num_outputs": "4"}, 
      "inputs": [[1087, 0, 0]]
    }, 
    {
      "op": "Activation", 
      "name": "activation18732", 
      "attr": {"act_type": "sigmoid"}, 
      "inputs": [[1088, 2, 0]]
    }, 
    {
      "op": "Activation", 
      "name": "activation18731", 
      "attr": {"act_type": "sigmoid"}, 
      "inputs": [[1088, 1, 0]]
    }, 
    {
      "op": "_mul", 
      "name": "_mul11238", 
      "inputs": [[1090, 0, 0], [1083, 0, 0]]
    }, 
    {
      "op": "Activation", 
      "name": "activation18730", 
      "attr": {"act_type": "sigmoid"}, 
      "inputs": [[1088, 0, 0]]
    }, 
    {
      "op": "Activation", 
      "name": "activation18733", 
      "attr": {"act_type": "tanh"}, 
      "inputs": [[1088, 3, 0]]
    }, 
    {
      "op": "_mul", 
…
    1251, 
    1255, 
    1256, 
    1257, 
    1258, 
    1259, 
    1260, 
    1261, 
    1262, 
    1263, 
    1264, 
    1265, 
    1266, 
    1270, 
    1271, 
    1272, 
    1273, 
    1274, 
    1275, 
    1276, 
    1277, 
    1278, 
    1279, 
    1280, 
    1281, 
    1285, 
    1286, 
    1287, 
    1288, 
    1289, 
    1290, 
    1291, 
    1292, 
    1293, 
    1294, 
    1295, 
    1296, 
    1300, 
    1301, 
    1302, 
    1303, 
    1304, 
    1305, 
    1306, 
    1307, 
    1308, 
    1309, 
    1310, 
    1311, 
    1315, 
    1316, 
    1317, 
    1318, 
    1319, 
    1320, 
    1321, 
    1322, 
    1323, 
    1324, 
    1325, 
    1326, 
    1330, 
    1331, 
    1332, 
    1333, 
    1334, 
    1335, 
    1336, 
    1337, 
    1338, 
    1339, 
    1340, 
    1341, 
    1345, 
    1346, 
    1347, 
    1348, 
    1349, 
    1350, 
    1351, 
    1352, 
    1353, 
    1354, 
    1355, 
    1356, 
    1360, 
    1361, 
    1362, 
    1363, 
    1364, 
    1365, 
    1366, 
    1367, 
    1368, 
    1369, 
    1370, 
    1371, 
    1375, 
    1376, 
    1377, 
    1378, 
    1379, 
    1380, 
    1381, 
    1382, 
    1383, 
    1384, 
    1385, 
    1386, 
    1390, 
    1391, 
    1392, 
    1393, 
    1394, 
    1395, 
    1396, 
    1397, 
    1398, 
    1399, 
    1400, 
    1401, 
    1405, 
    1406, 
    1407, 
    1408, 
    1409, 
    1410, 
    1411, 
    1412, 
    1413, 
    1414, 
    1415, 
    1416, 
    1420, 
    1421, 
    1422, 
    1423, 
    1424, 
    1425, 
    1426, 
    1427, 
    1428, 
    1429, 
    1430, 
    1431, 
    1435, 
    1436, 
    1437, 
    1438, 
    1439, 
    1440, 
    1441, 
    1442, 
    1443, 
    1444, 
    1445, 
    1446, 
    1450, 
    1451, 
    1452, 
    1453, 
    1454, 
    1455, 
    1456, 
    1457, 
    1458, 
    1459, 
    1460, 
    1461, 
    1465, 
    1466, 
    1467, 
    1468, 
    1469, 
    1470, 
    1471, 
    1472, 
    1473, 
    1474, 
    1475, 
    1476, 
    1480, 
    1481, 
    1482, 
    1483, 
    1484, 
    1485, 
    1486, 
    1487, 
    1488, 
    1489, 
    1490, 
    1491, 
    1495, 
    1496, 
    1497, 
    1498, 
    1499, 
    1500, 
    1501, 
    1502, 
    1503, 
    1504, 
    1505, 
    1506, 
    1510, 
    1511, 
    1512, 
    1513, 
    1514, 
    1515, 
    1516, 
    1517, 
    1518, 
    1519, 
    1520, 
    1521, 
    1525, 
    1526, 
    1527, 
    1528, 
    1529, 
    1530, 
    1531, 
    1532, 
    1533, 
    1534, 
    1535, 
    1536, 
    1540, 
    1541, 
    1542, 
    1543, 
    1544, 
    1545, 
    1546, 
    1547, 
    1548, 
    1549, 
    1550, 
    1551, 
    1555, 
    1556, 
    1557, 
    1558, 
    1559, 
    1560, 
    1561, 
    1562, 
    1563, 
    1564, 
    1565, 
    1566, 
    1570, 
    1571, 
    1572, 
    1573, 
    1574, 
    1575, 
    1576, 
    1577, 
    1578, 
    1579, 
    1580, 
    1581, 
    1585, 
    1586, 
    1587, 
    1588, 
    1589, 
    1590, 
    1591, 
    1592, 
    1593, 
    1594, 
    1595, 
    1596, 
    1600, 
    1601, 
    1602, 
    1603, 
    1604, 
    1605, 
    1606, 
    1607, 
    1608, 
    1609, 
    1610, 
    1611, 
    1615, 
    1616, 
    1617, 
    1618, 
    1619, 
    1620, 
    1621, 
    1622, 
    1623, 
    1624, 
    1625, 
    1626, 
    1630, 
    1631, 
    1632, 
    1633, 
    1634, 
    1635, 
    1636, 
    1637, 
    1638, 
    1639, 
    1640, 
    1641, 
    1645, 
    1646, 
    1647, 
    1648, 
    1649, 
    1650, 
    1651, 
    1652, 
    1653, 
    1654, 
    1655, 
    1656, 
    1660, 
    1661, 
    1662, 
    1663, 
    1664, 
    1665, 
    1666, 
    1667, 
    1668, 
    1669, 
    1670, 
    1671, 
    1675, 
    1676, 
    1677, 
    1678, 
    1679, 
    1680, 
    1681, 
    1682, 
    1683, 
    1684, 
    1685, 
    1686, 
    1690, 
    1691, 
    1692, 
    1693, 
    1694, 
    1695, 
    1696, 
    1697, 
    1698, 
    1699, 
    1700, 
    1701, 
    1705, 
    1706, 
    1707, 
    1708, 
    1709, 
    1710, 
    1711, 
    1712, 
    1713, 
    1714, 
    1715, 
    1716, 
    1720, 
    1721, 
    1722, 
    1723, 
    1724, 
    1725, 
    1726, 
    1727, 
    1728, 
    1729, 
    1730, 
    1731, 
    1735, 
    1736, 
    1737, 
    1738, 
    1739, 
    1740, 
    1741, 
    1742, 
    1743, 
    1744, 
    1745, 
    1746, 
    1750, 
    1751, 
    1752, 
    1753, 
    1754, 
    1755, 
    1756, 
    1757, 
    1758, 
    1759, 
    1760, 
    1761, 
    1765, 
    1766, 
    1767, 
    1768, 
    1769, 
    1770, 
    1771, 
    1772, 
    1773, 
    1774, 
    1775, 
    1776, 
    1780, 
    1781, 
    1782, 
    1783, 
    1784, 
    1785, 
    1786, 
    1787, 
    1788, 
    1789, 
    1790, 
    1791, 
    1795, 
    1796, 
    1797, 
    1798, 
    1799, 
    1800, 
    1801, 
    1802, 
    1803, 
    1804, 
    1805, 
    1806, 
    1810, 
    1811, 
    1812, 
    1813, 
    1814, 
    1815, 
    1816, 
    1817, 
    1818, 
    1819, 
    1820, 
    1821, 
    1825, 
    1826, 
    1827, 
    1828, 
    1829, 
    1830, 
    1831, 
    1832, 
    1833, 
    1834, 
    1835, 
    1836, 
    1840, 
    1841, 
    1842, 
    1843, 
    1844, 
    1845, 
    1846, 
    1847, 
    1848, 
    1849, 
    1850, 
    1851, 
    1855, 
    1856, 
    1857, 
    1858, 
    1859, 
    1860, 
    1861, 
    1862, 
    1863, 
    1864, 
    1865, 
    1866, 
    1870, 
    1871, 
    1872, 
    1873, 
    1874, 
    1875, 
    1876, 
    1877, 
    1878, 
    1879, 
    1880, 
    1881, 
    1885, 
    1886, 
    1887, 
    1888, 
    1889, 
    1890, 
    1891, 
    1892, 
    1893, 
    1894, 
    1895, 
    1896, 
    1900, 
    1901, 
    1902, 
    1903, 
    1904, 
    1905, 
    1906, 
    1907, 
    1908, 
    1909, 
    1910, 
    1911, 
    1915, 
    1916, 
    1917, 
    1918, 
    1919, 
    1920, 
    1921, 
    1922, 
    1923, 
    1924, 
    1925, 
    1926, 
    1930, 
    1931, 
    1932, 
    1933, 
    1934, 
    1935, 
    1936, 
    1937, 
    1938, 
    1939, 
    1940, 
    1941, 
    1945, 
    1946, 
    1947, 
    1948, 
    1949, 
    1950, 
    1951, 
    1952, 
    1953, 
    1954, 
    1955, 
    1956, 
    1960, 
    1961, 
    1962, 
    1963, 
    1964, 
    1965, 
    1966, 
    1967, 
    1968, 
    1969, 
    1970, 
    1971, 
    1975, 
    1976, 
    1977, 
    1978, 
    1979, 
    1980, 
    1981, 
    1982, 
    1983, 
    1984, 
    1985, 
    1986, 
    1990, 
    1991, 
    1992, 
    1993, 
    1994, 
    1995, 
    1996, 
    1997, 
    1998, 
    1999, 
    2000, 
    2001, 
    2005, 
    2006, 
    2007, 
    2008, 
    2009, 
    2010, 
    2011, 
    2012, 
    2013, 
    2014, 
    2015, 
    2016, 
    2020, 
    2021, 
    2022, 
    2023, 
    2024, 
    2025, 
    2026, 
    2027, 
    2028, 
    2029, 
    2030, 
    2031, 
    2035, 
    2036, 
    2037, 
    2038, 
    2039, 
    2040, 
    2041, 
    2042, 
    2043, 
    2044, 
    2045, 
    2046, 
    2050, 
    2051, 
    2052, 
    2053, 
    2054, 
    2055, 
    2056, 
    2057, 
    2058, 
    2059, 
    2060, 
    2061, 
    2065, 
    2066, 
    2067, 
    2068, 
    2069, 
    2070, 
    2071, 
    2072, 
    2073, 
    2074, 
    2075, 
    2076, 
    2080, 
    2081, 
    2082, 
    2083, 
    2084, 
    2085, 
    2086, 
    2087, 
    2088, 
    2089, 
    2090, 
    2091, 
    2095, 
    2096, 
    2097, 
    2098, 
    2099, 
    2100, 
    2101, 
    2102, 
    2103, 
    2104, 
    2105, 
    2106, 
    2110, 
    2111, 
    2112, 
    2113, 
    2114, 
    2115, 
    2116, 
    2117, 
    2118, 
    2119, 
    2120, 
    2121, 
    2125, 
    2126, 
    2127, 
    2128, 
    2129, 
    2130, 
    2131, 
    2132, 
    2133, 
    2134, 
    2135, 
    2136, 
    2140, 
    2141, 
    2142, 
    2143, 
    2144, 
    2145, 
    2146, 
    2147, 
    2148, 
    2149, 
    2150, 
    2151, 
    2155, 
    2156, 
    2157, 
    2158, 
    2159, 
    2160, 
    2161, 
    2162, 
    2163, 
    2164, 
    2165, 
    2166, 
    2170, 
    2171, 
    2172, 
    2173, 
    2174, 
    2175, 
    2176, 
    2177, 
    2178, 
    2179, 
    2180, 
    2181, 
    2185, 
    2186, 
    2187, 
    2188, 
    2189, 
    2190, 
    2191, 
    2192, 
    2193, 
    2194, 
    2195, 
    2196, 
    2200, 
    2201, 
    2202, 
    2203, 
    2204, 
    2205, 
    2206, 
    2207, 
    2208, 
    2209, 
    2210, 
    2211, 
    2215, 
    2216, 
    2217, 
    2218, 
    2219, 
    2220, 
    2221, 
    2222, 
    2223, 
    2224, 
    2225, 
    2226, 
    2230, 
    2231, 
    2232, 
    2233, 
    2234, 
    2235, 
    2236, 
    2237, 
    2238, 
    2239, 
    2240, 
    2241, 
    2245, 
    2246, 
    2247, 
    2248, 
    2249, 
    2250, 
    2251, 
    2252, 
    2253, 
    2254, 
    2255, 
    2256, 
    2260, 
    2261, 
    2262, 
    2263, 
    2264, 
    2265, 
    2266, 
    2267, 
    2268, 
    2269, 
    2270, 
    2271, 
    2275, 
    2276, 
    2277, 
    2278, 
    2279, 
    2280, 
    2281, 
    2282, 
    2283, 
    2284, 
    2285, 
    2286, 
    2290, 
    2291, 
    2292, 
    2293, 
    2294, 
    2295, 
    2296, 
    2297, 
    2298, 
    2299, 
    2300, 
    2301, 
    2305, 
    2306, 
    2307, 
    2308, 
    2309, 
    2310, 
    2311, 
    2312, 
    2313, 
    2314, 
    2315, 
    2316, 
    2320, 
    2321, 
    2322, 
    2323, 
    2324, 
    2325, 
    2326, 
    2327, 
    2328, 
    2329, 
    2330, 
    2331, 
    2335, 
    2336, 
    2337, 
    2338, 
    2339, 
    2340, 
    2341, 
    2342, 
    2343, 
    2344, 
    2345, 
    2346, 
    2350, 
    2351, 
    2352, 
    2353, 
    2354, 
    2355, 
    2356, 
    2357, 
    2358, 
    2359, 
    2360, 
    2361, 
    2365, 
    2366, 
    2367, 
    2368, 
    2369, 
    2370, 
    2371, 
    2372, 
    2373, 
    2374, 
    2375, 
    2376, 
    2380, 
    2381, 
    2382, 
    2383, 
    2384, 
    2385, 
    2386, 
    2387, 
    2388, 
    2389, 
    2390, 
    2391, 
    2395, 
    2396, 
    2397, 
    2398, 
    2399, 
    2400, 
    2401, 
    2402, 
    2403, 
    2404, 
    2405, 
    2406, 
    2410, 
    2411, 
    2412, 
    2413, 
    2414, 
    2415, 
    2416, 
    2417, 
    2418, 
    2419, 
    2420, 
    2421, 
    2425, 
    2426, 
    2427, 
    2428, 
    2429, 
    2430, 
    2431, 
    2432, 
    2433, 
    2434, 
    2435, 
    2436, 
    2440, 
    2441, 
    2442, 
    2443, 
    2444, 
    2445, 
    2446, 
    2447, 
    2448, 
    2449, 
    2450, 
    2451, 
    2455, 
    2456, 
    2457, 
    2458, 
    2459, 
    2460, 
    2461, 
    2462, 
    2463, 
    2464, 
    2465, 
    2466, 
    2470, 
    2471, 
    2472, 
    2473, 
    2474, 
    2475, 
    2476, 
    2477, 
    2478, 
    2479, 
    2480, 
    2481, 
    2485, 
    2486, 
    2487, 
    2488, 
    2489, 
    2490, 
    2491, 
    2492, 
    2493, 
    2494, 
    2495, 
    2496, 
    2500, 
    2501, 
    2502, 
    2503, 
    2504, 
    2505, 
    2506, 
    2507, 
    2508, 
    2509, 
    2510, 
    2511, 
    2515, 
    2516, 
    2517, 
    2518, 
    2519, 
    2520, 
    2521, 
    2522, 
    2523, 
    2524, 
    2525, 
    2526, 
    2530, 
    2531, 
    2532, 
    2533, 
    2534, 
    2535, 
    2536, 
    2537, 
    2538, 
    2539, 
    2540, 
    2541, 
    2545, 
    2546, 
    2547, 
    2548, 
    2549, 
    2550, 
    2551, 
    2552, 
    2553, 
    2554, 
    2555, 
    2556, 
    2560, 
    2561, 
    2562, 
    2563, 
    2564, 
    2565, 
    2566, 
    2567, 
    2568, 
    2569, 
    2570, 
    2571, 
    2575, 
    2576, 
    2577, 
    2578, 
    2579, 
    2580, 
    2581, 
    2582, 
    2583, 
    2584, 
    2585, 
    2586, 
    2590, 
    2591, 
    2592, 
    2593, 
    2594, 
    2595, 
    2596, 
    2597, 
    2598, 
    2599, 
    2600, 
    2601, 
    2605, 
    2606, 
    2607, 
    2608, 
    2609, 
    2610, 
    2611, 
    2612, 
    2613, 
    2614, 
    2615, 
    2616, 
    2620, 
    2621, 
    2622, 
    2623, 
    2624, 
    2625, 
    2626, 
    2627, 
    2628, 
    2629, 
    2630, 
    2631, 
    2635, 
    2636, 
    2637, 
    2638, 
    2639, 
    2640, 
    2641, 
    2642, 
    2643, 
    2644, 
    2645, 
    2646, 
    2650, 
    2651, 
    2652, 
    2653, 
    2654, 
    2655, 
    2656, 
    2657, 
    2658, 
    2659, 
    2660, 
    2661, 
    2665, 
    2666, 
    2667, 
    2668, 
    2669, 
    2670, 
    2671, 
    2672, 
    2673, 
    2674, 
    2675, 
    2676, 
    2680, 
    2681, 
    2682, 
    2683, 
    2684, 
    2685, 
    2686, 
    2687, 
    2688, 
    2689, 
    2690, 
    2691, 
    2695, 
    2696, 
    2697, 
    2698, 
    2699, 
    2700, 
    2701, 
    2702, 
    2703, 
    2704, 
    2705, 
    2706, 
    2710, 
    2711, 
    2712, 
    2713, 
    2714, 
    2715, 
    2716, 
    2717, 
    2718, 
    2719, 
    2720, 
    2721, 
    2725, 
    2726, 
    2727, 
    2728, 
    2729, 
    2730, 
    2731, 
    2732, 
    2733, 
    2734, 
    2735, 
    2736, 
    2740, 
    2741, 
    2742, 
    2743, 
    2744, 
    2745, 
    2746, 
    2747, 
    2748, 
    2749, 
    2750, 
    2751, 
    2755, 
    2756, 
    2757, 
    2758, 
    2759, 
    2760, 
    2761, 
    2762, 
    2763, 
    2764, 
    2765, 
    2766, 
    2770, 
    2771, 
    2772, 
    2773, 
    2774, 
    2775, 
    2776, 
    2777, 
    2778, 
    2779, 
    2780, 
    2781, 
    2785, 
    2786, 
    2787, 
    2788, 
    2789, 
    2790, 
    2791, 
    2792, 
    2793, 
    2794, 
    2795, 
    2796, 
    2800, 
    2801, 
    2802, 
    2803, 
    2804, 
    2805, 
    2806, 
    2807, 
    2808, 
    2809, 
    2810, 
    2811, 
    2815, 
    2816, 
    2817, 
    2818, 
    2819, 
    2820, 
    2821, 
    2822, 
    2823, 
    2824, 
    2825, 
    2826, 
    2830, 
    2831, 
    2832, 
    2833, 
    2834, 
    2835, 
    2836, 
    2837, 
    2838, 
    2839, 
    2840, 
    2841, 
    2845, 
    2846, 
    2847, 
    2848, 
    2849, 
    2850, 
    2851, 
    2852, 
    2853, 
    2854, 
    2855, 
    2856, 
    2860, 
    2861, 
    2862, 
    2863, 
    2864, 
    2865, 
    2866, 
    2867, 
    2868, 
    2869, 
    2870, 
    2871, 
    2875, 
    2876, 
    2877, 
    2878, 
    2879, 
    2880, 
    2881, 
    2882, 
    2883, 
    2884, 
    2885, 
    2886, 
    2890, 
    2891, 
    2892, 
    2893, 
    2894, 
    2895, 
    2896, 
    2897, 
    2898, 
    2899, 
    2900, 
    2901, 
    2905, 
    2906, 
    2907, 
    2908, 
    2909, 
    2910, 
    2911, 
    2912, 
    2913, 
    2914, 
    2915, 
    2916, 
    2920, 
    2921, 
    2922, 
    2923, 
    2924, 
    2925, 
    2926, 
    2927, 
    2928, 
    2929, 
    2930, 
    2931, 
    2935, 
    2936, 
    2937, 
    2938, 
    2939, 
    2940, 
    2941, 
    2942, 
    2943, 
    2944, 
    2945, 
    2946, 
    2950, 
    2951, 
    2952, 
    2953, 
    2954, 
    2955, 
    2956, 
    2957, 
    2958, 
    2959, 
    2960, 
    2961, 
    2965, 
    2966, 
    2967, 
    2968, 
    2969, 
    2970, 
    2971, 
    2972, 
    2973, 
    2974, 
    2975, 
    2976, 
    2980, 
    2981, 
    2982, 
    2983, 
    2984, 
    2985, 
    2986, 
    2987, 
    2988, 
    2989, 
    2990, 
    2991, 
    2995, 
    2996, 
    2997, 
    2998, 
    2999, 
    3000, 
    3001, 
    3002, 
    3003, 
    3004, 
    3005, 
    3006, 
    3010, 
    3011, 
    3012, 
    3013, 
    3014, 
    3015, 
    3016, 
    3017, 
    3018, 
    3019, 
    3020, 
    3021, 
    3025, 
    3026, 
    3027, 
    3028, 
    3029, 
    3030, 
    3031, 
    3032, 
    3033, 
    3034, 
    3035, 
    3036, 
    3040, 
    3041, 
    3042, 
    3043, 
    3044, 
    3045, 
    3046, 
    3047, 
    3048, 
    3049, 
    3050, 
    3051, 
    3055, 
    3056, 
    3057, 
    3058, 
    3059, 
    3060, 
    3061, 
    3062, 
    3063, 
    3064, 
    3065, 
    3066, 
    3070, 
    3071, 
    3072, 
    3073, 
    3074, 
    3075, 
    3076, 
    3077, 
    3078, 
    3079, 
    3080, 
    3081, 
    3085, 
    3086, 
    3087, 
    3088, 
    3089, 
    3090, 
    3091, 
    3092, 
    3093, 
    3094, 
    3095, 
    3096, 
    3100, 
    3101, 
    3102, 
    3103, 
    3104, 
    3105, 
    3106, 
    3107, 
    3108, 
    3109, 
    3110, 
    3111, 
    3115, 
    3116, 
    3117, 
    3118, 
    3119, 
    3120, 
    3121, 
    3122, 
    3123, 
    3124, 
    3125, 
    3126, 
    3130, 
    3131, 
    3132, 
    3133, 
    3134, 
    3135, 
    3136, 
    3137, 
    3138, 
    3139, 
    3140, 
    3141, 
    3145, 
    3146, 
    3147, 
    3148, 
    3149, 
    3150, 
    3151, 
    3152, 
    3153, 
    3154, 
    3155, 
    3156, 
    3160, 
    3161, 
    3162, 
    3163, 
    3164, 
    3165, 
    3166, 
    3167, 
    3168, 
    3169, 
    3170, 
    3171, 
    3175, 
    3176, 
    3177, 
    3178, 
    3179, 
    3180, 
    3181, 
    3182, 
    3183, 
    3184, 
    3185, 
    3186, 
    3190, 
    3191, 
    3192, 
    3193, 
    3194, 
    3195, 
    3196, 
    3197, 
    3198, 
    3199, 
    3200, 
    3201, 
    3205, 
    3206, 
    3207, 
    3208, 
    3209, 
    3210, 
    3211, 
    3212, 
    3213, 
    3214, 
    3215, 
    3216, 
    3220, 
    3221, 
    3222, 
    3223, 
    3224, 
    3225, 
    3226, 
    3227, 
    3228, 
    3229, 
    3230, 
    3231, 
    3235, 
    3236, 
    3237, 
    3238, 
    3239, 
    3240, 
    3241, 
    3242, 
    3243, 
    3244, 
    3245, 
    3246, 
    3250, 
    3251, 
    3252, 
    3253, 
    3254, 
    3255, 
    3256, 
    3257, 
    3258, 
    3259, 
    3260, 
    3261, 
    3265, 
    3266, 
    3267, 
    3268, 
    3269, 
    3270, 
    3271, 
    3272, 
    3273, 
    3274, 
    3275, 
    3276, 
    3280, 
    3281, 
    3282, 
    3283, 
    3284, 
    3285, 
    3286, 
    3287, 
    3288, 
    3289, 
    3290, 
    3291, 
    3295, 
    3296, 
    3297, 
    3298, 
    3299, 
    3300, 
    3301, 
    3302, 
    3303, 
    3304, 
    3305, 
    3306, 
    3310, 
    3311, 
    3312, 
    3313, 
    3314, 
    3315, 
    3316, 
    3317, 
    3318, 
    3319, 
    3320, 
    3321, 
    3325, 
    3326, 
    3327, 
    3328, 
    3329, 
    3330, 
    3331, 
    3332, 
    3333, 
    3334, 
    3335, 
    3336, 
    3340, 
    3341, 
    3342, 
    3343, 
    3344, 
    3345, 
    3346, 
    3347, 
    3348, 
    3349, 
    3350, 
    3351, 
    3355, 
    3356, 
    3357, 
    3358, 
    3359, 
    3360, 
    3361, 
    3362, 
    3363, 
    3364, 
    3365, 
    3366, 
    3370, 
    3371, 
    3372, 
    3373, 
    3374, 
    3375, 
    3376, 
    3377, 
    3378, 
    3379, 
    3380, 
    3381, 
    3385, 
    3386, 
    3387, 
    3388, 
    3389, 
    3390, 
    3391, 
    3392, 
    3393, 
    3394, 
    3395, 
    3396, 
    3400, 
    3401, 
    3402, 
    3403, 
    3404, 
    3405, 
    3406, 
    3407, 
    3408, 
    3409, 
    3411, 
    3412, 
    3413, 
    3414, 
    3416, 
    3417, 
    3419, 
    3420, 
    3422, 
    3423, 
    3425, 
    3426, 
    3428, 
    3429, 
    3431, 
    3432, 
    3434, 
    3435, 
    3437, 
    3438, 
    3440, 
    3441, 
    3443, 
    3444, 
    3446, 
    3447, 
    3449, 
    3450, 
    3452, 
    3453, 
    3455, 
    3456, 
    3458, 
    3459, 
    3461, 
    3462, 
    3464, 
    3465, 
    3467, 
    3468, 
    3470, 
    3471, 
    3473, 
    3474, 
    3476, 
    3477, 
    3479, 
    3480, 
    3482, 
    3483, 
    3485, 
    3486, 
    3488, 
    3489, 
    3491, 
    3492, 
    3494, 
    3495, 
    3497, 
    3498, 
    3500, 
    3501, 
    3503, 
    3504, 
    3506, 
    3507, 
    3509, 
    3510, 
    3512, 
    3513, 
    3515, 
    3516, 
    3518, 
    3519, 
    3521, 
    3522, 
    3524, 
    3525, 
    3527, 
    3528, 
    3530, 
    3531, 
    3533, 
    3534, 
    3536, 
    3537, 
    3539, 
    3540, 
    3542, 
    3543, 
    3545, 
    3546, 
    3548, 
    3549, 
    3551, 
    3552, 
    3554, 
    3555, 
    3557, 
    3558, 
    3560, 
    3561, 
    3563, 
    3564, 
    3566, 
    3567, 
    3569, 
    3570, 
    3572, 
    3573, 
    3575, 
    3576, 
    3578, 
    3579, 
    3581, 
    3582, 
    3584, 
    3585, 
    3587, 
    3588, 
    3590, 
    3591, 
    3593, 
    3594, 
    3596, 
    3597, 
    3599, 
    3600, 
    3602, 
    3603, 
    3605, 
    3606, 
    3608, 
    3609, 
    3611, 
    3612, 
    3614, 
    3615, 
    3617, 
    3618, 
    3620, 
    3621, 
    3623, 
    3624, 
    3626, 
    3627, 
    3629, 
    3630, 
    3632, 
    3633, 
    3635, 
    3636, 
    3638, 
    3639, 
    3641, 
    3642, 
    3644, 
    3645, 
    3647, 
    3648, 
    3650, 
    3651, 
    3653, 
    3654, 
    3656, 
    3657, 
    3659, 
    3660, 
    3662, 
    3663, 
    3665, 
    3666, 
    3668, 
    3669, 
    3671, 
    3672, 
    3674, 
    3675, 
    3677, 
    3678, 
    3680, 
    3681, 
    3683, 
    3684, 
    3686, 
    3687, 
    3689, 
    3690, 
    3692, 
    3693, 
    3695, 
    3696, 
    3698, 
    3699, 
    3701, 
    3702, 
    3704, 
    3705, 
    3707, 
    3708, 
    3710, 
    3711, 
    3713, 
    3714, 
    3716, 
    3717, 
    3719, 
    3720, 
    3722, 
    3723, 
    3725, 
    3726, 
    3728, 
    3729, 
    3731, 
    3732, 
    3734, 
    3735, 
    3737, 
    3738, 
    3740, 
    3741, 
    3743, 
    3744, 
    3746, 
    3747, 
    3749, 
    3750, 
    3752, 
    3753, 
    3755, 
    3756, 
    3758, 
    3759, 
    3761, 
    3762, 
    3764, 
    3765, 
    3767, 
    3768, 
    3770, 
    3771, 
    3773, 
    3774, 
    3776, 
    3777, 
    3779, 
    3780, 
    3782, 
    3783, 
    3785, 
    3786, 
    3788, 
    3789, 
    3791, 
    3792, 
    3794, 
    3795, 
    3797, 
    3798, 
    3800, 
    3801, 
    3803, 
    3804, 
    3806, 
    3807, 
    3809, 
    3810, 
    3812, 
    3813, 
    3815, 
    3816, 
    3818, 
    3819, 
    3821, 
    3822, 
    3824, 
    3825, 
    3827, 
    3828, 
    3830, 
    3831, 
    3833, 
    3834, 
    3836, 
    3837, 
    3839, 
    3840, 
    3842, 
    3843, 
    3845, 
    3846, 
    3848, 
    3849, 
    3851, 
    3852, 
    3854, 
    3855, 
    3857, 
    3858, 
    3860, 
    3861, 
    3863, 
    3864, 
    3866, 
    3867, 
    3869, 
    3870, 
    3872, 
    3873, 
    3875, 
    3876, 
    3878, 
    3879, 
    3881, 
    3882, 
    3884, 
    3885, 
    3887, 
    3888, 
    3890, 
    3891, 
    3893, 
    3894, 
    3896, 
    3897, 
    3899, 
    3900, 
    3902, 
    3903, 
    3905, 
    3906, 
    3908, 
    3909, 
    3911, 
    3912, 
    3914, 
    3915, 
    3917, 
    3918, 
    3920, 
    3921, 
    3923, 
    3924, 
    3926, 
    3927, 
    3929, 
    3930, 
    3932, 
    3933, 
    3935, 
    3936, 
    3938, 
    3939, 
    3941, 
    3942, 
    3944, 
    3945, 
    3947, 
    3948, 
    3950, 
    3951, 
    3953, 
    3954, 
    3956, 
    3957, 
    3959, 
    3960, 
    3962, 
    3963, 
    3965, 
    3966, 
    3968, 
    3969, 
    3971, 
    3972, 
    3974, 
    3975, 
    3977, 
    3978, 
    3980, 
    3981, 
    3983, 
    3984, 
    3986, 
    3987, 
    3989, 
    3990, 
    3992, 
    3993, 
    3995, 
    3996, 
    3998, 
    3999, 
    4001, 
    4002, 
    4004, 
    4005, 
    4007, 
    4008, 
    4010, 
    4011, 
    4012, 
    4013, 
    4014, 
    4015, 
    4016, 
    4020, 
    4021, 
    4022, 
    4023, 
    4024, 
    4025, 
    4026, 
    4027, 
    4028, 
    4029, 
    4030, 
    4031, 
    4032, 
    4036, 
    4037, 
    4038, 
    4039, 
    4040, 
    4041, 
    4042, 
    4043, 
    4044, 
    4045, 
    4046, 
    4047, 
    4051, 
    4052, 
    4053, 
    4054, 
    4055, 
    4056, 
    4057, 
    4058, 
    4059, 
    4060, 
    4061, 
    4062, 
    4066, 
    4067, 
    4068, 
    4069, 
    4070, 
    4071, 
    4072, 
    4073, 
    4074, 
    4075, 
    4076, 
    4077, 
    4081, 
    4082, 
    4083, 
    4084, 
    4085, 
    4086, 
    4087, 
    4088, 
    4089, 
    4090, 
    4091, 
    4092, 
    4096, 
    4097, 
    4098, 
    4099, 
    4100, 
    4101, 
    4102, 
    4103, 
    4104, 
    4105, 
    4106, 
    4107, 
    4111, 
    4112, 
    4113, 
    4114, 
    4115, 
    4116, 
    4117, 
    4118, 
    4119, 
    4120, 
    4121, 
    4122, 
    4126, 
    4127, 
    4128, 
    4129, 
    4130, 
    4131, 
    4132, 
    4133, 
    4134, 
    4135, 
    4136, 
    4137, 
    4141, 
    4142, 
    4143, 
    4144, 
    4145, 
    4146, 
    4147, 
    4148, 
    4149, 
    4150, 
    4151, 
    4152, 
    4156, 
    4157, 
    4158, 
    4159, 
    4160, 
    4161, 
    4162, 
    4163, 
    4164, 
    4165, 
    4166, 
    4167, 
    4171, 
    4172, 
    4173, 
    4174, 
    4175, 
    4176, 
    4177, 
    4178, 
    4179, 
    4180, 
    4181, 
    4182, 
    4186, 
    4187, 
    4188, 
    4189, 
    4190, 
    4191, 
    4192, 
    4193, 
    4194, 
    4195, 
    4196, 
    4197, 
    4201, 
    4202, 
    4203, 
    4204, 
    4205, 
    4206, 
    4207, 
    4208, 
    4209, 
    4210, 
    4211, 
    4212, 
    4216, 
    4217, 
    4218, 
    4219, 
    4220, 
    4221, 
    4222, 
    4223, 
    4224, 
    4225, 
    4226, 
    4227, 
    4231, 
    4232, 
    4233, 
    4234, 
    4235, 
    4236, 
    4237, 
    4238, 
    4239, 
    4240, 
    4241, 
    4242, 
    4246, 
    4247, 
    4248, 
    4249, 
    4250, 
    4251, 
    4252, 
    4253, 
    4254, 
    4255, 
    4256, 
    4257, 
    4261, 
    4262, 
    4263, 
    4264, 
    4265, 
    4266, 
    4267, 
    4268, 
    4269, 
    4270, 
    4271, 
    4272, 
    4276, 
    4277, 
    4278, 
    4279, 
    4280, 
    4281, 
    4282, 
    4283, 
    4284, 
    4285, 
    4286, 
    4287, 
    4291, 
    4292, 
    4293, 
    4294, 
    4295, 
    4296, 
    4297, 
    4298, 
    4299, 
    4300, 
    4301, 
    4302, 
    4306, 
    4307, 
    4308, 
    4309, 
    4310, 
    4311, 
    4312, 
    4313, 
    4314, 
    4315, 
    4316, 
    4317, 
    4321, 
    4322, 
    4323, 
    4324, 
    4325, 
    4326, 
    4327, 
    4328, 
    4329, 
    4330, 
    4331, 
    4332, 
    4336, 
    4337, 
    4338, 
    4339, 
    4340, 
    4341, 
    4342, 
    4343, 
    4344, 
    4345, 
    4346, 
    4347, 
    4351, 
    4352, 
    4353, 
    4354, 
    4355, 
    4356, 
    4357, 
    4358, 
    4359, 
    4360, 
    4361, 
    4362, 
    4366, 
    4367, 
    4368, 
    4369, 
    4370, 
    4371, 
    4372, 
    4373, 
    4374, 
    4375, 
    4376, 
    4377, 
    4381, 
    4382, 
    4383, 
    4384, 
    4385, 
    4386, 
    4387, 
    4388, 
    4389, 
    4390, 
    4391, 
    4392, 
    4396, 
    4397, 
    4398, 
    4399, 
    4400, 
    4401, 
    4402, 
    4403, 
    4404, 
    4405, 
    4406, 
    4407, 
    4411, 
    4412, 
    4413, 
    4414, 
    4415, 
    4416, 
    4417, 
    4418, 
    4419, 
    4420, 
    4421, 
    4422, 
    4426, 
    4427, 
    4428, 
    4429, 
    4430, 
    4431, 
    4432, 
    4433, 
    4434, 
    4435, 
    4436, 
    4437, 
    4441, 
    4442, 
    4443, 
    4444, 
    4445, 
    4446, 
    4447, 
    4448, 
    4449, 
    4450, 
    4451, 
    4452, 
    4456, 
    4457, 
    4458, 
    4459, 
    4460, 
    4461, 
    4462, 
    4463, 
    4464, 
    4465, 
    4466, 
    4467, 
    4471, 
    4472, 
    4473, 
    4474, 
    4475, 
    4476, 
    4477, 
    4478, 
    4479, 
    4480, 
    4481, 
    4482, 
    4486, 
    4487, 
    4488, 
    4489, 
    4490, 
    4491, 
    4492, 
    4493, 
    4494, 
    4495, 
    4496, 
    4497, 
    4501, 
    4502, 
    4503, 
    4504, 
    4505, 
    4506, 
    4507, 
    4508, 
    4509, 
    4510, 
    4511, 
    4512, 
    4516, 
    4517, 
    4518, 
    4519, 
    4520, 
    4521, 
    4522, 
    4523, 
    4524, 
    4525, 
    4526, 
    4527, 
    4531, 
    4532, 
    4533, 
    4534, 
    4535, 
    4536, 
    4537, 
    4538, 
    4539, 
    4540, 
    4541, 
    4542, 
    4546, 
    4547, 
    4548, 
    4549, 
    4550, 
    4551, 
    4552, 
    4553, 
    4554, 
    4555, 
    4556, 
    4557, 
    4561, 
    4562, 
    4563, 
    4564, 
    4565, 
    4566, 
    4567, 
    4568, 
    4569, 
    4570, 
    4571, 
    4572, 
    4576, 
    4577, 
    4578, 
    4579, 
    4580, 
    4581, 
    4582, 
    4583, 
    4584, 
    4585, 
    4586, 
    4587, 
    4591, 
    4592, 
    4593, 
    4594, 
    4595, 
    4596, 
    4597, 
    4598, 
    4599, 
    4600, 
    4601, 
    4602, 
    4606, 
    4607, 
    4608, 
    4609, 
    4610, 
    4611, 
    4612, 
    4613, 
    4614, 
    4615, 
    4616, 
    4617, 
    4621, 
    4622, 
    4623, 
    4624, 
    4625, 
    4626, 
    4627, 
    4628, 
    4629, 
    4630, 
    4631, 
    4632, 
    4636, 
    4637, 
    4638, 
    4639, 
    4640, 
    4641, 
    4642, 
    4643, 
    4644, 
    4645, 
    4646, 
    4647, 
    4651, 
    4652, 
    4653, 
    4654, 
    4655, 
    4656, 
    4657, 
    4658, 
    4659, 
    4660, 
    4661, 
    4662, 
    4666, 
    4667, 
    4668, 
    4669, 
    4670, 
    4671, 
    4672, 
    4673, 
    4674, 
    4675, 
    4676, 
    4677, 
    4681, 
    4682, 
    4683, 
    4684, 
    4685, 
    4686, 
    4687, 
    4688, 
    4689, 
    4690, 
    4691, 
    4692, 
    4696, 
    4697, 
    4698, 
    4699, 
    4700, 
    4701, 
    4702, 
    4703, 
    4704, 
    4705, 
    4706, 
    4707, 
    4711, 
    4712, 
    4713, 
    4714, 
    4715, 
    4716, 
    4717, 
    4718, 
    4719, 
    4720, 
    4721, 
    4722, 
    4726, 
    4727, 
    4728, 
    4729, 
    4730, 
    4731, 
    4732, 
    4733, 
    4734, 
    4735, 
    4736, 
    4737, 
    4741, 
    4742, 
    4743, 
    4744, 
    4745, 
    4746, 
    4747, 
    4748, 
    4749, 
    4750, 
    4751, 
    4752, 
    4756, 
    4757, 
    4758, 
    4759, 
    4760, 
    4761, 
    4762, 
    4763, 
    4764, 
    4765, 
    4766, 
    4767, 
    4771, 
    4772, 
    4773, 
    4774, 
    4775, 
    4776, 
    4777, 
    4778, 
    4779, 
    4780, 
    4781, 
    4782, 
    4786, 
    4787, 
    4788, 
    4789, 
    4790, 
    4791, 
    4792, 
    4793, 
    4794, 
    4795, 
    4796, 
    4797, 
    4801, 
    4802, 
    4803, 
    4804, 
    4805, 
    4806, 
    4807, 
    4808, 
    4809, 
    4810, 
    4811, 
    4812, 
    4816, 
    4817, 
    4818, 
    4819, 
    4820, 
    4821, 
    4822, 
    4823, 
    4824, 
    4825, 
    4826, 
    4827, 
    4831, 
    4832, 
    4833, 
    4834, 
    4835, 
    4836, 
    4837, 
    4838, 
    4839, 
    4840, 
    4841, 
    4842, 
    4846, 
    4847, 
    4848, 
    4849, 
    4850, 
    4851, 
    4852, 
    4853, 
    4854, 
    4855, 
    4856, 
    4857, 
    4861, 
    4862, 
    4863, 
    4864, 
    4865, 
    4866, 
    4867, 
    4868, 
    4869, 
    4870, 
    4871, 
    4872, 
    4876, 
    4877, 
    4878, 
    4879, 
    4880, 
    4881, 
    4882, 
    4883, 
    4884, 
    4885, 
    4886, 
    4887, 
    4891, 
    4892, 
    4893, 
    4894, 
    4895, 
    4896, 
    4897, 
    4898, 
    4899, 
    4900, 
    4901, 
    4902, 
    4906, 
    4907, 
    4908, 
    4909, 
    4910, 
    4911, 
    4912, 
    4913, 
    4914, 
    4915, 
    4916, 
    4917, 
    4921, 
    4922, 
    4923, 
    4924, 
    4925, 
    4926, 
    4927, 
    4928, 
    4929, 
    4930, 
    4931, 
    4932, 
    4936, 
    4937, 
    4938, 
    4939, 
    4940, 
    4941, 
    4942, 
    4943, 
    4944, 
    4945, 
    4946, 
    4947, 
    4951, 
    4952, 
    4953, 
    4954, 
    4955, 
    4956, 
    4957, 
    4958, 
    4959, 
    4960, 
    4961, 
    4962, 
    4966, 
    4967, 
    4968, 
    4969, 
    4970, 
    4971, 
    4972, 
    4973, 
    4974, 
    4975, 
    4976, 
    4977, 
    4981, 
    4982, 
    4983, 
    4984, 
    4985, 
    4986, 
    4987, 
    4988, 
    4989, 
    4990, 
    4991, 
    4992, 
    4996, 
    4997, 
    4998, 
    4999, 
    5000, 
    5001, 
    5002, 
    5003, 
    5004, 
    5005, 
    5006, 
    5007, 
    5011, 
    5012, 
    5013, 
    5014, 
    5015, 
    5016, 
    5017, 
    5018, 
    5019, 
    5020, 
    5021, 
    5022, 
    5026, 
    5027, 
    5028, 
    5029, 
    5030, 
    5031, 
    5032, 
    5033, 
    5034, 
    5035, 
    5036, 
    5037, 
    5041, 
    5042, 
    5043, 
    5044, 
    5045, 
    5046, 
    5047, 
    5048, 
    5049, 
    5050, 
    5051, 
    5052, 
    5056, 
    5057, 
    5058, 
    5059, 
    5060, 
    5061, 
    5062, 
    5063, 
    5064, 
    5065, 
    5066, 
    5067, 
    5071, 
    5072, 
    5073, 
    5074, 
    5075, 
    5076, 
    5077, 
    5078, 
    5079, 
    5080, 
    5081, 
    5082, 
    5086, 
    5087, 
    5088, 
    5089, 
    5090, 
    5091, 
    5092, 
    5093, 
    5094, 
    5095, 
    5096, 
    5097, 
    5101, 
    5102, 
    5103, 
    5104, 
    5105, 
    5106, 
    5107, 
    5108, 
    5109, 
    5110, 
    5111, 
    5112, 
    5116, 
    5117, 
    5118, 
    5119, 
    5120, 
    5121, 
    5122, 
    5123, 
    5124, 
    5125, 
    5126, 
    5127, 
    5131, 
    5132, 
    5133, 
    5134, 
    5135, 
    5136, 
    5137, 
    5138, 
    5139, 
    5140, 
    5141, 
    5142, 
    5146, 
    5147, 
    5148, 
    5149, 
    5150, 
    5151, 
    5152, 
    5153, 
    5154, 
    5155, 
    5156, 
    5157, 
    5161, 
    5162, 
    5163, 
    5164, 
    5165, 
    5166, 
    5167, 
    5168, 
    5169, 
    5170, 
    5171, 
    5172, 
    5176, 
    5177, 
    5178, 
    5179, 
    5180, 
    5181, 
    5182, 
    5183, 
    5184, 
    5185, 
    5186, 
    5187, 
    5191, 
    5192, 
    5193, 
    5194, 
    5195, 
    5196, 
    5197, 
    5198, 
    5199, 
    5200, 
    5201, 
    5202, 
    5206, 
    5207, 
    5208, 
    5209, 
    5210, 
    5211, 
    5212, 
    5213, 
    5214, 
    5215, 
    5216, 
    5217, 
    5221, 
    5222, 
    5223, 
    5224, 
    5225, 
    5226, 
    5227, 
    5228, 
    5229, 
    5230, 
    5231, 
    5232, 
    5236, 
    5237, 
    5238, 
    5239, 
    5240, 
    5241, 
    5242, 
    5243, 
    5244, 
    5245, 
    5246, 
    5247, 
    5251, 
    5252, 
    5253, 
    5254, 
    5255, 
    5256, 
    5257, 
    5258, 
    5259, 
    5260, 
    5261, 
    5262, 
    5266, 
    5267, 
    5268, 
    5269, 
    5270, 
    5271, 
    5272, 
    5273, 
    5274, 
    5275, 
    5276, 
    5277, 
    5281, 
    5282, 
    5283, 
    5284, 
    5285, 
    5286, 
    5287, 
    5288, 
    5289, 
    5290, 
    5291, 
    5292, 
    5296, 
    5297, 
    5298, 
    5299, 
    5300, 
    5301, 
    5302, 
    5303, 
    5304, 
    5305, 
    5306, 
    5307, 
    5311, 
    5312, 
    5313, 
    5314, 
    5315, 
    5316, 
    5317, 
    5318, 
    5319, 
    5320, 
    5321, 
    5322, 
    5326, 
    5327, 
    5328, 
    5329, 
    5330, 
    5331, 
    5332, 
    5333, 
    5334, 
    5335, 
    5336, 
    5337, 
    5341, 
    5342, 
    5343, 
    5344, 
    5345, 
    5346, 
    5347, 
    5348, 
    5349, 
    5350, 
    5351, 
    5352, 
    5356, 
    5357, 
    5358, 
    5359, 
    5360, 
    5361, 
    5362, 
    5363, 
    5364, 
    5365, 
    5366, 
    5367, 
    5371, 
    5372, 
    5373, 
    5374, 
    5375, 
    5376, 
    5377, 
    5378, 
    5379, 
    5380, 
    5381, 
    5382, 
    5386, 
    5387, 
    5388, 
    5389, 
    5390, 
    5391, 
    5392, 
    5393, 
    5394, 
    5395, 
    5396, 
    5397, 
    5401, 
    5402, 
    5403, 
    5404, 
    5405, 
    5406, 
    5407, 
    5408, 
    5409, 
    5410, 
    5411, 
    5412, 
    5416, 
    5417, 
    5418, 
    5419, 
    5420, 
    5421, 
    5422, 
    5423, 
    5424, 
    5425, 
    5426, 
    5427, 
    5431, 
    5432, 
    5433, 
    5434, 
    5435, 
    5436, 
    5437, 
    5438, 
    5439, 
    5440, 
    5441, 
    5442, 
    5446, 
    5447, 
    5448, 
    5449, 
    5450, 
    5451, 
    5452, 
    5453, 
    5454, 
    5455, 
    5456, 
    5457, 
    5461, 
    5462, 
    5463, 
    5464, 
    5465, 
    5466, 
    5467, 
    5468, 
    5469, 
    5470, 
    5471, 
    5472, 
    5476, 
    5477, 
    5478, 
    5479, 
    5480, 
    5481, 
    5482, 
    5483, 
    5484, 
    5485, 
    5486, 
    5487, 
    5491, 
    5492, 
    5493, 
    5494, 
    5495, 
    5496, 
    5497, 
    5498, 
    5499, 
    5500, 
    5501, 
    5502, 
    5506, 
    5507, 
    5508, 
    5509, 
    5510, 
    5511, 
    5512, 
    5513, 
    5514, 
    5515, 
    5516, 
    5517, 
    5521, 
    5522, 
    5523, 
    5524, 
    5525, 
    5526, 
    5527, 
    5528, 
    5529, 
    5530, 
    5531, 
    5532, 
    5536, 
    5537, 
    5538, 
    5539, 
    5540, 
    5541, 
    5542, 
    5543, 
    5544, 
    5545, 
    5546, 
    5547, 
    5551, 
    5552, 
    5553, 
    5554, 
    5555, 
    5556, 
    5557, 
    5558, 
    5559, 
    5560, 
    5561, 
    5562, 
    5566, 
    5567, 
    5568, 
    5569, 
    5570, 
    5571, 
    5572, 
    5573, 
    5574, 
    5575, 
    5576, 
    5577, 
    5581, 
    5582, 
    5583, 
    5584, 
    5585, 
    5586, 
    5587, 
    5588, 
    5589, 
    5590, 
    5591, 
    5592, 
    5596, 
    5597, 
    5598, 
    5599, 
    5600, 
    5601, 
    5602, 
    5603, 
    5604, 
    5605, 
    5606, 
    5607, 
    5611, 
    5612, 
    5613, 
    5614, 
    5615, 
    5616, 
    5617, 
    5618, 
    5619, 
    5620, 
    5621, 
    5622, 
    5626, 
    5627, 
    5628, 
    5629, 
    5630, 
    5631, 
    5632, 
    5633, 
    5634, 
    5635, 
    5636, 
    5637, 
    5641, 
    5642, 
    5643, 
    5644, 
    5645, 
    5646, 
    5647, 
    5648, 
    5649, 
    5650, 
    5651, 
    5652, 
    5656, 
    5657, 
    5658, 
    5659, 
    5660, 
    5661, 
    5662, 
    5663, 
    5664, 
    5665, 
    5666, 
    5667, 
    5671, 
    5672, 
    5673, 
    5674, 
    5675, 
    5676, 
    5677, 
    5678, 
    5679, 
    5680, 
    5681, 
    5682, 
    5686, 
    5687, 
    5688, 
    5689, 
    5690, 
    5691, 
    5692, 
    5693, 
    5694, 
    5695, 
    5696, 
    5697, 
    5701, 
    5702, 
    5703, 
    5704, 
    5705, 
    5706, 
    5707, 
    5708, 
    5709, 
    5710, 
    5711, 
    5712, 
    5716, 
    5717, 
    5718, 
    5719, 
    5720, 
    5721, 
    5722, 
    5723, 
    5724, 
    5725, 
    5726, 
    5727, 
    5731, 
    5732, 
    5733, 
    5734, 
    5735, 
    5736, 
    5737, 
    5738, 
    5739, 
    5740, 
    5741, 
    5742, 
    5746, 
    5747, 
    5748, 
    5749, 
    5750, 
    5751, 
    5752, 
    5753, 
    5754, 
    5755, 
    5756, 
    5757, 
    5761, 
    5762, 
    5763, 
    5764, 
    5765, 
    5766, 
    5767, 
    5768, 
    5769, 
    5770, 
    5771, 
    5772, 
    5776, 
    5777, 
    5778, 
    5779, 
    5780, 
    5781, 
    5782, 
    5783, 
    5784, 
    5785, 
    5786, 
    5787, 
    5791, 
    5792, 
    5793, 
    5794, 
    5795, 
    5796, 
    5797, 
    5798, 
    5799, 
    5800, 
    5801, 
    5802, 
    5806, 
    5807, 
    5808, 
    5809, 
    5810, 
    5811, 
    5812, 
    5813, 
    5814, 
    5815, 
    5816, 
    5817, 
    5821, 
    5822, 
    5823, 
    5824, 
    5825, 
    5826, 
    5827, 
    5828, 
    5829, 
    5830, 
    5831, 
    5832, 
    5836, 
    5837, 
    5838, 
    5839, 
    5840, 
    5841, 
    5842, 
    5843, 
    5844, 
    5845, 
    5846, 
    5847, 
    5851, 
    5852, 
    5853, 
    5854, 
    5855, 
    5856, 
    5857, 
    5858, 
    5859, 
    5860, 
    5861, 
    5862, 
    5866, 
    5867, 
    5868, 
    5869, 
    5870, 
    5871, 
    5872, 
    5873, 
    5874, 
    5875, 
    5876, 
    5877, 
    5881, 
    5882, 
    5883, 
    5884, 
    5885, 
    5886, 
    5887, 
    5888, 
    5889, 
    5890, 
    5891, 
    5892, 
    5896, 
    5897, 
    5898, 
    5899, 
    5900, 
    5901, 
    5902, 
    5903, 
    5904, 
    5905, 
    5906, 
    5907, 
    5911, 
    5912, 
    5913, 
    5914, 
    5915, 
    5916, 
    5917, 
    5918, 
    5919, 
    5920, 
    5921, 
    5922, 
    5926, 
    5927, 
    5928, 
    5929, 
    5930, 
    5931, 
    5932, 
    5933, 
    5934, 
    5935, 
    5936, 
    5937, 
    5941, 
    5942, 
    5943, 
    5944, 
    5945, 
    5946, 
    5947, 
    5948, 
    5949, 
    5950, 
    5951, 
    5952, 
    5956, 
    5957, 
    5958, 
    5959, 
    5960, 
    5961, 
    5962, 
    5963, 
    5964, 
    5965, 
    5966, 
    5967, 
    5971, 
    5972, 
    5973, 
    5974, 
    5975, 
    5976, 
    5977, 
    5978, 
    5979, 
    5980, 
    5981, 
    5982, 
    5986, 
    5987, 
    5988, 
    5989, 
    5990, 
    5991, 
    5992, 
    5993, 
    5994, 
    5995, 
    5996, 
    5997, 
    6001, 
    6002, 
    6003, 
    6004, 
    6005, 
    6006, 
    6007, 
    6008, 
    6009, 
    6010, 
    6011, 
    6012, 
    6016, 
    6017, 
    6018, 
    6019, 
    6020, 
    6021, 
    6022, 
    6023, 
    6024, 
    6025, 
    6026, 
    6027, 
    6031, 
    6032, 
    6033, 
    6034, 
    6035, 
    6036, 
    6037, 
    6038, 
    6039, 
    6040, 
    6041, 
    6042, 
    6046, 
    6047, 
    6048, 
    6049, 
    6050, 
    6051, 
    6052, 
    6053, 
    6054, 
    6055, 
    6056, 
    6057, 
    6061, 
    6062, 
    6063, 
    6064, 
    6065, 
    6066, 
    6067, 
    6068, 
    6069, 
    6070, 
    6071, 
    6072, 
    6076, 
    6077, 
    6078, 
    6079, 
    6080, 
    6081, 
    6082, 
    6083, 
    6084, 
    6085, 
    6086, 
    6087, 
    6091, 
    6092, 
    6093, 
    6094, 
    6095, 
    6096, 
    6097, 
    6098, 
    6099, 
    6100, 
    6101, 
    6102, 
    6106, 
    6107, 
    6108, 
    6109, 
    6110, 
    6111, 
    6112, 
    6113, 
    6114, 
    6115, 
    6116, 
    6117, 
    6121, 
    6122, 
    6123, 
    6124, 
    6125, 
    6126, 
    6127, 
    6128, 
    6129, 
    6130, 
    6131, 
    6132, 
    6136, 
    6137, 
    6138, 
    6139, 
    6140, 
    6141, 
    6142, 
    6143, 
    6144, 
    6145, 
    6146, 
    6147, 
    6151, 
    6152, 
    6153, 
    6154, 
    6155, 
    6156, 
    6157, 
    6158, 
    6159, 
    6160, 
    6161, 
    6162, 
    6166, 
    6167, 
    6168, 
    6169, 
    6170, 
    6171, 
    6172, 
    6173, 
    6174, 
    6175, 
    6176, 
    6177, 
    6181, 
    6182, 
    6183, 
    6184, 
    6185, 
    6186, 
    6187, 
    6188, 
    6189, 
    6190, 
    6191, 
    6192, 
    6196, 
    6197, 
    6198, 
    6199, 
    6200, 
    6201, 
    6202, 
    6203, 
    6204, 
    6205, 
    6206, 
    6207, 
    6211, 
    6212, 
    6213, 
    6214, 
    6215, 
    6216, 
    6217, 
    6218, 
    6219, 
    6220, 
    6221, 
    6222, 
    6226, 
    6227, 
    6228, 
    6229, 
    6230, 
    6231, 
    6232, 
    6233, 
    6234, 
    6235, 
    6236, 
    6237, 
    6241, 
    6242, 
    6243, 
    6244, 
    6245, 
    6246, 
    6247, 
    6248, 
    6249, 
    6250, 
    6251, 
    6252, 
    6256, 
    6257, 
    6258, 
    6259, 
    6260, 
    6261, 
    6262, 
    6263, 
    6264, 
    6265, 
    6266, 
    6267, 
    6271, 
    6272, 
    6273, 
    6274, 
    6275, 
    6276, 
    6277, 
    6278, 
    6279, 
    6280, 
    6281, 
    6282, 
    6286, 
    6287, 
    6288, 
    6289, 
    6290, 
    6291, 
    6292, 
    6293, 
    6294, 
    6295, 
    6296, 
    6297, 
    6301, 
    6302, 
    6303, 
    6304, 
    6305, 
    6306, 
    6307, 
    6308, 
    6309, 
    6310, 
    6311, 
    6312, 
    6316, 
    6317, 
    6318, 
    6319, 
    6320, 
    6321, 
    6322, 
    6323, 
    6324, 
    6325, 
    6326, 
    6327, 
    6331, 
    6332, 
    6333, 
    6334, 
    6335, 
    6336, 
    6337, 
    6338, 
    6339, 
    6340, 
    6341, 
    6342, 
    6346, 
    6347, 
    6348, 
    6349, 
    6350, 
    6351, 
    6352, 
    6353, 
    6354, 
    6355, 
    6356, 
    6357, 
    6361, 
    6362, 
    6363, 
    6364, 
    6365, 
    6366, 
    6367, 
    6368, 
    6369, 
    6370, 
    6371, 
    6372, 
    6376, 
    6377, 
    6378, 
    6379, 
    6380, 
    6381, 
    6382, 
    6383, 
    6384, 
    6385, 
    6386, 
    6387, 
    6391, 
    6392, 
    6393, 
    6394, 
    6395, 
    6396, 
    6397, 
    6398, 
    6399, 
    6400, 
    6401, 
    6402, 
    6406, 
    6407, 
    6408, 
    6409, 
    6410, 
    6411, 
    6412, 
    6413, 
    6414, 
    6415, 
    6416, 
    6417, 
    6421, 
    6422, 
    6423, 
    6424, 
    6425, 
    6426, 
    6427, 
    6428, 
    6429, 
    6430, 
    6431, 
    6432, 
    6436, 
    6437, 
    6438, 
    6439, 
    6440, 
    6441, 
    6442, 
    6443, 
    6444, 
    6445, 
    6446, 
    6447, 
    6451, 
    6452, 
    6453, 
    6454, 
    6455, 
    6456, 
    6457, 
    6458, 
    6459, 
    6460, 
    6461, 
    6462, 
    6466, 
    6467, 
    6468, 
    6469, 
    6470, 
    6471, 
    6472, 
    6473, 
    6474, 
    6475, 
    6476, 
    6477, 
    6481, 
    6482, 
    6483, 
    6484, 
    6485, 
    6486, 
    6487, 
    6488, 
    6489, 
    6490, 
    6491, 
    6492, 
    6496, 
    6497, 
    6498, 
    6499, 
    6500, 
    6501, 
    6502, 
    6503, 
    6504, 
    6505, 
    6506, 
    6507, 
    6511, 
    6512, 
    6513, 
    6514, 
    6515, 
    6516, 
    6517, 
    6518, 
    6519, 
    6520, 
    6521, 
    6522, 
    6526, 
    6527, 
    6528, 
    6529, 
    6530, 
    6531, 
    6532, 
    6533, 
    6534, 
    6535, 
    6536, 
    6537, 
    6541, 
    6542, 
    6543, 
    6544, 
    6545, 
    6546, 
    6547, 
    6548, 
    6549, 
    6550, 
    6551, 
    6552, 
    6556, 
    6557, 
    6558, 
    6559, 
    6560, 
    6561, 
    6562, 
    6563, 
    6564, 
    6565, 
    6566, 
    6567, 
    6571, 
    6572, 
    6573, 
    6574, 
    6575, 
    6576, 
    6577, 
    6578, 
    6579, 
    6580, 
    6581, 
    6582, 
    6586, 
    6587, 
    6588, 
    6589, 
    6590, 
    6591, 
    6592, 
    6593, 
    6594, 
    6595, 
    6596, 
    6597, 
    6601, 
    6602, 
    6603, 
    6604, 
    6605, 
    6606, 
    6607, 
    6608, 
    6609, 
    6610, 
    6611, 
    6612, 
    6616, 
    6617, 
    6618, 
    6619, 
    6620, 
    6621, 
    6622, 
    6623, 
    6624, 
    6625, 
    6626, 
    6627, 
    6631, 
    6632, 
    6633, 
    6634, 
    6635, 
    6636, 
    6637, 
    6638, 
    6639, 
    6640, 
    6641, 
    6642, 
    6646, 
    6647, 
    6648, 
    6649, 
    6650, 
    6651, 
    6652, 
    6653, 
    6654, 
    6655, 
    6656, 
    6657, 
    6661, 
    6662, 
    6663, 
    6664, 
    6665, 
    6666, 
    6667, 
    6668, 
    6669, 
    6670, 
    6671, 
    6672, 
    6676, 
    6677, 
    6678, 
    6679, 
    6680, 
    6681, 
    6682, 
    6683, 
    6684, 
    6685, 
    6686, 
    6687, 
    6691, 
    6692, 
    6693, 
    6694, 
    6695, 
    6696, 
    6697, 
    6698, 
    6699, 
    6700, 
    6701, 
    6702, 
    6706, 
    6707, 
    6708, 
    6709, 
    6710, 
    6711, 
    6712, 
    6713, 
    6714, 
    6715, 
    6716, 
    6717, 
    6721, 
    6722, 
    6723, 
    6724, 
    6725, 
    6726, 
    6727, 
    6728, 
    6729, 
    6730, 
    6731, 
    6732, 
    6736, 
    6737, 
    6738, 
    6739, 
    6740, 
    6741, 
    6742, 
    6743, 
    6744, 
    6745, 
    6746, 
    6747, 
    6751, 
    6752, 
    6753, 
    6754, 
    6755, 
    6756, 
    6757, 
    6758, 
    6759, 
    6760, 
    6761, 
    6762, 
    6766, 
    6767, 
    6768, 
    6769, 
    6770, 
    6771, 
    6772, 
    6773, 
    6774, 
    6775, 
    6776, 
    6777, 
    6781, 
    6782, 
    6783, 
    6784, 
    6785, 
    6786, 
    6787, 
    6788, 
    6789, 
    6790, 
    6791, 
    6792, 
    6796, 
    6797, 
    6798, 
    6799, 
    6800, 
    6801, 
    6802, 
    6803, 
    6804, 
    6805, 
    6806, 
    6807, 
    6811, 
    6812, 
    6813, 
    6814, 
    6815, 
    6816, 
    6817, 
    6818, 
    6819, 
    6820, 
    6821, 
    6822, 
    6826, 
    6827, 
    6828, 
    6829, 
    6830, 
    6831, 
    6832, 
    6833, 
    6834, 
    6835, 
    6836, 
    6837, 
    6841, 
    6842, 
    6843, 
    6844, 
    6845, 
    6846, 
    6847, 
    6848, 
    6849, 
    6850, 
    6851, 
    6852, 
    6856, 
    6857, 
    6858, 
    6859, 
    6860, 
    6861, 
    6862, 
    6863, 
    6864, 
    6865, 
    6866, 
    6867, 
    6871, 
    6872, 
    6873, 
    6874, 
    6875, 
    6876, 
    6877, 
    6878, 
    6879, 
    6880, 
    6881, 
    6882, 
    6886, 
    6887, 
    6888, 
    6889, 
    6890, 
    6891, 
    6892, 
    6893, 
    6894, 
    6895, 
    6896, 
    6897, 
    6901, 
    6902, 
    6903, 
    6904, 
    6905, 
    6906, 
    6907, 
    6908, 
    6909, 
    6910, 
    6911, 
    6912, 
    6916, 
    6917, 
    6918, 
    6919, 
    6920, 
    6921, 
    6922, 
    6923, 
    6924, 
    6925, 
    6926, 
    6927, 
    6931, 
    6932, 
    6933, 
    6934, 
    6935, 
    6936, 
    6937, 
    6938, 
    6939, 
    6940, 
    6941, 
    6942, 
    6946, 
    6947, 
    6948, 
    6949, 
    6950, 
    6951, 
    6952, 
    6953, 
    6954, 
    6955, 
    6956, 
    6957, 
    6961, 
    6962, 
    6963, 
    6964, 
    6965, 
    6966, 
    6967, 
    6968, 
    6969, 
    6970, 
    6971, 
    6972, 
    6976, 
    6977, 
    6978, 
    6979, 
    6980, 
    6981, 
    6982, 
    6983, 
    6984, 
    6985, 
    6986, 
    6987, 
    6991, 
    6992, 
    6993, 
    6994, 
    6995, 
    6996, 
    6997, 
    6998, 
    6999, 
    7000, 
    7001, 
    7002, 
    7006, 
    7007, 
    7008, 
    7009, 
    7010, 
    7011, 
    7012, 
    7013, 
    7014, 
    7015, 
    7017, 
    7018, 
    7019, 
    7020, 
    7021, 
    7022
  ], 
  "heads": [[5421, 0, 0]], 
  "attrs": {"mxnet_version": ["int", 904]}
}